// -----// IR Dump Before Inliner (inline) ('builtin.module' operation) //----- //
#loc = loc("/home/adespirl/wave/lit_tests/kernel/wave/gemm_bench.py":41:0)
module {
  tt.func public @matmul_abt_kernel(%arg0: !tt.ptr<f32> {tt.divisibility = 16 : i32, tt.pointer_range = 32 : i32} loc("/home/adespirl/wave/lit_tests/kernel/wave/gemm_bench.py":41:0), %arg1: !tt.ptr<bf16> {tt.divisibility = 16 : i32, tt.pointer_range = 32 : i32} loc("/home/adespirl/wave/lit_tests/kernel/wave/gemm_bench.py":41:0), %arg2: !tt.ptr<bf16> {tt.divisibility = 16 : i32, tt.pointer_range = 32 : i32} loc("/home/adespirl/wave/lit_tests/kernel/wave/gemm_bench.py":41:0), %arg3: i32 {tt.divisibility = 16 : i32} loc("/home/adespirl/wave/lit_tests/kernel/wave/gemm_bench.py":41:0), %arg4: i32 {tt.divisibility = 16 : i32} loc("/home/adespirl/wave/lit_tests/kernel/wave/gemm_bench.py":41:0), %arg5: i32 loc("/home/adespirl/wave/lit_tests/kernel/wave/gemm_bench.py":41:0), %arg6: i32 loc("/home/adespirl/wave/lit_tests/kernel/wave/gemm_bench.py":41:0), %arg7: i32 loc("/home/adespirl/wave/lit_tests/kernel/wave/gemm_bench.py":41:0), %arg8: i32 {tt.divisibility = 16 : i32} loc("/home/adespirl/wave/lit_tests/kernel/wave/gemm_bench.py":41:0)) attributes {noinline = false} {
    %0 = tt.get_program_id x : i32 loc(#loc1)
    %1 = tt.get_program_id y : i32 loc(#loc2)
    %c64_i32 = arith.constant 64 : i32 loc(#loc3)
    %c64_i32_0 = arith.constant 64 : i32 loc(#loc3)
    %2 = arith.extsi %0 : i32 to i64 loc(#loc3)
    %3 = arith.extsi %c64_i32_0 : i32 to i64 loc(#loc3)
    %4 = arith.muli %2, %3 : i64 loc(#loc3)
    %c2147483647_i64 = arith.constant 2147483647 : i64 loc(#loc3)
    %c-2147483648_i64 = arith.constant -2147483648 : i64 loc(#loc3)
    %5 = arith.cmpi sle, %4, %c2147483647_i64 : i64 loc(#loc3)
    %6 = arith.cmpi sge, %4, %c-2147483648_i64 : i64 loc(#loc3)
    %7 = arith.andi %5, %6 : i1 loc(#loc3)
    %8 = arith.muli %0, %c64_i32_0 : i32 loc(#loc3)
    %9 = tt.make_range {end = 64 : i32, start = 0 : i32} : tensor<64xi32> loc(#loc4)
    %10 = tt.splat %8 : i32 -> tensor<64xi32> loc(#loc5)
    %11 = arith.extsi %10 : tensor<64xi32> to tensor<64xi64> loc(#loc5)
    %12 = arith.extsi %9 : tensor<64xi32> to tensor<64xi64> loc(#loc5)
    %13 = arith.addi %11, %12 : tensor<64xi64> loc(#loc5)
    %c2147483647_i64_1 = arith.constant 2147483647 : i64 loc(#loc5)
    %c-2147483648_i64_2 = arith.constant -2147483648 : i64 loc(#loc5)
    %cst = arith.constant dense<2147483647> : tensor<64xi64> loc(#loc5)
    %14 = arith.cmpi sle, %13, %cst : tensor<64xi64> loc(#loc5)
    %cst_3 = arith.constant dense<-2147483648> : tensor<64xi64> loc(#loc5)
    %15 = arith.cmpi sge, %13, %cst_3 : tensor<64xi64> loc(#loc5)
    %16 = arith.andi %14, %15 : tensor<64xi1> loc(#loc5)
    %17 = arith.addi %10, %9 : tensor<64xi32> loc(#loc5)
    %c64_i32_4 = arith.constant 64 : i32 loc(#loc6)
    %c64_i32_5 = arith.constant 64 : i32 loc(#loc6)
    %18 = arith.extsi %1 : i32 to i64 loc(#loc6)
    %19 = arith.extsi %c64_i32_5 : i32 to i64 loc(#loc6)
    %20 = arith.muli %18, %19 : i64 loc(#loc6)
    %c2147483647_i64_6 = arith.constant 2147483647 : i64 loc(#loc6)
    %c-2147483648_i64_7 = arith.constant -2147483648 : i64 loc(#loc6)
    %21 = arith.cmpi sle, %20, %c2147483647_i64_6 : i64 loc(#loc6)
    %22 = arith.cmpi sge, %20, %c-2147483648_i64_7 : i64 loc(#loc6)
    %23 = arith.andi %21, %22 : i1 loc(#loc6)
    %24 = arith.muli %1, %c64_i32_5 : i32 loc(#loc6)
    %25 = tt.make_range {end = 64 : i32, start = 0 : i32} : tensor<64xi32> loc(#loc7)
    %26 = tt.splat %24 : i32 -> tensor<64xi32> loc(#loc8)
    %27 = arith.extsi %26 : tensor<64xi32> to tensor<64xi64> loc(#loc8)
    %28 = arith.extsi %25 : tensor<64xi32> to tensor<64xi64> loc(#loc8)
    %29 = arith.addi %27, %28 : tensor<64xi64> loc(#loc8)
    %c2147483647_i64_8 = arith.constant 2147483647 : i64 loc(#loc8)
    %c-2147483648_i64_9 = arith.constant -2147483648 : i64 loc(#loc8)
    %cst_10 = arith.constant dense<2147483647> : tensor<64xi64> loc(#loc8)
    %30 = arith.cmpi sle, %29, %cst_10 : tensor<64xi64> loc(#loc8)
    %cst_11 = arith.constant dense<-2147483648> : tensor<64xi64> loc(#loc8)
    %31 = arith.cmpi sge, %29, %cst_11 : tensor<64xi64> loc(#loc8)
    %32 = arith.andi %30, %31 : tensor<64xi1> loc(#loc8)
    %33 = arith.addi %26, %25 : tensor<64xi32> loc(#loc8)
    %34 = tt.make_range {end = 32 : i32, start = 0 : i32} : tensor<32xi32> loc(#loc9)
    %35 = tt.call @"zeros____(0, 0)cconstexpr_64__(0, 1)cconstexpr_64__(1,)cconstexpr_fp32_"() : () -> tensor<64x64xf32> loc(#loc10)
    %c0_i32 = arith.constant 0 : i32 loc(#loc11)
    %c32_i32 = arith.constant 32 : i32 loc(#loc11)
    %36 = arith.bitcast %c0_i32 : i32 to i32 loc(#loc11)
    %37 = arith.bitcast %arg5 : i32 to i32 loc(#loc11)
    %38 = arith.bitcast %c32_i32 : i32 to i32 loc(#loc11)
    %39 = ub.poison : i32 loc(#loc11)
    %40 = scf.for %arg9 = %36 to %37 step %38 iter_args(%arg10 = %35) -> (tensor<64x64xf32>)  : i32 {
      %72 = tt.splat %arg9 : i32 -> tensor<32xi32> loc(#loc12)
      %73 = arith.extsi %72 : tensor<32xi32> to tensor<32xi64> loc(#loc12)
      %74 = arith.extsi %34 : tensor<32xi32> to tensor<32xi64> loc(#loc12)
      %75 = arith.addi %73, %74 : tensor<32xi64> loc(#loc12)
      %c2147483647_i64_22 = arith.constant 2147483647 : i64 loc(#loc12)
      %c-2147483648_i64_23 = arith.constant -2147483648 : i64 loc(#loc12)
      %cst_24 = arith.constant dense<2147483647> : tensor<32xi64> loc(#loc12)
      %76 = arith.cmpi sle, %75, %cst_24 : tensor<32xi64> loc(#loc12)
      %cst_25 = arith.constant dense<-2147483648> : tensor<32xi64> loc(#loc12)
      %77 = arith.cmpi sge, %75, %cst_25 : tensor<32xi64> loc(#loc12)
      %78 = arith.andi %76, %77 : tensor<32xi1> loc(#loc12)
      %79 = arith.addi %72, %34 : tensor<32xi32> loc(#loc12)
      %80 = tt.splat %arg5 : i32 -> tensor<32xi32> loc(#loc13)
      %81 = arith.cmpi slt, %79, %80 : tensor<32xi32> loc(#loc13)
      %82 = tt.expand_dims %17 {axis = 1 : i32} : tensor<64xi32> -> tensor<64x1xi32> loc(#loc14)
      %83 = tt.splat %arg6 : i32 -> tensor<64x1xi32> loc(#loc15)
      %84 = arith.extsi %82 : tensor<64x1xi32> to tensor<64x1xi64> loc(#loc15)
      %85 = arith.extsi %83 : tensor<64x1xi32> to tensor<64x1xi64> loc(#loc15)
      %86 = arith.muli %84, %85 : tensor<64x1xi64> loc(#loc15)
      %c2147483647_i64_26 = arith.constant 2147483647 : i64 loc(#loc15)
      %c-2147483648_i64_27 = arith.constant -2147483648 : i64 loc(#loc15)
      %cst_28 = arith.constant dense<2147483647> : tensor<64x1xi64> loc(#loc15)
      %87 = arith.cmpi sle, %86, %cst_28 : tensor<64x1xi64> loc(#loc15)
      %cst_29 = arith.constant dense<-2147483648> : tensor<64x1xi64> loc(#loc15)
      %88 = arith.cmpi sge, %86, %cst_29 : tensor<64x1xi64> loc(#loc15)
      %89 = arith.andi %87, %88 : tensor<64x1xi1> loc(#loc15)
      %90 = arith.muli %82, %83 : tensor<64x1xi32> loc(#loc15)
      %91 = tt.splat %arg1 : !tt.ptr<bf16> -> tensor<64x1x!tt.ptr<bf16>> loc(#loc16)
      %92 = tt.addptr %91, %90 : tensor<64x1x!tt.ptr<bf16>>, tensor<64x1xi32> loc(#loc16)
      %93 = tt.splat %arg9 : i32 -> tensor<32xi32> loc(#loc17)
      %94 = arith.extsi %93 : tensor<32xi32> to tensor<32xi64> loc(#loc17)
      %95 = arith.extsi %34 : tensor<32xi32> to tensor<32xi64> loc(#loc17)
      %96 = arith.addi %94, %95 : tensor<32xi64> loc(#loc17)
      %c2147483647_i64_30 = arith.constant 2147483647 : i64 loc(#loc17)
      %c-2147483648_i64_31 = arith.constant -2147483648 : i64 loc(#loc17)
      %cst_32 = arith.constant dense<2147483647> : tensor<32xi64> loc(#loc17)
      %97 = arith.cmpi sle, %96, %cst_32 : tensor<32xi64> loc(#loc17)
      %cst_33 = arith.constant dense<-2147483648> : tensor<32xi64> loc(#loc17)
      %98 = arith.cmpi sge, %96, %cst_33 : tensor<32xi64> loc(#loc17)
      %99 = arith.andi %97, %98 : tensor<32xi1> loc(#loc17)
      %100 = arith.addi %93, %34 : tensor<32xi32> loc(#loc17)
      %101 = tt.expand_dims %100 {axis = 0 : i32} : tensor<32xi32> -> tensor<1x32xi32> loc(#loc18)
      %c1_i32_34 = arith.constant 1 : i32 loc(#loc19)
      %c1_i32_35 = arith.constant 1 : i32 loc(#loc19)
      %cst_36 = arith.constant dense<1> : tensor<1x32xi32> loc(#loc19)
      %102 = arith.extsi %101 : tensor<1x32xi32> to tensor<1x32xi64> loc(#loc19)
      %103 = arith.extsi %cst_36 : tensor<1x32xi32> to tensor<1x32xi64> loc(#loc19)
      %104 = arith.muli %102, %103 : tensor<1x32xi64> loc(#loc19)
      %c2147483647_i64_37 = arith.constant 2147483647 : i64 loc(#loc19)
      %c-2147483648_i64_38 = arith.constant -2147483648 : i64 loc(#loc19)
      %cst_39 = arith.constant dense<2147483647> : tensor<1x32xi64> loc(#loc19)
      %105 = arith.cmpi sle, %104, %cst_39 : tensor<1x32xi64> loc(#loc19)
      %cst_40 = arith.constant dense<-2147483648> : tensor<1x32xi64> loc(#loc19)
      %106 = arith.cmpi sge, %104, %cst_40 : tensor<1x32xi64> loc(#loc19)
      %107 = arith.andi %105, %106 : tensor<1x32xi1> loc(#loc19)
      %108 = arith.muli %101, %cst_36 : tensor<1x32xi32> loc(#loc19)
      %109 = tt.broadcast %92 : tensor<64x1x!tt.ptr<bf16>> -> tensor<64x32x!tt.ptr<bf16>> loc(#loc20)
      %110 = tt.broadcast %108 : tensor<1x32xi32> -> tensor<64x32xi32> loc(#loc20)
      %111 = tt.addptr %109, %110 : tensor<64x32x!tt.ptr<bf16>>, tensor<64x32xi32> loc(#loc20)
      %112 = tt.expand_dims %17 {axis = 1 : i32} : tensor<64xi32> -> tensor<64x1xi32> loc(#loc21)
      %113 = tt.splat %arg3 : i32 -> tensor<64x1xi32> loc(#loc22)
      %114 = arith.cmpi slt, %112, %113 : tensor<64x1xi32> loc(#loc22)
      %115 = tt.expand_dims %81 {axis = 0 : i32} : tensor<32xi1> -> tensor<1x32xi1> loc(#loc23)
      %116 = tt.broadcast %114 : tensor<64x1xi1> -> tensor<64x32xi1> loc(#loc24)
      %117 = tt.broadcast %115 : tensor<1x32xi1> -> tensor<64x32xi1> loc(#loc24)
      %118 = arith.andi %116, %117 : tensor<64x32xi1> loc(#loc24)
      %cst_41 = arith.constant 0.000000e+00 : f32 loc(#loc25)
      %cst_42 = arith.constant dense<0.000000e+00> : tensor<64x32xf32> loc(#loc25)
      %119 = arith.truncf %cst_42 : tensor<64x32xf32> to tensor<64x32xbf16> loc(#loc25)
      %120 = tt.load %111, %118, %119 : tensor<64x32x!tt.ptr<bf16>> loc(#loc25)
      %121 = tt.expand_dims %33 {axis = 1 : i32} : tensor<64xi32> -> tensor<64x1xi32> loc(#loc26)
      %122 = tt.splat %arg7 : i32 -> tensor<64x1xi32> loc(#loc27)
      %123 = arith.extsi %121 : tensor<64x1xi32> to tensor<64x1xi64> loc(#loc27)
      %124 = arith.extsi %122 : tensor<64x1xi32> to tensor<64x1xi64> loc(#loc27)
      %125 = arith.muli %123, %124 : tensor<64x1xi64> loc(#loc27)
      %c2147483647_i64_43 = arith.constant 2147483647 : i64 loc(#loc27)
      %c-2147483648_i64_44 = arith.constant -2147483648 : i64 loc(#loc27)
      %cst_45 = arith.constant dense<2147483647> : tensor<64x1xi64> loc(#loc27)
      %126 = arith.cmpi sle, %125, %cst_45 : tensor<64x1xi64> loc(#loc27)
      %cst_46 = arith.constant dense<-2147483648> : tensor<64x1xi64> loc(#loc27)
      %127 = arith.cmpi sge, %125, %cst_46 : tensor<64x1xi64> loc(#loc27)
      %128 = arith.andi %126, %127 : tensor<64x1xi1> loc(#loc27)
      %129 = arith.muli %121, %122 : tensor<64x1xi32> loc(#loc27)
      %130 = tt.splat %arg2 : !tt.ptr<bf16> -> tensor<64x1x!tt.ptr<bf16>> loc(#loc28)
      %131 = tt.addptr %130, %129 : tensor<64x1x!tt.ptr<bf16>>, tensor<64x1xi32> loc(#loc28)
      %132 = tt.splat %arg9 : i32 -> tensor<32xi32> loc(#loc29)
      %133 = arith.extsi %132 : tensor<32xi32> to tensor<32xi64> loc(#loc29)
      %134 = arith.extsi %34 : tensor<32xi32> to tensor<32xi64> loc(#loc29)
      %135 = arith.addi %133, %134 : tensor<32xi64> loc(#loc29)
      %c2147483647_i64_47 = arith.constant 2147483647 : i64 loc(#loc29)
      %c-2147483648_i64_48 = arith.constant -2147483648 : i64 loc(#loc29)
      %cst_49 = arith.constant dense<2147483647> : tensor<32xi64> loc(#loc29)
      %136 = arith.cmpi sle, %135, %cst_49 : tensor<32xi64> loc(#loc29)
      %cst_50 = arith.constant dense<-2147483648> : tensor<32xi64> loc(#loc29)
      %137 = arith.cmpi sge, %135, %cst_50 : tensor<32xi64> loc(#loc29)
      %138 = arith.andi %136, %137 : tensor<32xi1> loc(#loc29)
      %139 = arith.addi %132, %34 : tensor<32xi32> loc(#loc29)
      %140 = tt.expand_dims %139 {axis = 0 : i32} : tensor<32xi32> -> tensor<1x32xi32> loc(#loc30)
      %c1_i32_51 = arith.constant 1 : i32 loc(#loc31)
      %c1_i32_52 = arith.constant 1 : i32 loc(#loc31)
      %cst_53 = arith.constant dense<1> : tensor<1x32xi32> loc(#loc31)
      %141 = arith.extsi %140 : tensor<1x32xi32> to tensor<1x32xi64> loc(#loc31)
      %142 = arith.extsi %cst_53 : tensor<1x32xi32> to tensor<1x32xi64> loc(#loc31)
      %143 = arith.muli %141, %142 : tensor<1x32xi64> loc(#loc31)
      %c2147483647_i64_54 = arith.constant 2147483647 : i64 loc(#loc31)
      %c-2147483648_i64_55 = arith.constant -2147483648 : i64 loc(#loc31)
      %cst_56 = arith.constant dense<2147483647> : tensor<1x32xi64> loc(#loc31)
      %144 = arith.cmpi sle, %143, %cst_56 : tensor<1x32xi64> loc(#loc31)
      %cst_57 = arith.constant dense<-2147483648> : tensor<1x32xi64> loc(#loc31)
      %145 = arith.cmpi sge, %143, %cst_57 : tensor<1x32xi64> loc(#loc31)
      %146 = arith.andi %144, %145 : tensor<1x32xi1> loc(#loc31)
      %147 = arith.muli %140, %cst_53 : tensor<1x32xi32> loc(#loc31)
      %148 = tt.broadcast %131 : tensor<64x1x!tt.ptr<bf16>> -> tensor<64x32x!tt.ptr<bf16>> loc(#loc32)
      %149 = tt.broadcast %147 : tensor<1x32xi32> -> tensor<64x32xi32> loc(#loc32)
      %150 = tt.addptr %148, %149 : tensor<64x32x!tt.ptr<bf16>>, tensor<64x32xi32> loc(#loc32)
      %151 = tt.expand_dims %33 {axis = 1 : i32} : tensor<64xi32> -> tensor<64x1xi32> loc(#loc33)
      %152 = tt.splat %arg4 : i32 -> tensor<64x1xi32> loc(#loc34)
      %153 = arith.cmpi slt, %151, %152 : tensor<64x1xi32> loc(#loc34)
      %154 = tt.expand_dims %81 {axis = 0 : i32} : tensor<32xi1> -> tensor<1x32xi1> loc(#loc35)
      %155 = tt.broadcast %153 : tensor<64x1xi1> -> tensor<64x32xi1> loc(#loc36)
      %156 = tt.broadcast %154 : tensor<1x32xi1> -> tensor<64x32xi1> loc(#loc36)
      %157 = arith.andi %155, %156 : tensor<64x32xi1> loc(#loc36)
      %cst_58 = arith.constant 0.000000e+00 : f32 loc(#loc37)
      %cst_59 = arith.constant dense<0.000000e+00> : tensor<64x32xf32> loc(#loc37)
      %158 = arith.truncf %cst_59 : tensor<64x32xf32> to tensor<64x32xbf16> loc(#loc37)
      %159 = tt.load %150, %157, %158 : tensor<64x32x!tt.ptr<bf16>> loc(#loc37)
      %160 = tt.trans %159 {order = array<i32: 1, 0>} : tensor<64x32xbf16> -> tensor<32x64xbf16> loc(#loc38)
      %cst_60 = arith.constant 0.000000e+00 : f32 loc(#loc39)
      %cst_61 = arith.constant dense<0.000000e+00> : tensor<64x64xf32> loc(#loc39)
      %161 = tt.dot %120, %160, %cst_61 : tensor<64x32xbf16> * tensor<32x64xbf16> -> tensor<64x64xf32> loc(#loc39)
      %162 = arith.addf %arg10, %161 : tensor<64x64xf32> loc(#loc40)
      scf.yield %162 : tensor<64x64xf32> loc(#loc41)
    } loc(#loc11)
    %41 = tt.expand_dims %17 {axis = 1 : i32} : tensor<64xi32> -> tensor<64x1xi32> loc(#loc42)
    %42 = tt.splat %arg8 : i32 -> tensor<64x1xi32> loc(#loc43)
    %43 = arith.extsi %41 : tensor<64x1xi32> to tensor<64x1xi64> loc(#loc43)
    %44 = arith.extsi %42 : tensor<64x1xi32> to tensor<64x1xi64> loc(#loc43)
    %45 = arith.muli %43, %44 : tensor<64x1xi64> loc(#loc43)
    %c2147483647_i64_12 = arith.constant 2147483647 : i64 loc(#loc43)
    %c-2147483648_i64_13 = arith.constant -2147483648 : i64 loc(#loc43)
    %cst_14 = arith.constant dense<2147483647> : tensor<64x1xi64> loc(#loc43)
    %46 = arith.cmpi sle, %45, %cst_14 : tensor<64x1xi64> loc(#loc43)
    %cst_15 = arith.constant dense<-2147483648> : tensor<64x1xi64> loc(#loc43)
    %47 = arith.cmpi sge, %45, %cst_15 : tensor<64x1xi64> loc(#loc43)
    %48 = arith.andi %46, %47 : tensor<64x1xi1> loc(#loc43)
    %49 = arith.muli %41, %42 : tensor<64x1xi32> loc(#loc43)
    %50 = tt.splat %arg0 : !tt.ptr<f32> -> tensor<64x1x!tt.ptr<f32>> loc(#loc44)
    %51 = tt.addptr %50, %49 : tensor<64x1x!tt.ptr<f32>>, tensor<64x1xi32> loc(#loc44)
    %52 = tt.expand_dims %33 {axis = 0 : i32} : tensor<64xi32> -> tensor<1x64xi32> loc(#loc45)
    %c1_i32 = arith.constant 1 : i32 loc(#loc46)
    %c1_i32_16 = arith.constant 1 : i32 loc(#loc46)
    %cst_17 = arith.constant dense<1> : tensor<1x64xi32> loc(#loc46)
    %53 = arith.extsi %52 : tensor<1x64xi32> to tensor<1x64xi64> loc(#loc46)
    %54 = arith.extsi %cst_17 : tensor<1x64xi32> to tensor<1x64xi64> loc(#loc46)
    %55 = arith.muli %53, %54 : tensor<1x64xi64> loc(#loc46)
    %c2147483647_i64_18 = arith.constant 2147483647 : i64 loc(#loc46)
    %c-2147483648_i64_19 = arith.constant -2147483648 : i64 loc(#loc46)
    %cst_20 = arith.constant dense<2147483647> : tensor<1x64xi64> loc(#loc46)
    %56 = arith.cmpi sle, %55, %cst_20 : tensor<1x64xi64> loc(#loc46)
    %cst_21 = arith.constant dense<-2147483648> : tensor<1x64xi64> loc(#loc46)
    %57 = arith.cmpi sge, %55, %cst_21 : tensor<1x64xi64> loc(#loc46)
    %58 = arith.andi %56, %57 : tensor<1x64xi1> loc(#loc46)
    %59 = arith.muli %52, %cst_17 : tensor<1x64xi32> loc(#loc46)
    %60 = tt.broadcast %51 : tensor<64x1x!tt.ptr<f32>> -> tensor<64x64x!tt.ptr<f32>> loc(#loc47)
    %61 = tt.broadcast %59 : tensor<1x64xi32> -> tensor<64x64xi32> loc(#loc47)
    %62 = tt.addptr %60, %61 : tensor<64x64x!tt.ptr<f32>>, tensor<64x64xi32> loc(#loc47)
    %63 = tt.expand_dims %17 {axis = 1 : i32} : tensor<64xi32> -> tensor<64x1xi32> loc(#loc48)
    %64 = tt.splat %arg3 : i32 -> tensor<64x1xi32> loc(#loc49)
    %65 = arith.cmpi slt, %63, %64 : tensor<64x1xi32> loc(#loc49)
    %66 = tt.expand_dims %33 {axis = 0 : i32} : tensor<64xi32> -> tensor<1x64xi32> loc(#loc50)
    %67 = tt.splat %arg4 : i32 -> tensor<1x64xi32> loc(#loc51)
    %68 = arith.cmpi slt, %66, %67 : tensor<1x64xi32> loc(#loc51)
    %69 = tt.broadcast %65 : tensor<64x1xi1> -> tensor<64x64xi1> loc(#loc52)
    %70 = tt.broadcast %68 : tensor<1x64xi1> -> tensor<64x64xi1> loc(#loc52)
    %71 = arith.andi %69, %70 : tensor<64x64xi1> loc(#loc52)
    tt.store %62, %40, %71 : tensor<64x64x!tt.ptr<f32>> loc(#loc53)
    tt.return loc(#loc54)
  } loc(#loc)
  tt.func private @"zeros____(0, 0)cconstexpr_64__(0, 1)cconstexpr_64__(1,)cconstexpr_fp32_"() -> tensor<64x64xf32> attributes {noinline = false} {
    %cst = arith.constant 0.000000e+00 : f32 loc(#loc56)
    %cst_0 = arith.constant dense<0.000000e+00> : tensor<64x64xf32> loc(#loc56)
    tt.return %cst_0 : tensor<64x64xf32> loc(#loc57)
  ^bb1:  // no predecessors
    %0 = ub.poison : tensor<64x64xf32> loc(#loc58)
    tt.return %0 : tensor<64x64xf32> loc(#loc58)
  } loc(#loc55)
} loc(#loc)
#loc1 = loc("/home/adespirl/wave/lit_tests/kernel/wave/gemm_bench.py":49:26)
#loc2 = loc("/home/adespirl/wave/lit_tests/kernel/wave/gemm_bench.py":50:26)
#loc3 = loc("/home/adespirl/wave/lit_tests/kernel/wave/gemm_bench.py":52:21)
#loc4 = loc("/home/adespirl/wave/lit_tests/kernel/wave/gemm_bench.py":52:44)
#loc5 = loc("/home/adespirl/wave/lit_tests/kernel/wave/gemm_bench.py":52:31)
#loc6 = loc("/home/adespirl/wave/lit_tests/kernel/wave/gemm_bench.py":53:21)
#loc7 = loc("/home/adespirl/wave/lit_tests/kernel/wave/gemm_bench.py":53:44)
#loc8 = loc("/home/adespirl/wave/lit_tests/kernel/wave/gemm_bench.py":53:31)
#loc9 = loc("/home/adespirl/wave/lit_tests/kernel/wave/gemm_bench.py":54:26)
#loc10 = loc("/home/adespirl/wave/lit_tests/kernel/wave/gemm_bench.py":56:19)
#loc11 = loc("/home/adespirl/wave/lit_tests/kernel/wave/gemm_bench.py":58:26)
#loc12 = loc("/home/adespirl/wave/lit_tests/kernel/wave/gemm_bench.py":59:23)
#loc13 = loc("/home/adespirl/wave/lit_tests/kernel/wave/gemm_bench.py":59:33)
#loc14 = loc("/home/adespirl/wave/lit_tests/kernel/wave/gemm_bench.py":63:27)
#loc15 = loc("/home/adespirl/wave/lit_tests/kernel/wave/gemm_bench.py":63:38)
#loc16 = loc("/home/adespirl/wave/lit_tests/kernel/wave/gemm_bench.py":63:20)
#loc17 = loc("/home/adespirl/wave/lit_tests/kernel/wave/gemm_bench.py":64:26)
#loc18 = loc("/home/adespirl/wave/lit_tests/kernel/wave/gemm_bench.py":64:34)
#loc19 = loc("/home/adespirl/wave/lit_tests/kernel/wave/gemm_bench.py":64:45)
#loc20 = loc("/home/adespirl/wave/lit_tests/kernel/wave/gemm_bench.py":64:20)
#loc21 = loc("/home/adespirl/wave/lit_tests/kernel/wave/gemm_bench.py":66:38)
#loc22 = loc("/home/adespirl/wave/lit_tests/kernel/wave/gemm_bench.py":66:49)
#loc23 = loc("/home/adespirl/wave/lit_tests/kernel/wave/gemm_bench.py":66:61)
#loc24 = loc("/home/adespirl/wave/lit_tests/kernel/wave/gemm_bench.py":66:54)
#loc25 = loc("/home/adespirl/wave/lit_tests/kernel/wave/gemm_bench.py":65:25)
#loc26 = loc("/home/adespirl/wave/lit_tests/kernel/wave/gemm_bench.py":71:27)
#loc27 = loc("/home/adespirl/wave/lit_tests/kernel/wave/gemm_bench.py":71:38)
#loc28 = loc("/home/adespirl/wave/lit_tests/kernel/wave/gemm_bench.py":71:20)
#loc29 = loc("/home/adespirl/wave/lit_tests/kernel/wave/gemm_bench.py":72:26)
#loc30 = loc("/home/adespirl/wave/lit_tests/kernel/wave/gemm_bench.py":72:34)
#loc31 = loc("/home/adespirl/wave/lit_tests/kernel/wave/gemm_bench.py":72:45)
#loc32 = loc("/home/adespirl/wave/lit_tests/kernel/wave/gemm_bench.py":72:20)
#loc33 = loc("/home/adespirl/wave/lit_tests/kernel/wave/gemm_bench.py":74:41)
#loc34 = loc("/home/adespirl/wave/lit_tests/kernel/wave/gemm_bench.py":74:52)
#loc35 = loc("/home/adespirl/wave/lit_tests/kernel/wave/gemm_bench.py":74:64)
#loc36 = loc("/home/adespirl/wave/lit_tests/kernel/wave/gemm_bench.py":74:57)
#loc37 = loc("/home/adespirl/wave/lit_tests/kernel/wave/gemm_bench.py":73:28)
#loc38 = loc("/home/adespirl/wave/lit_tests/kernel/wave/gemm_bench.py":76:26)
#loc39 = loc("/home/adespirl/wave/lit_tests/kernel/wave/gemm_bench.py":78:30)
#loc40 = loc("/home/adespirl/wave/lit_tests/kernel/wave/gemm_bench.py":78:15)
#loc41 = loc("/home/adespirl/wave/lit_tests/kernel/wave/gemm_bench.py":78:8)
#loc42 = loc("/home/adespirl/wave/lit_tests/kernel/wave/gemm_bench.py":80:24)
#loc43 = loc("/home/adespirl/wave/lit_tests/kernel/wave/gemm_bench.py":80:35)
#loc44 = loc("/home/adespirl/wave/lit_tests/kernel/wave/gemm_bench.py":80:17)
#loc45 = loc("/home/adespirl/wave/lit_tests/kernel/wave/gemm_bench.py":80:54)
#loc46 = loc("/home/adespirl/wave/lit_tests/kernel/wave/gemm_bench.py":80:65)
#loc47 = loc("/home/adespirl/wave/lit_tests/kernel/wave/gemm_bench.py":80:47)
#loc48 = loc("/home/adespirl/wave/lit_tests/kernel/wave/gemm_bench.py":81:39)
#loc49 = loc("/home/adespirl/wave/lit_tests/kernel/wave/gemm_bench.py":81:50)
#loc50 = loc("/home/adespirl/wave/lit_tests/kernel/wave/gemm_bench.py":81:63)
#loc51 = loc("/home/adespirl/wave/lit_tests/kernel/wave/gemm_bench.py":81:74)
#loc52 = loc("/home/adespirl/wave/lit_tests/kernel/wave/gemm_bench.py":81:56)
#loc53 = loc("/home/adespirl/wave/lit_tests/kernel/wave/gemm_bench.py":81:21)
#loc54 = loc("/home/adespirl/wave/lit_tests/kernel/wave/gemm_bench.py":81:4)
#loc55 = loc("/app/triton-amd/python/triton/language/standard.py":117:0)
#loc56 = loc("/app/triton-amd/python/triton/language/standard.py":126:31)
#loc57 = loc("/app/triton-amd/python/triton/language/standard.py":126:11)
#loc58 = loc("/app/triton-amd/python/triton/language/standard.py":126:4)


// -----// IR Dump Before Canonicalizer (canonicalize) ('tt.func' operation: @zeros____(0, 0)cconstexpr_64__(0, 1)cconstexpr_64__(1,)cconstexpr_fp32_) //----- //
#loc = loc("/home/adespirl/wave/lit_tests/kernel/wave/gemm_bench.py":41:0)
module {
  tt.func public @matmul_abt_kernel(%arg0: !tt.ptr<f32> {tt.divisibility = 16 : i32, tt.pointer_range = 32 : i32} loc("/home/adespirl/wave/lit_tests/kernel/wave/gemm_bench.py":41:0), %arg1: !tt.ptr<bf16> {tt.divisibility = 16 : i32, tt.pointer_range = 32 : i32} loc("/home/adespirl/wave/lit_tests/kernel/wave/gemm_bench.py":41:0), %arg2: !tt.ptr<bf16> {tt.divisibility = 16 : i32, tt.pointer_range = 32 : i32} loc("/home/adespirl/wave/lit_tests/kernel/wave/gemm_bench.py":41:0), %arg3: i32 {tt.divisibility = 16 : i32} loc("/home/adespirl/wave/lit_tests/kernel/wave/gemm_bench.py":41:0), %arg4: i32 {tt.divisibility = 16 : i32} loc("/home/adespirl/wave/lit_tests/kernel/wave/gemm_bench.py":41:0), %arg5: i32 loc("/home/adespirl/wave/lit_tests/kernel/wave/gemm_bench.py":41:0), %arg6: i32 loc("/home/adespirl/wave/lit_tests/kernel/wave/gemm_bench.py":41:0), %arg7: i32 loc("/home/adespirl/wave/lit_tests/kernel/wave/gemm_bench.py":41:0), %arg8: i32 {tt.divisibility = 16 : i32} loc("/home/adespirl/wave/lit_tests/kernel/wave/gemm_bench.py":41:0)) attributes {noinline = false} {
    %0 = tt.get_program_id x : i32 loc(#loc1)
    %1 = tt.get_program_id y : i32 loc(#loc2)
    %c64_i32 = arith.constant 64 : i32 loc(#loc3)
    %c64_i32_0 = arith.constant 64 : i32 loc(#loc3)
    %2 = arith.extsi %0 : i32 to i64 loc(#loc3)
    %3 = arith.extsi %c64_i32_0 : i32 to i64 loc(#loc3)
    %4 = arith.muli %2, %3 : i64 loc(#loc3)
    %c2147483647_i64 = arith.constant 2147483647 : i64 loc(#loc3)
    %c-2147483648_i64 = arith.constant -2147483648 : i64 loc(#loc3)
    %5 = arith.cmpi sle, %4, %c2147483647_i64 : i64 loc(#loc3)
    %6 = arith.cmpi sge, %4, %c-2147483648_i64 : i64 loc(#loc3)
    %7 = arith.andi %5, %6 : i1 loc(#loc3)
    %8 = arith.muli %0, %c64_i32_0 : i32 loc(#loc3)
    %9 = tt.make_range {end = 64 : i32, start = 0 : i32} : tensor<64xi32> loc(#loc4)
    %10 = tt.splat %8 : i32 -> tensor<64xi32> loc(#loc5)
    %11 = arith.extsi %10 : tensor<64xi32> to tensor<64xi64> loc(#loc5)
    %12 = arith.extsi %9 : tensor<64xi32> to tensor<64xi64> loc(#loc5)
    %13 = arith.addi %11, %12 : tensor<64xi64> loc(#loc5)
    %c2147483647_i64_1 = arith.constant 2147483647 : i64 loc(#loc5)
    %c-2147483648_i64_2 = arith.constant -2147483648 : i64 loc(#loc5)
    %cst = arith.constant dense<2147483647> : tensor<64xi64> loc(#loc5)
    %14 = arith.cmpi sle, %13, %cst : tensor<64xi64> loc(#loc5)
    %cst_3 = arith.constant dense<-2147483648> : tensor<64xi64> loc(#loc5)
    %15 = arith.cmpi sge, %13, %cst_3 : tensor<64xi64> loc(#loc5)
    %16 = arith.andi %14, %15 : tensor<64xi1> loc(#loc5)
    %17 = arith.addi %10, %9 : tensor<64xi32> loc(#loc5)
    %c64_i32_4 = arith.constant 64 : i32 loc(#loc6)
    %c64_i32_5 = arith.constant 64 : i32 loc(#loc6)
    %18 = arith.extsi %1 : i32 to i64 loc(#loc6)
    %19 = arith.extsi %c64_i32_5 : i32 to i64 loc(#loc6)
    %20 = arith.muli %18, %19 : i64 loc(#loc6)
    %c2147483647_i64_6 = arith.constant 2147483647 : i64 loc(#loc6)
    %c-2147483648_i64_7 = arith.constant -2147483648 : i64 loc(#loc6)
    %21 = arith.cmpi sle, %20, %c2147483647_i64_6 : i64 loc(#loc6)
    %22 = arith.cmpi sge, %20, %c-2147483648_i64_7 : i64 loc(#loc6)
    %23 = arith.andi %21, %22 : i1 loc(#loc6)
    %24 = arith.muli %1, %c64_i32_5 : i32 loc(#loc6)
    %25 = tt.make_range {end = 64 : i32, start = 0 : i32} : tensor<64xi32> loc(#loc7)
    %26 = tt.splat %24 : i32 -> tensor<64xi32> loc(#loc8)
    %27 = arith.extsi %26 : tensor<64xi32> to tensor<64xi64> loc(#loc8)
    %28 = arith.extsi %25 : tensor<64xi32> to tensor<64xi64> loc(#loc8)
    %29 = arith.addi %27, %28 : tensor<64xi64> loc(#loc8)
    %c2147483647_i64_8 = arith.constant 2147483647 : i64 loc(#loc8)
    %c-2147483648_i64_9 = arith.constant -2147483648 : i64 loc(#loc8)
    %cst_10 = arith.constant dense<2147483647> : tensor<64xi64> loc(#loc8)
    %30 = arith.cmpi sle, %29, %cst_10 : tensor<64xi64> loc(#loc8)
    %cst_11 = arith.constant dense<-2147483648> : tensor<64xi64> loc(#loc8)
    %31 = arith.cmpi sge, %29, %cst_11 : tensor<64xi64> loc(#loc8)
    %32 = arith.andi %30, %31 : tensor<64xi1> loc(#loc8)
    %33 = arith.addi %26, %25 : tensor<64xi32> loc(#loc8)
    %34 = tt.make_range {end = 32 : i32, start = 0 : i32} : tensor<32xi32> loc(#loc9)
    %35 = tt.call @"zeros____(0, 0)cconstexpr_64__(0, 1)cconstexpr_64__(1,)cconstexpr_fp32_"() : () -> tensor<64x64xf32> loc(#loc10)
    %c0_i32 = arith.constant 0 : i32 loc(#loc11)
    %c32_i32 = arith.constant 32 : i32 loc(#loc11)
    %36 = arith.bitcast %c0_i32 : i32 to i32 loc(#loc11)
    %37 = arith.bitcast %arg5 : i32 to i32 loc(#loc11)
    %38 = arith.bitcast %c32_i32 : i32 to i32 loc(#loc11)
    %39 = ub.poison : i32 loc(#loc11)
    %40 = scf.for %arg9 = %36 to %37 step %38 iter_args(%arg10 = %35) -> (tensor<64x64xf32>)  : i32 {
      %72 = tt.splat %arg9 : i32 -> tensor<32xi32> loc(#loc12)
      %73 = arith.extsi %72 : tensor<32xi32> to tensor<32xi64> loc(#loc12)
      %74 = arith.extsi %34 : tensor<32xi32> to tensor<32xi64> loc(#loc12)
      %75 = arith.addi %73, %74 : tensor<32xi64> loc(#loc12)
      %c2147483647_i64_22 = arith.constant 2147483647 : i64 loc(#loc12)
      %c-2147483648_i64_23 = arith.constant -2147483648 : i64 loc(#loc12)
      %cst_24 = arith.constant dense<2147483647> : tensor<32xi64> loc(#loc12)
      %76 = arith.cmpi sle, %75, %cst_24 : tensor<32xi64> loc(#loc12)
      %cst_25 = arith.constant dense<-2147483648> : tensor<32xi64> loc(#loc12)
      %77 = arith.cmpi sge, %75, %cst_25 : tensor<32xi64> loc(#loc12)
      %78 = arith.andi %76, %77 : tensor<32xi1> loc(#loc12)
      %79 = arith.addi %72, %34 : tensor<32xi32> loc(#loc12)
      %80 = tt.splat %arg5 : i32 -> tensor<32xi32> loc(#loc13)
      %81 = arith.cmpi slt, %79, %80 : tensor<32xi32> loc(#loc13)
      %82 = tt.expand_dims %17 {axis = 1 : i32} : tensor<64xi32> -> tensor<64x1xi32> loc(#loc14)
      %83 = tt.splat %arg6 : i32 -> tensor<64x1xi32> loc(#loc15)
      %84 = arith.extsi %82 : tensor<64x1xi32> to tensor<64x1xi64> loc(#loc15)
      %85 = arith.extsi %83 : tensor<64x1xi32> to tensor<64x1xi64> loc(#loc15)
      %86 = arith.muli %84, %85 : tensor<64x1xi64> loc(#loc15)
      %c2147483647_i64_26 = arith.constant 2147483647 : i64 loc(#loc15)
      %c-2147483648_i64_27 = arith.constant -2147483648 : i64 loc(#loc15)
      %cst_28 = arith.constant dense<2147483647> : tensor<64x1xi64> loc(#loc15)
      %87 = arith.cmpi sle, %86, %cst_28 : tensor<64x1xi64> loc(#loc15)
      %cst_29 = arith.constant dense<-2147483648> : tensor<64x1xi64> loc(#loc15)
      %88 = arith.cmpi sge, %86, %cst_29 : tensor<64x1xi64> loc(#loc15)
      %89 = arith.andi %87, %88 : tensor<64x1xi1> loc(#loc15)
      %90 = arith.muli %82, %83 : tensor<64x1xi32> loc(#loc15)
      %91 = tt.splat %arg1 : !tt.ptr<bf16> -> tensor<64x1x!tt.ptr<bf16>> loc(#loc16)
      %92 = tt.addptr %91, %90 : tensor<64x1x!tt.ptr<bf16>>, tensor<64x1xi32> loc(#loc16)
      %93 = tt.splat %arg9 : i32 -> tensor<32xi32> loc(#loc17)
      %94 = arith.extsi %93 : tensor<32xi32> to tensor<32xi64> loc(#loc17)
      %95 = arith.extsi %34 : tensor<32xi32> to tensor<32xi64> loc(#loc17)
      %96 = arith.addi %94, %95 : tensor<32xi64> loc(#loc17)
      %c2147483647_i64_30 = arith.constant 2147483647 : i64 loc(#loc17)
      %c-2147483648_i64_31 = arith.constant -2147483648 : i64 loc(#loc17)
      %cst_32 = arith.constant dense<2147483647> : tensor<32xi64> loc(#loc17)
      %97 = arith.cmpi sle, %96, %cst_32 : tensor<32xi64> loc(#loc17)
      %cst_33 = arith.constant dense<-2147483648> : tensor<32xi64> loc(#loc17)
      %98 = arith.cmpi sge, %96, %cst_33 : tensor<32xi64> loc(#loc17)
      %99 = arith.andi %97, %98 : tensor<32xi1> loc(#loc17)
      %100 = arith.addi %93, %34 : tensor<32xi32> loc(#loc17)
      %101 = tt.expand_dims %100 {axis = 0 : i32} : tensor<32xi32> -> tensor<1x32xi32> loc(#loc18)
      %c1_i32_34 = arith.constant 1 : i32 loc(#loc19)
      %c1_i32_35 = arith.constant 1 : i32 loc(#loc19)
      %cst_36 = arith.constant dense<1> : tensor<1x32xi32> loc(#loc19)
      %102 = arith.extsi %101 : tensor<1x32xi32> to tensor<1x32xi64> loc(#loc19)
      %103 = arith.extsi %cst_36 : tensor<1x32xi32> to tensor<1x32xi64> loc(#loc19)
      %104 = arith.muli %102, %103 : tensor<1x32xi64> loc(#loc19)
      %c2147483647_i64_37 = arith.constant 2147483647 : i64 loc(#loc19)
      %c-2147483648_i64_38 = arith.constant -2147483648 : i64 loc(#loc19)
      %cst_39 = arith.constant dense<2147483647> : tensor<1x32xi64> loc(#loc19)
      %105 = arith.cmpi sle, %104, %cst_39 : tensor<1x32xi64> loc(#loc19)
      %cst_40 = arith.constant dense<-2147483648> : tensor<1x32xi64> loc(#loc19)
      %106 = arith.cmpi sge, %104, %cst_40 : tensor<1x32xi64> loc(#loc19)
      %107 = arith.andi %105, %106 : tensor<1x32xi1> loc(#loc19)
      %108 = arith.muli %101, %cst_36 : tensor<1x32xi32> loc(#loc19)
      %109 = tt.broadcast %92 : tensor<64x1x!tt.ptr<bf16>> -> tensor<64x32x!tt.ptr<bf16>> loc(#loc20)
      %110 = tt.broadcast %108 : tensor<1x32xi32> -> tensor<64x32xi32> loc(#loc20)
      %111 = tt.addptr %109, %110 : tensor<64x32x!tt.ptr<bf16>>, tensor<64x32xi32> loc(#loc20)
      %112 = tt.expand_dims %17 {axis = 1 : i32} : tensor<64xi32> -> tensor<64x1xi32> loc(#loc21)
      %113 = tt.splat %arg3 : i32 -> tensor<64x1xi32> loc(#loc22)
      %114 = arith.cmpi slt, %112, %113 : tensor<64x1xi32> loc(#loc22)
      %115 = tt.expand_dims %81 {axis = 0 : i32} : tensor<32xi1> -> tensor<1x32xi1> loc(#loc23)
      %116 = tt.broadcast %114 : tensor<64x1xi1> -> tensor<64x32xi1> loc(#loc24)
      %117 = tt.broadcast %115 : tensor<1x32xi1> -> tensor<64x32xi1> loc(#loc24)
      %118 = arith.andi %116, %117 : tensor<64x32xi1> loc(#loc24)
      %cst_41 = arith.constant 0.000000e+00 : f32 loc(#loc25)
      %cst_42 = arith.constant dense<0.000000e+00> : tensor<64x32xf32> loc(#loc25)
      %119 = arith.truncf %cst_42 : tensor<64x32xf32> to tensor<64x32xbf16> loc(#loc25)
      %120 = tt.load %111, %118, %119 : tensor<64x32x!tt.ptr<bf16>> loc(#loc25)
      %121 = tt.expand_dims %33 {axis = 1 : i32} : tensor<64xi32> -> tensor<64x1xi32> loc(#loc26)
      %122 = tt.splat %arg7 : i32 -> tensor<64x1xi32> loc(#loc27)
      %123 = arith.extsi %121 : tensor<64x1xi32> to tensor<64x1xi64> loc(#loc27)
      %124 = arith.extsi %122 : tensor<64x1xi32> to tensor<64x1xi64> loc(#loc27)
      %125 = arith.muli %123, %124 : tensor<64x1xi64> loc(#loc27)
      %c2147483647_i64_43 = arith.constant 2147483647 : i64 loc(#loc27)
      %c-2147483648_i64_44 = arith.constant -2147483648 : i64 loc(#loc27)
      %cst_45 = arith.constant dense<2147483647> : tensor<64x1xi64> loc(#loc27)
      %126 = arith.cmpi sle, %125, %cst_45 : tensor<64x1xi64> loc(#loc27)
      %cst_46 = arith.constant dense<-2147483648> : tensor<64x1xi64> loc(#loc27)
      %127 = arith.cmpi sge, %125, %cst_46 : tensor<64x1xi64> loc(#loc27)
      %128 = arith.andi %126, %127 : tensor<64x1xi1> loc(#loc27)
      %129 = arith.muli %121, %122 : tensor<64x1xi32> loc(#loc27)
      %130 = tt.splat %arg2 : !tt.ptr<bf16> -> tensor<64x1x!tt.ptr<bf16>> loc(#loc28)
      %131 = tt.addptr %130, %129 : tensor<64x1x!tt.ptr<bf16>>, tensor<64x1xi32> loc(#loc28)
      %132 = tt.splat %arg9 : i32 -> tensor<32xi32> loc(#loc29)
      %133 = arith.extsi %132 : tensor<32xi32> to tensor<32xi64> loc(#loc29)
      %134 = arith.extsi %34 : tensor<32xi32> to tensor<32xi64> loc(#loc29)
      %135 = arith.addi %133, %134 : tensor<32xi64> loc(#loc29)
      %c2147483647_i64_47 = arith.constant 2147483647 : i64 loc(#loc29)
      %c-2147483648_i64_48 = arith.constant -2147483648 : i64 loc(#loc29)
      %cst_49 = arith.constant dense<2147483647> : tensor<32xi64> loc(#loc29)
      %136 = arith.cmpi sle, %135, %cst_49 : tensor<32xi64> loc(#loc29)
      %cst_50 = arith.constant dense<-2147483648> : tensor<32xi64> loc(#loc29)
      %137 = arith.cmpi sge, %135, %cst_50 : tensor<32xi64> loc(#loc29)
      %138 = arith.andi %136, %137 : tensor<32xi1> loc(#loc29)
      %139 = arith.addi %132, %34 : tensor<32xi32> loc(#loc29)
      %140 = tt.expand_dims %139 {axis = 0 : i32} : tensor<32xi32> -> tensor<1x32xi32> loc(#loc30)
      %c1_i32_51 = arith.constant 1 : i32 loc(#loc31)
      %c1_i32_52 = arith.constant 1 : i32 loc(#loc31)
      %cst_53 = arith.constant dense<1> : tensor<1x32xi32> loc(#loc31)
      %141 = arith.extsi %140 : tensor<1x32xi32> to tensor<1x32xi64> loc(#loc31)
      %142 = arith.extsi %cst_53 : tensor<1x32xi32> to tensor<1x32xi64> loc(#loc31)
      %143 = arith.muli %141, %142 : tensor<1x32xi64> loc(#loc31)
      %c2147483647_i64_54 = arith.constant 2147483647 : i64 loc(#loc31)
      %c-2147483648_i64_55 = arith.constant -2147483648 : i64 loc(#loc31)
      %cst_56 = arith.constant dense<2147483647> : tensor<1x32xi64> loc(#loc31)
      %144 = arith.cmpi sle, %143, %cst_56 : tensor<1x32xi64> loc(#loc31)
      %cst_57 = arith.constant dense<-2147483648> : tensor<1x32xi64> loc(#loc31)
      %145 = arith.cmpi sge, %143, %cst_57 : tensor<1x32xi64> loc(#loc31)
      %146 = arith.andi %144, %145 : tensor<1x32xi1> loc(#loc31)
      %147 = arith.muli %140, %cst_53 : tensor<1x32xi32> loc(#loc31)
      %148 = tt.broadcast %131 : tensor<64x1x!tt.ptr<bf16>> -> tensor<64x32x!tt.ptr<bf16>> loc(#loc32)
      %149 = tt.broadcast %147 : tensor<1x32xi32> -> tensor<64x32xi32> loc(#loc32)
      %150 = tt.addptr %148, %149 : tensor<64x32x!tt.ptr<bf16>>, tensor<64x32xi32> loc(#loc32)
      %151 = tt.expand_dims %33 {axis = 1 : i32} : tensor<64xi32> -> tensor<64x1xi32> loc(#loc33)
      %152 = tt.splat %arg4 : i32 -> tensor<64x1xi32> loc(#loc34)
      %153 = arith.cmpi slt, %151, %152 : tensor<64x1xi32> loc(#loc34)
      %154 = tt.expand_dims %81 {axis = 0 : i32} : tensor<32xi1> -> tensor<1x32xi1> loc(#loc35)
      %155 = tt.broadcast %153 : tensor<64x1xi1> -> tensor<64x32xi1> loc(#loc36)
      %156 = tt.broadcast %154 : tensor<1x32xi1> -> tensor<64x32xi1> loc(#loc36)
      %157 = arith.andi %155, %156 : tensor<64x32xi1> loc(#loc36)
      %cst_58 = arith.constant 0.000000e+00 : f32 loc(#loc37)
      %cst_59 = arith.constant dense<0.000000e+00> : tensor<64x32xf32> loc(#loc37)
      %158 = arith.truncf %cst_59 : tensor<64x32xf32> to tensor<64x32xbf16> loc(#loc37)
      %159 = tt.load %150, %157, %158 : tensor<64x32x!tt.ptr<bf16>> loc(#loc37)
      %160 = tt.trans %159 {order = array<i32: 1, 0>} : tensor<64x32xbf16> -> tensor<32x64xbf16> loc(#loc38)
      %cst_60 = arith.constant 0.000000e+00 : f32 loc(#loc39)
      %cst_61 = arith.constant dense<0.000000e+00> : tensor<64x64xf32> loc(#loc39)
      %161 = tt.dot %120, %160, %cst_61 : tensor<64x32xbf16> * tensor<32x64xbf16> -> tensor<64x64xf32> loc(#loc39)
      %162 = arith.addf %arg10, %161 : tensor<64x64xf32> loc(#loc40)
      scf.yield %162 : tensor<64x64xf32> loc(#loc41)
    } loc(#loc11)
    %41 = tt.expand_dims %17 {axis = 1 : i32} : tensor<64xi32> -> tensor<64x1xi32> loc(#loc42)
    %42 = tt.splat %arg8 : i32 -> tensor<64x1xi32> loc(#loc43)
    %43 = arith.extsi %41 : tensor<64x1xi32> to tensor<64x1xi64> loc(#loc43)
    %44 = arith.extsi %42 : tensor<64x1xi32> to tensor<64x1xi64> loc(#loc43)
    %45 = arith.muli %43, %44 : tensor<64x1xi64> loc(#loc43)
    %c2147483647_i64_12 = arith.constant 2147483647 : i64 loc(#loc43)
    %c-2147483648_i64_13 = arith.constant -2147483648 : i64 loc(#loc43)
    %cst_14 = arith.constant dense<2147483647> : tensor<64x1xi64> loc(#loc43)
    %46 = arith.cmpi sle, %45, %cst_14 : tensor<64x1xi64> loc(#loc43)
    %cst_15 = arith.constant dense<-2147483648> : tensor<64x1xi64> loc(#loc43)
    %47 = arith.cmpi sge, %45, %cst_15 : tensor<64x1xi64> loc(#loc43)
    %48 = arith.andi %46, %47 : tensor<64x1xi1> loc(#loc43)
    %49 = arith.muli %41, %42 : tensor<64x1xi32> loc(#loc43)
    %50 = tt.splat %arg0 : !tt.ptr<f32> -> tensor<64x1x!tt.ptr<f32>> loc(#loc44)
    %51 = tt.addptr %50, %49 : tensor<64x1x!tt.ptr<f32>>, tensor<64x1xi32> loc(#loc44)
    %52 = tt.expand_dims %33 {axis = 0 : i32} : tensor<64xi32> -> tensor<1x64xi32> loc(#loc45)
    %c1_i32 = arith.constant 1 : i32 loc(#loc46)
    %c1_i32_16 = arith.constant 1 : i32 loc(#loc46)
    %cst_17 = arith.constant dense<1> : tensor<1x64xi32> loc(#loc46)
    %53 = arith.extsi %52 : tensor<1x64xi32> to tensor<1x64xi64> loc(#loc46)
    %54 = arith.extsi %cst_17 : tensor<1x64xi32> to tensor<1x64xi64> loc(#loc46)
    %55 = arith.muli %53, %54 : tensor<1x64xi64> loc(#loc46)
    %c2147483647_i64_18 = arith.constant 2147483647 : i64 loc(#loc46)
    %c-2147483648_i64_19 = arith.constant -2147483648 : i64 loc(#loc46)
    %cst_20 = arith.constant dense<2147483647> : tensor<1x64xi64> loc(#loc46)
    %56 = arith.cmpi sle, %55, %cst_20 : tensor<1x64xi64> loc(#loc46)
    %cst_21 = arith.constant dense<-2147483648> : tensor<1x64xi64> loc(#loc46)
    %57 = arith.cmpi sge, %55, %cst_21 : tensor<1x64xi64> loc(#loc46)
    %58 = arith.andi %56, %57 : tensor<1x64xi1> loc(#loc46)
    %59 = arith.muli %52, %cst_17 : tensor<1x64xi32> loc(#loc46)
    %60 = tt.broadcast %51 : tensor<64x1x!tt.ptr<f32>> -> tensor<64x64x!tt.ptr<f32>> loc(#loc47)
    %61 = tt.broadcast %59 : tensor<1x64xi32> -> tensor<64x64xi32> loc(#loc47)
    %62 = tt.addptr %60, %61 : tensor<64x64x!tt.ptr<f32>>, tensor<64x64xi32> loc(#loc47)
    %63 = tt.expand_dims %17 {axis = 1 : i32} : tensor<64xi32> -> tensor<64x1xi32> loc(#loc48)
    %64 = tt.splat %arg3 : i32 -> tensor<64x1xi32> loc(#loc49)
    %65 = arith.cmpi slt, %63, %64 : tensor<64x1xi32> loc(#loc49)
    %66 = tt.expand_dims %33 {axis = 0 : i32} : tensor<64xi32> -> tensor<1x64xi32> loc(#loc50)
    %67 = tt.splat %arg4 : i32 -> tensor<1x64xi32> loc(#loc51)
    %68 = arith.cmpi slt, %66, %67 : tensor<1x64xi32> loc(#loc51)
    %69 = tt.broadcast %65 : tensor<64x1xi1> -> tensor<64x64xi1> loc(#loc52)
    %70 = tt.broadcast %68 : tensor<1x64xi1> -> tensor<64x64xi1> loc(#loc52)
    %71 = arith.andi %69, %70 : tensor<64x64xi1> loc(#loc52)
    tt.store %62, %40, %71 : tensor<64x64x!tt.ptr<f32>> loc(#loc53)
    tt.return loc(#loc54)
  } loc(#loc)
  tt.func private @"zeros____(0, 0)cconstexpr_64__(0, 1)cconstexpr_64__(1,)cconstexpr_fp32_"() -> tensor<64x64xf32> attributes {noinline = false} {
    %cst = arith.constant 0.000000e+00 : f32 loc(#loc56)
    %cst_0 = arith.constant dense<0.000000e+00> : tensor<64x64xf32> loc(#loc56)
    tt.return %cst_0 : tensor<64x64xf32> loc(#loc57)
  ^bb1:  // no predecessors
    %0 = ub.poison : tensor<64x64xf32> loc(#loc58)
    tt.return %0 : tensor<64x64xf32> loc(#loc58)
  } loc(#loc55)
} loc(#loc)
#loc1 = loc("/home/adespirl/wave/lit_tests/kernel/wave/gemm_bench.py":49:26)
#loc2 = loc("/home/adespirl/wave/lit_tests/kernel/wave/gemm_bench.py":50:26)
#loc3 = loc("/home/adespirl/wave/lit_tests/kernel/wave/gemm_bench.py":52:21)
#loc4 = loc("/home/adespirl/wave/lit_tests/kernel/wave/gemm_bench.py":52:44)
#loc5 = loc("/home/adespirl/wave/lit_tests/kernel/wave/gemm_bench.py":52:31)
#loc6 = loc("/home/adespirl/wave/lit_tests/kernel/wave/gemm_bench.py":53:21)
#loc7 = loc("/home/adespirl/wave/lit_tests/kernel/wave/gemm_bench.py":53:44)
#loc8 = loc("/home/adespirl/wave/lit_tests/kernel/wave/gemm_bench.py":53:31)
#loc9 = loc("/home/adespirl/wave/lit_tests/kernel/wave/gemm_bench.py":54:26)
#loc10 = loc("/home/adespirl/wave/lit_tests/kernel/wave/gemm_bench.py":56:19)
#loc11 = loc("/home/adespirl/wave/lit_tests/kernel/wave/gemm_bench.py":58:26)
#loc12 = loc("/home/adespirl/wave/lit_tests/kernel/wave/gemm_bench.py":59:23)
#loc13 = loc("/home/adespirl/wave/lit_tests/kernel/wave/gemm_bench.py":59:33)
#loc14 = loc("/home/adespirl/wave/lit_tests/kernel/wave/gemm_bench.py":63:27)
#loc15 = loc("/home/adespirl/wave/lit_tests/kernel/wave/gemm_bench.py":63:38)
#loc16 = loc("/home/adespirl/wave/lit_tests/kernel/wave/gemm_bench.py":63:20)
#loc17 = loc("/home/adespirl/wave/lit_tests/kernel/wave/gemm_bench.py":64:26)
#loc18 = loc("/home/adespirl/wave/lit_tests/kernel/wave/gemm_bench.py":64:34)
#loc19 = loc("/home/adespirl/wave/lit_tests/kernel/wave/gemm_bench.py":64:45)
#loc20 = loc("/home/adespirl/wave/lit_tests/kernel/wave/gemm_bench.py":64:20)
#loc21 = loc("/home/adespirl/wave/lit_tests/kernel/wave/gemm_bench.py":66:38)
#loc22 = loc("/home/adespirl/wave/lit_tests/kernel/wave/gemm_bench.py":66:49)
#loc23 = loc("/home/adespirl/wave/lit_tests/kernel/wave/gemm_bench.py":66:61)
#loc24 = loc("/home/adespirl/wave/lit_tests/kernel/wave/gemm_bench.py":66:54)
#loc25 = loc("/home/adespirl/wave/lit_tests/kernel/wave/gemm_bench.py":65:25)
#loc26 = loc("/home/adespirl/wave/lit_tests/kernel/wave/gemm_bench.py":71:27)
#loc27 = loc("/home/adespirl/wave/lit_tests/kernel/wave/gemm_bench.py":71:38)
#loc28 = loc("/home/adespirl/wave/lit_tests/kernel/wave/gemm_bench.py":71:20)
#loc29 = loc("/home/adespirl/wave/lit_tests/kernel/wave/gemm_bench.py":72:26)
#loc30 = loc("/home/adespirl/wave/lit_tests/kernel/wave/gemm_bench.py":72:34)
#loc31 = loc("/home/adespirl/wave/lit_tests/kernel/wave/gemm_bench.py":72:45)
#loc32 = loc("/home/adespirl/wave/lit_tests/kernel/wave/gemm_bench.py":72:20)
#loc33 = loc("/home/adespirl/wave/lit_tests/kernel/wave/gemm_bench.py":74:41)
#loc34 = loc("/home/adespirl/wave/lit_tests/kernel/wave/gemm_bench.py":74:52)
#loc35 = loc("/home/adespirl/wave/lit_tests/kernel/wave/gemm_bench.py":74:64)
#loc36 = loc("/home/adespirl/wave/lit_tests/kernel/wave/gemm_bench.py":74:57)
#loc37 = loc("/home/adespirl/wave/lit_tests/kernel/wave/gemm_bench.py":73:28)
#loc38 = loc("/home/adespirl/wave/lit_tests/kernel/wave/gemm_bench.py":76:26)
#loc39 = loc("/home/adespirl/wave/lit_tests/kernel/wave/gemm_bench.py":78:30)
#loc40 = loc("/home/adespirl/wave/lit_tests/kernel/wave/gemm_bench.py":78:15)
#loc41 = loc("/home/adespirl/wave/lit_tests/kernel/wave/gemm_bench.py":78:8)
#loc42 = loc("/home/adespirl/wave/lit_tests/kernel/wave/gemm_bench.py":80:24)
#loc43 = loc("/home/adespirl/wave/lit_tests/kernel/wave/gemm_bench.py":80:35)
#loc44 = loc("/home/adespirl/wave/lit_tests/kernel/wave/gemm_bench.py":80:17)
#loc45 = loc("/home/adespirl/wave/lit_tests/kernel/wave/gemm_bench.py":80:54)
#loc46 = loc("/home/adespirl/wave/lit_tests/kernel/wave/gemm_bench.py":80:65)
#loc47 = loc("/home/adespirl/wave/lit_tests/kernel/wave/gemm_bench.py":80:47)
#loc48 = loc("/home/adespirl/wave/lit_tests/kernel/wave/gemm_bench.py":81:39)
#loc49 = loc("/home/adespirl/wave/lit_tests/kernel/wave/gemm_bench.py":81:50)
#loc50 = loc("/home/adespirl/wave/lit_tests/kernel/wave/gemm_bench.py":81:63)
#loc51 = loc("/home/adespirl/wave/lit_tests/kernel/wave/gemm_bench.py":81:74)
#loc52 = loc("/home/adespirl/wave/lit_tests/kernel/wave/gemm_bench.py":81:56)
#loc53 = loc("/home/adespirl/wave/lit_tests/kernel/wave/gemm_bench.py":81:21)
#loc54 = loc("/home/adespirl/wave/lit_tests/kernel/wave/gemm_bench.py":81:4)
#loc55 = loc("/app/triton-amd/python/triton/language/standard.py":117:0)
#loc56 = loc("/app/triton-amd/python/triton/language/standard.py":126:31)
#loc57 = loc("/app/triton-amd/python/triton/language/standard.py":126:11)
#loc58 = loc("/app/triton-amd/python/triton/language/standard.py":126:4)


// -----// IR Dump Before Canonicalizer (canonicalize) ('tt.func' operation: @matmul_abt_kernel) //----- //
#loc = loc("/home/adespirl/wave/lit_tests/kernel/wave/gemm_bench.py":41:0)
module {
  tt.func public @matmul_abt_kernel(%arg0: !tt.ptr<f32> {tt.divisibility = 16 : i32, tt.pointer_range = 32 : i32} loc("/home/adespirl/wave/lit_tests/kernel/wave/gemm_bench.py":41:0), %arg1: !tt.ptr<bf16> {tt.divisibility = 16 : i32, tt.pointer_range = 32 : i32} loc("/home/adespirl/wave/lit_tests/kernel/wave/gemm_bench.py":41:0), %arg2: !tt.ptr<bf16> {tt.divisibility = 16 : i32, tt.pointer_range = 32 : i32} loc("/home/adespirl/wave/lit_tests/kernel/wave/gemm_bench.py":41:0), %arg3: i32 {tt.divisibility = 16 : i32} loc("/home/adespirl/wave/lit_tests/kernel/wave/gemm_bench.py":41:0), %arg4: i32 {tt.divisibility = 16 : i32} loc("/home/adespirl/wave/lit_tests/kernel/wave/gemm_bench.py":41:0), %arg5: i32 loc("/home/adespirl/wave/lit_tests/kernel/wave/gemm_bench.py":41:0), %arg6: i32 loc("/home/adespirl/wave/lit_tests/kernel/wave/gemm_bench.py":41:0), %arg7: i32 loc("/home/adespirl/wave/lit_tests/kernel/wave/gemm_bench.py":41:0), %arg8: i32 {tt.divisibility = 16 : i32} loc("/home/adespirl/wave/lit_tests/kernel/wave/gemm_bench.py":41:0)) attributes {noinline = false} {
    %0 = tt.get_program_id x : i32 loc(#loc1)
    %1 = tt.get_program_id y : i32 loc(#loc2)
    %c64_i32 = arith.constant 64 : i32 loc(#loc3)
    %c64_i32_0 = arith.constant 64 : i32 loc(#loc3)
    %2 = arith.extsi %0 : i32 to i64 loc(#loc3)
    %3 = arith.extsi %c64_i32_0 : i32 to i64 loc(#loc3)
    %4 = arith.muli %2, %3 : i64 loc(#loc3)
    %c2147483647_i64 = arith.constant 2147483647 : i64 loc(#loc3)
    %c-2147483648_i64 = arith.constant -2147483648 : i64 loc(#loc3)
    %5 = arith.cmpi sle, %4, %c2147483647_i64 : i64 loc(#loc3)
    %6 = arith.cmpi sge, %4, %c-2147483648_i64 : i64 loc(#loc3)
    %7 = arith.andi %5, %6 : i1 loc(#loc3)
    %8 = arith.muli %0, %c64_i32_0 : i32 loc(#loc3)
    %9 = tt.make_range {end = 64 : i32, start = 0 : i32} : tensor<64xi32> loc(#loc4)
    %10 = tt.splat %8 : i32 -> tensor<64xi32> loc(#loc5)
    %11 = arith.extsi %10 : tensor<64xi32> to tensor<64xi64> loc(#loc5)
    %12 = arith.extsi %9 : tensor<64xi32> to tensor<64xi64> loc(#loc5)
    %13 = arith.addi %11, %12 : tensor<64xi64> loc(#loc5)
    %c2147483647_i64_1 = arith.constant 2147483647 : i64 loc(#loc5)
    %c-2147483648_i64_2 = arith.constant -2147483648 : i64 loc(#loc5)
    %cst = arith.constant dense<2147483647> : tensor<64xi64> loc(#loc5)
    %14 = arith.cmpi sle, %13, %cst : tensor<64xi64> loc(#loc5)
    %cst_3 = arith.constant dense<-2147483648> : tensor<64xi64> loc(#loc5)
    %15 = arith.cmpi sge, %13, %cst_3 : tensor<64xi64> loc(#loc5)
    %16 = arith.andi %14, %15 : tensor<64xi1> loc(#loc5)
    %17 = arith.addi %10, %9 : tensor<64xi32> loc(#loc5)
    %c64_i32_4 = arith.constant 64 : i32 loc(#loc6)
    %c64_i32_5 = arith.constant 64 : i32 loc(#loc6)
    %18 = arith.extsi %1 : i32 to i64 loc(#loc6)
    %19 = arith.extsi %c64_i32_5 : i32 to i64 loc(#loc6)
    %20 = arith.muli %18, %19 : i64 loc(#loc6)
    %c2147483647_i64_6 = arith.constant 2147483647 : i64 loc(#loc6)
    %c-2147483648_i64_7 = arith.constant -2147483648 : i64 loc(#loc6)
    %21 = arith.cmpi sle, %20, %c2147483647_i64_6 : i64 loc(#loc6)
    %22 = arith.cmpi sge, %20, %c-2147483648_i64_7 : i64 loc(#loc6)
    %23 = arith.andi %21, %22 : i1 loc(#loc6)
    %24 = arith.muli %1, %c64_i32_5 : i32 loc(#loc6)
    %25 = tt.make_range {end = 64 : i32, start = 0 : i32} : tensor<64xi32> loc(#loc7)
    %26 = tt.splat %24 : i32 -> tensor<64xi32> loc(#loc8)
    %27 = arith.extsi %26 : tensor<64xi32> to tensor<64xi64> loc(#loc8)
    %28 = arith.extsi %25 : tensor<64xi32> to tensor<64xi64> loc(#loc8)
    %29 = arith.addi %27, %28 : tensor<64xi64> loc(#loc8)
    %c2147483647_i64_8 = arith.constant 2147483647 : i64 loc(#loc8)
    %c-2147483648_i64_9 = arith.constant -2147483648 : i64 loc(#loc8)
    %cst_10 = arith.constant dense<2147483647> : tensor<64xi64> loc(#loc8)
    %30 = arith.cmpi sle, %29, %cst_10 : tensor<64xi64> loc(#loc8)
    %cst_11 = arith.constant dense<-2147483648> : tensor<64xi64> loc(#loc8)
    %31 = arith.cmpi sge, %29, %cst_11 : tensor<64xi64> loc(#loc8)
    %32 = arith.andi %30, %31 : tensor<64xi1> loc(#loc8)
    %33 = arith.addi %26, %25 : tensor<64xi32> loc(#loc8)
    %34 = tt.make_range {end = 32 : i32, start = 0 : i32} : tensor<32xi32> loc(#loc9)
    %35 = tt.call @"zeros____(0, 0)cconstexpr_64__(0, 1)cconstexpr_64__(1,)cconstexpr_fp32_"() : () -> tensor<64x64xf32> loc(#loc10)
    %c0_i32 = arith.constant 0 : i32 loc(#loc11)
    %c32_i32 = arith.constant 32 : i32 loc(#loc11)
    %36 = arith.bitcast %c0_i32 : i32 to i32 loc(#loc11)
    %37 = arith.bitcast %arg5 : i32 to i32 loc(#loc11)
    %38 = arith.bitcast %c32_i32 : i32 to i32 loc(#loc11)
    %39 = ub.poison : i32 loc(#loc11)
    %40 = scf.for %arg9 = %36 to %37 step %38 iter_args(%arg10 = %35) -> (tensor<64x64xf32>)  : i32 {
      %72 = tt.splat %arg9 : i32 -> tensor<32xi32> loc(#loc12)
      %73 = arith.extsi %72 : tensor<32xi32> to tensor<32xi64> loc(#loc12)
      %74 = arith.extsi %34 : tensor<32xi32> to tensor<32xi64> loc(#loc12)
      %75 = arith.addi %73, %74 : tensor<32xi64> loc(#loc12)
      %c2147483647_i64_22 = arith.constant 2147483647 : i64 loc(#loc12)
      %c-2147483648_i64_23 = arith.constant -2147483648 : i64 loc(#loc12)
      %cst_24 = arith.constant dense<2147483647> : tensor<32xi64> loc(#loc12)
      %76 = arith.cmpi sle, %75, %cst_24 : tensor<32xi64> loc(#loc12)
      %cst_25 = arith.constant dense<-2147483648> : tensor<32xi64> loc(#loc12)
      %77 = arith.cmpi sge, %75, %cst_25 : tensor<32xi64> loc(#loc12)
      %78 = arith.andi %76, %77 : tensor<32xi1> loc(#loc12)
      %79 = arith.addi %72, %34 : tensor<32xi32> loc(#loc12)
      %80 = tt.splat %arg5 : i32 -> tensor<32xi32> loc(#loc13)
      %81 = arith.cmpi slt, %79, %80 : tensor<32xi32> loc(#loc13)
      %82 = tt.expand_dims %17 {axis = 1 : i32} : tensor<64xi32> -> tensor<64x1xi32> loc(#loc14)
      %83 = tt.splat %arg6 : i32 -> tensor<64x1xi32> loc(#loc15)
      %84 = arith.extsi %82 : tensor<64x1xi32> to tensor<64x1xi64> loc(#loc15)
      %85 = arith.extsi %83 : tensor<64x1xi32> to tensor<64x1xi64> loc(#loc15)
      %86 = arith.muli %84, %85 : tensor<64x1xi64> loc(#loc15)
      %c2147483647_i64_26 = arith.constant 2147483647 : i64 loc(#loc15)
      %c-2147483648_i64_27 = arith.constant -2147483648 : i64 loc(#loc15)
      %cst_28 = arith.constant dense<2147483647> : tensor<64x1xi64> loc(#loc15)
      %87 = arith.cmpi sle, %86, %cst_28 : tensor<64x1xi64> loc(#loc15)
      %cst_29 = arith.constant dense<-2147483648> : tensor<64x1xi64> loc(#loc15)
      %88 = arith.cmpi sge, %86, %cst_29 : tensor<64x1xi64> loc(#loc15)
      %89 = arith.andi %87, %88 : tensor<64x1xi1> loc(#loc15)
      %90 = arith.muli %82, %83 : tensor<64x1xi32> loc(#loc15)
      %91 = tt.splat %arg1 : !tt.ptr<bf16> -> tensor<64x1x!tt.ptr<bf16>> loc(#loc16)
      %92 = tt.addptr %91, %90 : tensor<64x1x!tt.ptr<bf16>>, tensor<64x1xi32> loc(#loc16)
      %93 = tt.splat %arg9 : i32 -> tensor<32xi32> loc(#loc17)
      %94 = arith.extsi %93 : tensor<32xi32> to tensor<32xi64> loc(#loc17)
      %95 = arith.extsi %34 : tensor<32xi32> to tensor<32xi64> loc(#loc17)
      %96 = arith.addi %94, %95 : tensor<32xi64> loc(#loc17)
      %c2147483647_i64_30 = arith.constant 2147483647 : i64 loc(#loc17)
      %c-2147483648_i64_31 = arith.constant -2147483648 : i64 loc(#loc17)
      %cst_32 = arith.constant dense<2147483647> : tensor<32xi64> loc(#loc17)
      %97 = arith.cmpi sle, %96, %cst_32 : tensor<32xi64> loc(#loc17)
      %cst_33 = arith.constant dense<-2147483648> : tensor<32xi64> loc(#loc17)
      %98 = arith.cmpi sge, %96, %cst_33 : tensor<32xi64> loc(#loc17)
      %99 = arith.andi %97, %98 : tensor<32xi1> loc(#loc17)
      %100 = arith.addi %93, %34 : tensor<32xi32> loc(#loc17)
      %101 = tt.expand_dims %100 {axis = 0 : i32} : tensor<32xi32> -> tensor<1x32xi32> loc(#loc18)
      %c1_i32_34 = arith.constant 1 : i32 loc(#loc19)
      %c1_i32_35 = arith.constant 1 : i32 loc(#loc19)
      %cst_36 = arith.constant dense<1> : tensor<1x32xi32> loc(#loc19)
      %102 = arith.extsi %101 : tensor<1x32xi32> to tensor<1x32xi64> loc(#loc19)
      %103 = arith.extsi %cst_36 : tensor<1x32xi32> to tensor<1x32xi64> loc(#loc19)
      %104 = arith.muli %102, %103 : tensor<1x32xi64> loc(#loc19)
      %c2147483647_i64_37 = arith.constant 2147483647 : i64 loc(#loc19)
      %c-2147483648_i64_38 = arith.constant -2147483648 : i64 loc(#loc19)
      %cst_39 = arith.constant dense<2147483647> : tensor<1x32xi64> loc(#loc19)
      %105 = arith.cmpi sle, %104, %cst_39 : tensor<1x32xi64> loc(#loc19)
      %cst_40 = arith.constant dense<-2147483648> : tensor<1x32xi64> loc(#loc19)
      %106 = arith.cmpi sge, %104, %cst_40 : tensor<1x32xi64> loc(#loc19)
      %107 = arith.andi %105, %106 : tensor<1x32xi1> loc(#loc19)
      %108 = arith.muli %101, %cst_36 : tensor<1x32xi32> loc(#loc19)
      %109 = tt.broadcast %92 : tensor<64x1x!tt.ptr<bf16>> -> tensor<64x32x!tt.ptr<bf16>> loc(#loc20)
      %110 = tt.broadcast %108 : tensor<1x32xi32> -> tensor<64x32xi32> loc(#loc20)
      %111 = tt.addptr %109, %110 : tensor<64x32x!tt.ptr<bf16>>, tensor<64x32xi32> loc(#loc20)
      %112 = tt.expand_dims %17 {axis = 1 : i32} : tensor<64xi32> -> tensor<64x1xi32> loc(#loc21)
      %113 = tt.splat %arg3 : i32 -> tensor<64x1xi32> loc(#loc22)
      %114 = arith.cmpi slt, %112, %113 : tensor<64x1xi32> loc(#loc22)
      %115 = tt.expand_dims %81 {axis = 0 : i32} : tensor<32xi1> -> tensor<1x32xi1> loc(#loc23)
      %116 = tt.broadcast %114 : tensor<64x1xi1> -> tensor<64x32xi1> loc(#loc24)
      %117 = tt.broadcast %115 : tensor<1x32xi1> -> tensor<64x32xi1> loc(#loc24)
      %118 = arith.andi %116, %117 : tensor<64x32xi1> loc(#loc24)
      %cst_41 = arith.constant 0.000000e+00 : f32 loc(#loc25)
      %cst_42 = arith.constant dense<0.000000e+00> : tensor<64x32xf32> loc(#loc25)
      %119 = arith.truncf %cst_42 : tensor<64x32xf32> to tensor<64x32xbf16> loc(#loc25)
      %120 = tt.load %111, %118, %119 : tensor<64x32x!tt.ptr<bf16>> loc(#loc25)
      %121 = tt.expand_dims %33 {axis = 1 : i32} : tensor<64xi32> -> tensor<64x1xi32> loc(#loc26)
      %122 = tt.splat %arg7 : i32 -> tensor<64x1xi32> loc(#loc27)
      %123 = arith.extsi %121 : tensor<64x1xi32> to tensor<64x1xi64> loc(#loc27)
      %124 = arith.extsi %122 : tensor<64x1xi32> to tensor<64x1xi64> loc(#loc27)
      %125 = arith.muli %123, %124 : tensor<64x1xi64> loc(#loc27)
      %c2147483647_i64_43 = arith.constant 2147483647 : i64 loc(#loc27)
      %c-2147483648_i64_44 = arith.constant -2147483648 : i64 loc(#loc27)
      %cst_45 = arith.constant dense<2147483647> : tensor<64x1xi64> loc(#loc27)
      %126 = arith.cmpi sle, %125, %cst_45 : tensor<64x1xi64> loc(#loc27)
      %cst_46 = arith.constant dense<-2147483648> : tensor<64x1xi64> loc(#loc27)
      %127 = arith.cmpi sge, %125, %cst_46 : tensor<64x1xi64> loc(#loc27)
      %128 = arith.andi %126, %127 : tensor<64x1xi1> loc(#loc27)
      %129 = arith.muli %121, %122 : tensor<64x1xi32> loc(#loc27)
      %130 = tt.splat %arg2 : !tt.ptr<bf16> -> tensor<64x1x!tt.ptr<bf16>> loc(#loc28)
      %131 = tt.addptr %130, %129 : tensor<64x1x!tt.ptr<bf16>>, tensor<64x1xi32> loc(#loc28)
      %132 = tt.splat %arg9 : i32 -> tensor<32xi32> loc(#loc29)
      %133 = arith.extsi %132 : tensor<32xi32> to tensor<32xi64> loc(#loc29)
      %134 = arith.extsi %34 : tensor<32xi32> to tensor<32xi64> loc(#loc29)
      %135 = arith.addi %133, %134 : tensor<32xi64> loc(#loc29)
      %c2147483647_i64_47 = arith.constant 2147483647 : i64 loc(#loc29)
      %c-2147483648_i64_48 = arith.constant -2147483648 : i64 loc(#loc29)
      %cst_49 = arith.constant dense<2147483647> : tensor<32xi64> loc(#loc29)
      %136 = arith.cmpi sle, %135, %cst_49 : tensor<32xi64> loc(#loc29)
      %cst_50 = arith.constant dense<-2147483648> : tensor<32xi64> loc(#loc29)
      %137 = arith.cmpi sge, %135, %cst_50 : tensor<32xi64> loc(#loc29)
      %138 = arith.andi %136, %137 : tensor<32xi1> loc(#loc29)
      %139 = arith.addi %132, %34 : tensor<32xi32> loc(#loc29)
      %140 = tt.expand_dims %139 {axis = 0 : i32} : tensor<32xi32> -> tensor<1x32xi32> loc(#loc30)
      %c1_i32_51 = arith.constant 1 : i32 loc(#loc31)
      %c1_i32_52 = arith.constant 1 : i32 loc(#loc31)
      %cst_53 = arith.constant dense<1> : tensor<1x32xi32> loc(#loc31)
      %141 = arith.extsi %140 : tensor<1x32xi32> to tensor<1x32xi64> loc(#loc31)
      %142 = arith.extsi %cst_53 : tensor<1x32xi32> to tensor<1x32xi64> loc(#loc31)
      %143 = arith.muli %141, %142 : tensor<1x32xi64> loc(#loc31)
      %c2147483647_i64_54 = arith.constant 2147483647 : i64 loc(#loc31)
      %c-2147483648_i64_55 = arith.constant -2147483648 : i64 loc(#loc31)
      %cst_56 = arith.constant dense<2147483647> : tensor<1x32xi64> loc(#loc31)
      %144 = arith.cmpi sle, %143, %cst_56 : tensor<1x32xi64> loc(#loc31)
      %cst_57 = arith.constant dense<-2147483648> : tensor<1x32xi64> loc(#loc31)
      %145 = arith.cmpi sge, %143, %cst_57 : tensor<1x32xi64> loc(#loc31)
      %146 = arith.andi %144, %145 : tensor<1x32xi1> loc(#loc31)
      %147 = arith.muli %140, %cst_53 : tensor<1x32xi32> loc(#loc31)
      %148 = tt.broadcast %131 : tensor<64x1x!tt.ptr<bf16>> -> tensor<64x32x!tt.ptr<bf16>> loc(#loc32)
      %149 = tt.broadcast %147 : tensor<1x32xi32> -> tensor<64x32xi32> loc(#loc32)
      %150 = tt.addptr %148, %149 : tensor<64x32x!tt.ptr<bf16>>, tensor<64x32xi32> loc(#loc32)
      %151 = tt.expand_dims %33 {axis = 1 : i32} : tensor<64xi32> -> tensor<64x1xi32> loc(#loc33)
      %152 = tt.splat %arg4 : i32 -> tensor<64x1xi32> loc(#loc34)
      %153 = arith.cmpi slt, %151, %152 : tensor<64x1xi32> loc(#loc34)
      %154 = tt.expand_dims %81 {axis = 0 : i32} : tensor<32xi1> -> tensor<1x32xi1> loc(#loc35)
      %155 = tt.broadcast %153 : tensor<64x1xi1> -> tensor<64x32xi1> loc(#loc36)
      %156 = tt.broadcast %154 : tensor<1x32xi1> -> tensor<64x32xi1> loc(#loc36)
      %157 = arith.andi %155, %156 : tensor<64x32xi1> loc(#loc36)
      %cst_58 = arith.constant 0.000000e+00 : f32 loc(#loc37)
      %cst_59 = arith.constant dense<0.000000e+00> : tensor<64x32xf32> loc(#loc37)
      %158 = arith.truncf %cst_59 : tensor<64x32xf32> to tensor<64x32xbf16> loc(#loc37)
      %159 = tt.load %150, %157, %158 : tensor<64x32x!tt.ptr<bf16>> loc(#loc37)
      %160 = tt.trans %159 {order = array<i32: 1, 0>} : tensor<64x32xbf16> -> tensor<32x64xbf16> loc(#loc38)
      %cst_60 = arith.constant 0.000000e+00 : f32 loc(#loc39)
      %cst_61 = arith.constant dense<0.000000e+00> : tensor<64x64xf32> loc(#loc39)
      %161 = tt.dot %120, %160, %cst_61 : tensor<64x32xbf16> * tensor<32x64xbf16> -> tensor<64x64xf32> loc(#loc39)
      %162 = arith.addf %arg10, %161 : tensor<64x64xf32> loc(#loc40)
      scf.yield %162 : tensor<64x64xf32> loc(#loc41)
    } loc(#loc11)
    %41 = tt.expand_dims %17 {axis = 1 : i32} : tensor<64xi32> -> tensor<64x1xi32> loc(#loc42)
    %42 = tt.splat %arg8 : i32 -> tensor<64x1xi32> loc(#loc43)
    %43 = arith.extsi %41 : tensor<64x1xi32> to tensor<64x1xi64> loc(#loc43)
    %44 = arith.extsi %42 : tensor<64x1xi32> to tensor<64x1xi64> loc(#loc43)
    %45 = arith.muli %43, %44 : tensor<64x1xi64> loc(#loc43)
    %c2147483647_i64_12 = arith.constant 2147483647 : i64 loc(#loc43)
    %c-2147483648_i64_13 = arith.constant -2147483648 : i64 loc(#loc43)
    %cst_14 = arith.constant dense<2147483647> : tensor<64x1xi64> loc(#loc43)
    %46 = arith.cmpi sle, %45, %cst_14 : tensor<64x1xi64> loc(#loc43)
    %cst_15 = arith.constant dense<-2147483648> : tensor<64x1xi64> loc(#loc43)
    %47 = arith.cmpi sge, %45, %cst_15 : tensor<64x1xi64> loc(#loc43)
    %48 = arith.andi %46, %47 : tensor<64x1xi1> loc(#loc43)
    %49 = arith.muli %41, %42 : tensor<64x1xi32> loc(#loc43)
    %50 = tt.splat %arg0 : !tt.ptr<f32> -> tensor<64x1x!tt.ptr<f32>> loc(#loc44)
    %51 = tt.addptr %50, %49 : tensor<64x1x!tt.ptr<f32>>, tensor<64x1xi32> loc(#loc44)
    %52 = tt.expand_dims %33 {axis = 0 : i32} : tensor<64xi32> -> tensor<1x64xi32> loc(#loc45)
    %c1_i32 = arith.constant 1 : i32 loc(#loc46)
    %c1_i32_16 = arith.constant 1 : i32 loc(#loc46)
    %cst_17 = arith.constant dense<1> : tensor<1x64xi32> loc(#loc46)
    %53 = arith.extsi %52 : tensor<1x64xi32> to tensor<1x64xi64> loc(#loc46)
    %54 = arith.extsi %cst_17 : tensor<1x64xi32> to tensor<1x64xi64> loc(#loc46)
    %55 = arith.muli %53, %54 : tensor<1x64xi64> loc(#loc46)
    %c2147483647_i64_18 = arith.constant 2147483647 : i64 loc(#loc46)
    %c-2147483648_i64_19 = arith.constant -2147483648 : i64 loc(#loc46)
    %cst_20 = arith.constant dense<2147483647> : tensor<1x64xi64> loc(#loc46)
    %56 = arith.cmpi sle, %55, %cst_20 : tensor<1x64xi64> loc(#loc46)
    %cst_21 = arith.constant dense<-2147483648> : tensor<1x64xi64> loc(#loc46)
    %57 = arith.cmpi sge, %55, %cst_21 : tensor<1x64xi64> loc(#loc46)
    %58 = arith.andi %56, %57 : tensor<1x64xi1> loc(#loc46)
    %59 = arith.muli %52, %cst_17 : tensor<1x64xi32> loc(#loc46)
    %60 = tt.broadcast %51 : tensor<64x1x!tt.ptr<f32>> -> tensor<64x64x!tt.ptr<f32>> loc(#loc47)
    %61 = tt.broadcast %59 : tensor<1x64xi32> -> tensor<64x64xi32> loc(#loc47)
    %62 = tt.addptr %60, %61 : tensor<64x64x!tt.ptr<f32>>, tensor<64x64xi32> loc(#loc47)
    %63 = tt.expand_dims %17 {axis = 1 : i32} : tensor<64xi32> -> tensor<64x1xi32> loc(#loc48)
    %64 = tt.splat %arg3 : i32 -> tensor<64x1xi32> loc(#loc49)
    %65 = arith.cmpi slt, %63, %64 : tensor<64x1xi32> loc(#loc49)
    %66 = tt.expand_dims %33 {axis = 0 : i32} : tensor<64xi32> -> tensor<1x64xi32> loc(#loc50)
    %67 = tt.splat %arg4 : i32 -> tensor<1x64xi32> loc(#loc51)
    %68 = arith.cmpi slt, %66, %67 : tensor<1x64xi32> loc(#loc51)
    %69 = tt.broadcast %65 : tensor<64x1xi1> -> tensor<64x64xi1> loc(#loc52)
    %70 = tt.broadcast %68 : tensor<1x64xi1> -> tensor<64x64xi1> loc(#loc52)
    %71 = arith.andi %69, %70 : tensor<64x64xi1> loc(#loc52)
    tt.store %62, %40, %71 : tensor<64x64x!tt.ptr<f32>> loc(#loc53)
    tt.return loc(#loc54)
  } loc(#loc)
  tt.func private @"zeros____(0, 0)cconstexpr_64__(0, 1)cconstexpr_64__(1,)cconstexpr_fp32_"() -> tensor<64x64xf32> attributes {noinline = false} {
    %cst = arith.constant dense<0.000000e+00> : tensor<64x64xf32> loc(#loc56)
    tt.return %cst : tensor<64x64xf32> loc(#loc57)
  } loc(#loc55)
} loc(#loc)
#loc1 = loc("/home/adespirl/wave/lit_tests/kernel/wave/gemm_bench.py":49:26)
#loc2 = loc("/home/adespirl/wave/lit_tests/kernel/wave/gemm_bench.py":50:26)
#loc3 = loc("/home/adespirl/wave/lit_tests/kernel/wave/gemm_bench.py":52:21)
#loc4 = loc("/home/adespirl/wave/lit_tests/kernel/wave/gemm_bench.py":52:44)
#loc5 = loc("/home/adespirl/wave/lit_tests/kernel/wave/gemm_bench.py":52:31)
#loc6 = loc("/home/adespirl/wave/lit_tests/kernel/wave/gemm_bench.py":53:21)
#loc7 = loc("/home/adespirl/wave/lit_tests/kernel/wave/gemm_bench.py":53:44)
#loc8 = loc("/home/adespirl/wave/lit_tests/kernel/wave/gemm_bench.py":53:31)
#loc9 = loc("/home/adespirl/wave/lit_tests/kernel/wave/gemm_bench.py":54:26)
#loc10 = loc("/home/adespirl/wave/lit_tests/kernel/wave/gemm_bench.py":56:19)
#loc11 = loc("/home/adespirl/wave/lit_tests/kernel/wave/gemm_bench.py":58:26)
#loc12 = loc("/home/adespirl/wave/lit_tests/kernel/wave/gemm_bench.py":59:23)
#loc13 = loc("/home/adespirl/wave/lit_tests/kernel/wave/gemm_bench.py":59:33)
#loc14 = loc("/home/adespirl/wave/lit_tests/kernel/wave/gemm_bench.py":63:27)
#loc15 = loc("/home/adespirl/wave/lit_tests/kernel/wave/gemm_bench.py":63:38)
#loc16 = loc("/home/adespirl/wave/lit_tests/kernel/wave/gemm_bench.py":63:20)
#loc17 = loc("/home/adespirl/wave/lit_tests/kernel/wave/gemm_bench.py":64:26)
#loc18 = loc("/home/adespirl/wave/lit_tests/kernel/wave/gemm_bench.py":64:34)
#loc19 = loc("/home/adespirl/wave/lit_tests/kernel/wave/gemm_bench.py":64:45)
#loc20 = loc("/home/adespirl/wave/lit_tests/kernel/wave/gemm_bench.py":64:20)
#loc21 = loc("/home/adespirl/wave/lit_tests/kernel/wave/gemm_bench.py":66:38)
#loc22 = loc("/home/adespirl/wave/lit_tests/kernel/wave/gemm_bench.py":66:49)
#loc23 = loc("/home/adespirl/wave/lit_tests/kernel/wave/gemm_bench.py":66:61)
#loc24 = loc("/home/adespirl/wave/lit_tests/kernel/wave/gemm_bench.py":66:54)
#loc25 = loc("/home/adespirl/wave/lit_tests/kernel/wave/gemm_bench.py":65:25)
#loc26 = loc("/home/adespirl/wave/lit_tests/kernel/wave/gemm_bench.py":71:27)
#loc27 = loc("/home/adespirl/wave/lit_tests/kernel/wave/gemm_bench.py":71:38)
#loc28 = loc("/home/adespirl/wave/lit_tests/kernel/wave/gemm_bench.py":71:20)
#loc29 = loc("/home/adespirl/wave/lit_tests/kernel/wave/gemm_bench.py":72:26)
#loc30 = loc("/home/adespirl/wave/lit_tests/kernel/wave/gemm_bench.py":72:34)
#loc31 = loc("/home/adespirl/wave/lit_tests/kernel/wave/gemm_bench.py":72:45)
#loc32 = loc("/home/adespirl/wave/lit_tests/kernel/wave/gemm_bench.py":72:20)
#loc33 = loc("/home/adespirl/wave/lit_tests/kernel/wave/gemm_bench.py":74:41)
#loc34 = loc("/home/adespirl/wave/lit_tests/kernel/wave/gemm_bench.py":74:52)
#loc35 = loc("/home/adespirl/wave/lit_tests/kernel/wave/gemm_bench.py":74:64)
#loc36 = loc("/home/adespirl/wave/lit_tests/kernel/wave/gemm_bench.py":74:57)
#loc37 = loc("/home/adespirl/wave/lit_tests/kernel/wave/gemm_bench.py":73:28)
#loc38 = loc("/home/adespirl/wave/lit_tests/kernel/wave/gemm_bench.py":76:26)
#loc39 = loc("/home/adespirl/wave/lit_tests/kernel/wave/gemm_bench.py":78:30)
#loc40 = loc("/home/adespirl/wave/lit_tests/kernel/wave/gemm_bench.py":78:15)
#loc41 = loc("/home/adespirl/wave/lit_tests/kernel/wave/gemm_bench.py":78:8)
#loc42 = loc("/home/adespirl/wave/lit_tests/kernel/wave/gemm_bench.py":80:24)
#loc43 = loc("/home/adespirl/wave/lit_tests/kernel/wave/gemm_bench.py":80:35)
#loc44 = loc("/home/adespirl/wave/lit_tests/kernel/wave/gemm_bench.py":80:17)
#loc45 = loc("/home/adespirl/wave/lit_tests/kernel/wave/gemm_bench.py":80:54)
#loc46 = loc("/home/adespirl/wave/lit_tests/kernel/wave/gemm_bench.py":80:65)
#loc47 = loc("/home/adespirl/wave/lit_tests/kernel/wave/gemm_bench.py":80:47)
#loc48 = loc("/home/adespirl/wave/lit_tests/kernel/wave/gemm_bench.py":81:39)
#loc49 = loc("/home/adespirl/wave/lit_tests/kernel/wave/gemm_bench.py":81:50)
#loc50 = loc("/home/adespirl/wave/lit_tests/kernel/wave/gemm_bench.py":81:63)
#loc51 = loc("/home/adespirl/wave/lit_tests/kernel/wave/gemm_bench.py":81:74)
#loc52 = loc("/home/adespirl/wave/lit_tests/kernel/wave/gemm_bench.py":81:56)
#loc53 = loc("/home/adespirl/wave/lit_tests/kernel/wave/gemm_bench.py":81:21)
#loc54 = loc("/home/adespirl/wave/lit_tests/kernel/wave/gemm_bench.py":81:4)
#loc55 = loc("/app/triton-amd/python/triton/language/standard.py":117:0)
#loc56 = loc("/app/triton-amd/python/triton/language/standard.py":126:31)
#loc57 = loc("/app/triton-amd/python/triton/language/standard.py":126:11)


// -----// IR Dump Before Canonicalizer (canonicalize) ('tt.func' operation: @matmul_abt_kernel) //----- //
#loc = loc("/home/adespirl/wave/lit_tests/kernel/wave/gemm_bench.py":41:0)
module {
  tt.func public @matmul_abt_kernel(%arg0: !tt.ptr<f32> {tt.divisibility = 16 : i32, tt.pointer_range = 32 : i32} loc("/home/adespirl/wave/lit_tests/kernel/wave/gemm_bench.py":41:0), %arg1: !tt.ptr<bf16> {tt.divisibility = 16 : i32, tt.pointer_range = 32 : i32} loc("/home/adespirl/wave/lit_tests/kernel/wave/gemm_bench.py":41:0), %arg2: !tt.ptr<bf16> {tt.divisibility = 16 : i32, tt.pointer_range = 32 : i32} loc("/home/adespirl/wave/lit_tests/kernel/wave/gemm_bench.py":41:0), %arg3: i32 {tt.divisibility = 16 : i32} loc("/home/adespirl/wave/lit_tests/kernel/wave/gemm_bench.py":41:0), %arg4: i32 {tt.divisibility = 16 : i32} loc("/home/adespirl/wave/lit_tests/kernel/wave/gemm_bench.py":41:0), %arg5: i32 loc("/home/adespirl/wave/lit_tests/kernel/wave/gemm_bench.py":41:0), %arg6: i32 loc("/home/adespirl/wave/lit_tests/kernel/wave/gemm_bench.py":41:0), %arg7: i32 loc("/home/adespirl/wave/lit_tests/kernel/wave/gemm_bench.py":41:0), %arg8: i32 {tt.divisibility = 16 : i32} loc("/home/adespirl/wave/lit_tests/kernel/wave/gemm_bench.py":41:0)) attributes {noinline = false} {
    %cst = arith.constant dense<0.000000e+00> : tensor<64x32xbf16> loc(#loc1)
    %c32_i32 = arith.constant 32 : i32 loc(#loc1)
    %c0_i32 = arith.constant 0 : i32 loc(#loc1)
    %cst_0 = arith.constant dense<0.000000e+00> : tensor<64x64xf32> loc(#loc1)
    %c64_i32 = arith.constant 64 : i32 loc(#loc1)
    %0 = tt.get_program_id x : i32 loc(#loc2)
    %1 = tt.get_program_id y : i32 loc(#loc3)
    %2 = arith.muli %0, %c64_i32 : i32 loc(#loc4)
    %3 = tt.make_range {end = 64 : i32, start = 0 : i32} : tensor<64xi32> loc(#loc5)
    %4 = tt.splat %2 : i32 -> tensor<64xi32> loc(#loc6)
    %5 = arith.addi %4, %3 : tensor<64xi32> loc(#loc6)
    %6 = arith.muli %1, %c64_i32 : i32 loc(#loc7)
    %7 = tt.make_range {end = 64 : i32, start = 0 : i32} : tensor<64xi32> loc(#loc8)
    %8 = tt.splat %6 : i32 -> tensor<64xi32> loc(#loc9)
    %9 = arith.addi %8, %7 : tensor<64xi32> loc(#loc9)
    %10 = tt.make_range {end = 32 : i32, start = 0 : i32} : tensor<32xi32> loc(#loc10)
    %cst_1 = arith.constant dense<0.000000e+00> : tensor<64x64xf32> loc(#loc55)
    %11 = scf.for %arg9 = %c0_i32 to %arg5 step %c32_i32 iter_args(%arg10 = %cst_1) -> (tensor<64x64xf32>)  : i32 {
      %30 = tt.splat %arg9 : i32 -> tensor<32xi32> loc(#loc14)
      %31 = arith.addi %30, %10 : tensor<32xi32> loc(#loc14)
      %32 = tt.splat %arg5 : i32 -> tensor<32xi32> loc(#loc15)
      %33 = arith.cmpi slt, %31, %32 : tensor<32xi32> loc(#loc15)
      %34 = tt.expand_dims %5 {axis = 1 : i32} : tensor<64xi32> -> tensor<64x1xi32> loc(#loc16)
      %35 = tt.splat %arg6 : i32 -> tensor<64x1xi32> loc(#loc17)
      %36 = arith.muli %34, %35 : tensor<64x1xi32> loc(#loc17)
      %37 = tt.splat %arg1 : !tt.ptr<bf16> -> tensor<64x1x!tt.ptr<bf16>> loc(#loc18)
      %38 = tt.addptr %37, %36 : tensor<64x1x!tt.ptr<bf16>>, tensor<64x1xi32> loc(#loc18)
      %39 = tt.splat %arg9 : i32 -> tensor<32xi32> loc(#loc19)
      %40 = arith.addi %39, %10 : tensor<32xi32> loc(#loc19)
      %41 = tt.expand_dims %40 {axis = 0 : i32} : tensor<32xi32> -> tensor<1x32xi32> loc(#loc20)
      %42 = tt.broadcast %38 : tensor<64x1x!tt.ptr<bf16>> -> tensor<64x32x!tt.ptr<bf16>> loc(#loc21)
      %43 = tt.broadcast %41 : tensor<1x32xi32> -> tensor<64x32xi32> loc(#loc21)
      %44 = tt.addptr %42, %43 : tensor<64x32x!tt.ptr<bf16>>, tensor<64x32xi32> loc(#loc21)
      %45 = tt.expand_dims %5 {axis = 1 : i32} : tensor<64xi32> -> tensor<64x1xi32> loc(#loc22)
      %46 = tt.splat %arg3 : i32 -> tensor<64x1xi32> loc(#loc23)
      %47 = arith.cmpi slt, %45, %46 : tensor<64x1xi32> loc(#loc23)
      %48 = tt.expand_dims %33 {axis = 0 : i32} : tensor<32xi1> -> tensor<1x32xi1> loc(#loc24)
      %49 = tt.broadcast %47 : tensor<64x1xi1> -> tensor<64x32xi1> loc(#loc25)
      %50 = tt.broadcast %48 : tensor<1x32xi1> -> tensor<64x32xi1> loc(#loc25)
      %51 = arith.andi %49, %50 : tensor<64x32xi1> loc(#loc25)
      %52 = tt.load %44, %51, %cst : tensor<64x32x!tt.ptr<bf16>> loc(#loc26)
      %53 = tt.expand_dims %9 {axis = 1 : i32} : tensor<64xi32> -> tensor<64x1xi32> loc(#loc27)
      %54 = tt.splat %arg7 : i32 -> tensor<64x1xi32> loc(#loc28)
      %55 = arith.muli %53, %54 : tensor<64x1xi32> loc(#loc28)
      %56 = tt.splat %arg2 : !tt.ptr<bf16> -> tensor<64x1x!tt.ptr<bf16>> loc(#loc29)
      %57 = tt.addptr %56, %55 : tensor<64x1x!tt.ptr<bf16>>, tensor<64x1xi32> loc(#loc29)
      %58 = tt.splat %arg9 : i32 -> tensor<32xi32> loc(#loc30)
      %59 = arith.addi %58, %10 : tensor<32xi32> loc(#loc30)
      %60 = tt.expand_dims %59 {axis = 0 : i32} : tensor<32xi32> -> tensor<1x32xi32> loc(#loc31)
      %61 = tt.broadcast %57 : tensor<64x1x!tt.ptr<bf16>> -> tensor<64x32x!tt.ptr<bf16>> loc(#loc32)
      %62 = tt.broadcast %60 : tensor<1x32xi32> -> tensor<64x32xi32> loc(#loc32)
      %63 = tt.addptr %61, %62 : tensor<64x32x!tt.ptr<bf16>>, tensor<64x32xi32> loc(#loc32)
      %64 = tt.expand_dims %9 {axis = 1 : i32} : tensor<64xi32> -> tensor<64x1xi32> loc(#loc33)
      %65 = tt.splat %arg4 : i32 -> tensor<64x1xi32> loc(#loc34)
      %66 = arith.cmpi slt, %64, %65 : tensor<64x1xi32> loc(#loc34)
      %67 = tt.expand_dims %33 {axis = 0 : i32} : tensor<32xi1> -> tensor<1x32xi1> loc(#loc35)
      %68 = tt.broadcast %66 : tensor<64x1xi1> -> tensor<64x32xi1> loc(#loc36)
      %69 = tt.broadcast %67 : tensor<1x32xi1> -> tensor<64x32xi1> loc(#loc36)
      %70 = arith.andi %68, %69 : tensor<64x32xi1> loc(#loc36)
      %71 = tt.load %63, %70, %cst : tensor<64x32x!tt.ptr<bf16>> loc(#loc37)
      %72 = tt.trans %71 {order = array<i32: 1, 0>} : tensor<64x32xbf16> -> tensor<32x64xbf16> loc(#loc38)
      %73 = tt.dot %52, %72, %cst_0 : tensor<64x32xbf16> * tensor<32x64xbf16> -> tensor<64x64xf32> loc(#loc39)
      %74 = arith.addf %arg10, %73 : tensor<64x64xf32> loc(#loc40)
      scf.yield %74 : tensor<64x64xf32> loc(#loc41)
    } loc(#loc13)
    %12 = tt.expand_dims %5 {axis = 1 : i32} : tensor<64xi32> -> tensor<64x1xi32> loc(#loc42)
    %13 = tt.splat %arg8 : i32 -> tensor<64x1xi32> loc(#loc43)
    %14 = arith.muli %12, %13 : tensor<64x1xi32> loc(#loc43)
    %15 = tt.splat %arg0 : !tt.ptr<f32> -> tensor<64x1x!tt.ptr<f32>> loc(#loc44)
    %16 = tt.addptr %15, %14 : tensor<64x1x!tt.ptr<f32>>, tensor<64x1xi32> loc(#loc44)
    %17 = tt.expand_dims %9 {axis = 0 : i32} : tensor<64xi32> -> tensor<1x64xi32> loc(#loc45)
    %18 = tt.broadcast %16 : tensor<64x1x!tt.ptr<f32>> -> tensor<64x64x!tt.ptr<f32>> loc(#loc46)
    %19 = tt.broadcast %17 : tensor<1x64xi32> -> tensor<64x64xi32> loc(#loc46)
    %20 = tt.addptr %18, %19 : tensor<64x64x!tt.ptr<f32>>, tensor<64x64xi32> loc(#loc46)
    %21 = tt.expand_dims %5 {axis = 1 : i32} : tensor<64xi32> -> tensor<64x1xi32> loc(#loc47)
    %22 = tt.splat %arg3 : i32 -> tensor<64x1xi32> loc(#loc48)
    %23 = arith.cmpi slt, %21, %22 : tensor<64x1xi32> loc(#loc48)
    %24 = tt.expand_dims %9 {axis = 0 : i32} : tensor<64xi32> -> tensor<1x64xi32> loc(#loc49)
    %25 = tt.splat %arg4 : i32 -> tensor<1x64xi32> loc(#loc50)
    %26 = arith.cmpi slt, %24, %25 : tensor<1x64xi32> loc(#loc50)
    %27 = tt.broadcast %23 : tensor<64x1xi1> -> tensor<64x64xi1> loc(#loc51)
    %28 = tt.broadcast %26 : tensor<1x64xi1> -> tensor<64x64xi1> loc(#loc51)
    %29 = arith.andi %27, %28 : tensor<64x64xi1> loc(#loc51)
    tt.store %20, %11, %29 : tensor<64x64x!tt.ptr<f32>> loc(#loc52)
    tt.return loc(#loc53)
  } loc(#loc)
  tt.func private @"zeros____(0, 0)cconstexpr_64__(0, 1)cconstexpr_64__(1,)cconstexpr_fp32_"() -> tensor<64x64xf32> attributes {noinline = false} loc(#loc54)
} loc(#loc)
#loc1 = loc(unknown)
#loc2 = loc("/home/adespirl/wave/lit_tests/kernel/wave/gemm_bench.py":49:26)
#loc3 = loc("/home/adespirl/wave/lit_tests/kernel/wave/gemm_bench.py":50:26)
#loc4 = loc("/home/adespirl/wave/lit_tests/kernel/wave/gemm_bench.py":52:21)
#loc5 = loc("/home/adespirl/wave/lit_tests/kernel/wave/gemm_bench.py":52:44)
#loc6 = loc("/home/adespirl/wave/lit_tests/kernel/wave/gemm_bench.py":52:31)
#loc7 = loc("/home/adespirl/wave/lit_tests/kernel/wave/gemm_bench.py":53:21)
#loc8 = loc("/home/adespirl/wave/lit_tests/kernel/wave/gemm_bench.py":53:44)
#loc9 = loc("/home/adespirl/wave/lit_tests/kernel/wave/gemm_bench.py":53:31)
#loc10 = loc("/home/adespirl/wave/lit_tests/kernel/wave/gemm_bench.py":54:26)
#loc11 = loc("/app/triton-amd/python/triton/language/standard.py":126:31)
#loc12 = loc("/home/adespirl/wave/lit_tests/kernel/wave/gemm_bench.py":56:19)
#loc13 = loc("/home/adespirl/wave/lit_tests/kernel/wave/gemm_bench.py":58:26)
#loc14 = loc("/home/adespirl/wave/lit_tests/kernel/wave/gemm_bench.py":59:23)
#loc15 = loc("/home/adespirl/wave/lit_tests/kernel/wave/gemm_bench.py":59:33)
#loc16 = loc("/home/adespirl/wave/lit_tests/kernel/wave/gemm_bench.py":63:27)
#loc17 = loc("/home/adespirl/wave/lit_tests/kernel/wave/gemm_bench.py":63:38)
#loc18 = loc("/home/adespirl/wave/lit_tests/kernel/wave/gemm_bench.py":63:20)
#loc19 = loc("/home/adespirl/wave/lit_tests/kernel/wave/gemm_bench.py":64:26)
#loc20 = loc("/home/adespirl/wave/lit_tests/kernel/wave/gemm_bench.py":64:34)
#loc21 = loc("/home/adespirl/wave/lit_tests/kernel/wave/gemm_bench.py":64:20)
#loc22 = loc("/home/adespirl/wave/lit_tests/kernel/wave/gemm_bench.py":66:38)
#loc23 = loc("/home/adespirl/wave/lit_tests/kernel/wave/gemm_bench.py":66:49)
#loc24 = loc("/home/adespirl/wave/lit_tests/kernel/wave/gemm_bench.py":66:61)
#loc25 = loc("/home/adespirl/wave/lit_tests/kernel/wave/gemm_bench.py":66:54)
#loc26 = loc("/home/adespirl/wave/lit_tests/kernel/wave/gemm_bench.py":65:25)
#loc27 = loc("/home/adespirl/wave/lit_tests/kernel/wave/gemm_bench.py":71:27)
#loc28 = loc("/home/adespirl/wave/lit_tests/kernel/wave/gemm_bench.py":71:38)
#loc29 = loc("/home/adespirl/wave/lit_tests/kernel/wave/gemm_bench.py":71:20)
#loc30 = loc("/home/adespirl/wave/lit_tests/kernel/wave/gemm_bench.py":72:26)
#loc31 = loc("/home/adespirl/wave/lit_tests/kernel/wave/gemm_bench.py":72:34)
#loc32 = loc("/home/adespirl/wave/lit_tests/kernel/wave/gemm_bench.py":72:20)
#loc33 = loc("/home/adespirl/wave/lit_tests/kernel/wave/gemm_bench.py":74:41)
#loc34 = loc("/home/adespirl/wave/lit_tests/kernel/wave/gemm_bench.py":74:52)
#loc35 = loc("/home/adespirl/wave/lit_tests/kernel/wave/gemm_bench.py":74:64)
#loc36 = loc("/home/adespirl/wave/lit_tests/kernel/wave/gemm_bench.py":74:57)
#loc37 = loc("/home/adespirl/wave/lit_tests/kernel/wave/gemm_bench.py":73:28)
#loc38 = loc("/home/adespirl/wave/lit_tests/kernel/wave/gemm_bench.py":76:26)
#loc39 = loc("/home/adespirl/wave/lit_tests/kernel/wave/gemm_bench.py":78:30)
#loc40 = loc("/home/adespirl/wave/lit_tests/kernel/wave/gemm_bench.py":78:15)
#loc41 = loc("/home/adespirl/wave/lit_tests/kernel/wave/gemm_bench.py":78:8)
#loc42 = loc("/home/adespirl/wave/lit_tests/kernel/wave/gemm_bench.py":80:24)
#loc43 = loc("/home/adespirl/wave/lit_tests/kernel/wave/gemm_bench.py":80:35)
#loc44 = loc("/home/adespirl/wave/lit_tests/kernel/wave/gemm_bench.py":80:17)
#loc45 = loc("/home/adespirl/wave/lit_tests/kernel/wave/gemm_bench.py":80:54)
#loc46 = loc("/home/adespirl/wave/lit_tests/kernel/wave/gemm_bench.py":80:47)
#loc47 = loc("/home/adespirl/wave/lit_tests/kernel/wave/gemm_bench.py":81:39)
#loc48 = loc("/home/adespirl/wave/lit_tests/kernel/wave/gemm_bench.py":81:50)
#loc49 = loc("/home/adespirl/wave/lit_tests/kernel/wave/gemm_bench.py":81:63)
#loc50 = loc("/home/adespirl/wave/lit_tests/kernel/wave/gemm_bench.py":81:74)
#loc51 = loc("/home/adespirl/wave/lit_tests/kernel/wave/gemm_bench.py":81:56)
#loc52 = loc("/home/adespirl/wave/lit_tests/kernel/wave/gemm_bench.py":81:21)
#loc53 = loc("/home/adespirl/wave/lit_tests/kernel/wave/gemm_bench.py":81:4)
#loc54 = loc("/app/triton-amd/python/triton/language/standard.py":117:0)
#loc55 = loc(callsite(#loc11 at #loc12))


// -----// IR Dump Before TritonRewriteTensorPointer (triton-rewrite-tensor-pointer) ('builtin.module' operation) //----- //
#loc = loc("/home/adespirl/wave/lit_tests/kernel/wave/gemm_bench.py":41:0)
module {
  tt.func public @matmul_abt_kernel(%arg0: !tt.ptr<f32> {tt.divisibility = 16 : i32, tt.pointer_range = 32 : i32} loc("/home/adespirl/wave/lit_tests/kernel/wave/gemm_bench.py":41:0), %arg1: !tt.ptr<bf16> {tt.divisibility = 16 : i32, tt.pointer_range = 32 : i32} loc("/home/adespirl/wave/lit_tests/kernel/wave/gemm_bench.py":41:0), %arg2: !tt.ptr<bf16> {tt.divisibility = 16 : i32, tt.pointer_range = 32 : i32} loc("/home/adespirl/wave/lit_tests/kernel/wave/gemm_bench.py":41:0), %arg3: i32 {tt.divisibility = 16 : i32} loc("/home/adespirl/wave/lit_tests/kernel/wave/gemm_bench.py":41:0), %arg4: i32 {tt.divisibility = 16 : i32} loc("/home/adespirl/wave/lit_tests/kernel/wave/gemm_bench.py":41:0), %arg5: i32 loc("/home/adespirl/wave/lit_tests/kernel/wave/gemm_bench.py":41:0), %arg6: i32 loc("/home/adespirl/wave/lit_tests/kernel/wave/gemm_bench.py":41:0), %arg7: i32 loc("/home/adespirl/wave/lit_tests/kernel/wave/gemm_bench.py":41:0), %arg8: i32 {tt.divisibility = 16 : i32} loc("/home/adespirl/wave/lit_tests/kernel/wave/gemm_bench.py":41:0)) attributes {noinline = false} {
    %cst = arith.constant dense<0.000000e+00> : tensor<64x32xbf16> loc(#loc1)
    %c32_i32 = arith.constant 32 : i32 loc(#loc1)
    %c0_i32 = arith.constant 0 : i32 loc(#loc1)
    %cst_0 = arith.constant dense<0.000000e+00> : tensor<64x64xf32> loc(#loc1)
    %c64_i32 = arith.constant 64 : i32 loc(#loc1)
    %0 = tt.get_program_id x : i32 loc(#loc2)
    %1 = tt.get_program_id y : i32 loc(#loc3)
    %2 = arith.muli %0, %c64_i32 : i32 loc(#loc4)
    %3 = tt.make_range {end = 64 : i32, start = 0 : i32} : tensor<64xi32> loc(#loc5)
    %4 = tt.splat %2 : i32 -> tensor<64xi32> loc(#loc6)
    %5 = arith.addi %4, %3 : tensor<64xi32> loc(#loc6)
    %6 = arith.muli %1, %c64_i32 : i32 loc(#loc7)
    %7 = tt.make_range {end = 64 : i32, start = 0 : i32} : tensor<64xi32> loc(#loc8)
    %8 = tt.splat %6 : i32 -> tensor<64xi32> loc(#loc9)
    %9 = arith.addi %8, %7 : tensor<64xi32> loc(#loc9)
    %10 = tt.make_range {end = 32 : i32, start = 0 : i32} : tensor<32xi32> loc(#loc10)
    %11 = scf.for %arg9 = %c0_i32 to %arg5 step %c32_i32 iter_args(%arg10 = %cst_0) -> (tensor<64x64xf32>)  : i32 {
      %30 = tt.splat %arg9 : i32 -> tensor<32xi32> loc(#loc12)
      %31 = arith.addi %30, %10 : tensor<32xi32> loc(#loc12)
      %32 = tt.splat %arg5 : i32 -> tensor<32xi32> loc(#loc13)
      %33 = arith.cmpi slt, %31, %32 : tensor<32xi32> loc(#loc13)
      %34 = tt.expand_dims %5 {axis = 1 : i32} : tensor<64xi32> -> tensor<64x1xi32> loc(#loc14)
      %35 = tt.splat %arg6 : i32 -> tensor<64x1xi32> loc(#loc15)
      %36 = arith.muli %34, %35 : tensor<64x1xi32> loc(#loc15)
      %37 = tt.splat %arg1 : !tt.ptr<bf16> -> tensor<64x1x!tt.ptr<bf16>> loc(#loc16)
      %38 = tt.addptr %37, %36 : tensor<64x1x!tt.ptr<bf16>>, tensor<64x1xi32> loc(#loc16)
      %39 = tt.splat %arg9 : i32 -> tensor<32xi32> loc(#loc17)
      %40 = arith.addi %39, %10 : tensor<32xi32> loc(#loc17)
      %41 = tt.expand_dims %40 {axis = 0 : i32} : tensor<32xi32> -> tensor<1x32xi32> loc(#loc18)
      %42 = tt.broadcast %38 : tensor<64x1x!tt.ptr<bf16>> -> tensor<64x32x!tt.ptr<bf16>> loc(#loc19)
      %43 = tt.broadcast %41 : tensor<1x32xi32> -> tensor<64x32xi32> loc(#loc19)
      %44 = tt.addptr %42, %43 : tensor<64x32x!tt.ptr<bf16>>, tensor<64x32xi32> loc(#loc19)
      %45 = tt.expand_dims %5 {axis = 1 : i32} : tensor<64xi32> -> tensor<64x1xi32> loc(#loc20)
      %46 = tt.splat %arg3 : i32 -> tensor<64x1xi32> loc(#loc21)
      %47 = arith.cmpi slt, %45, %46 : tensor<64x1xi32> loc(#loc21)
      %48 = tt.expand_dims %33 {axis = 0 : i32} : tensor<32xi1> -> tensor<1x32xi1> loc(#loc22)
      %49 = tt.broadcast %47 : tensor<64x1xi1> -> tensor<64x32xi1> loc(#loc23)
      %50 = tt.broadcast %48 : tensor<1x32xi1> -> tensor<64x32xi1> loc(#loc23)
      %51 = arith.andi %49, %50 : tensor<64x32xi1> loc(#loc23)
      %52 = tt.load %44, %51, %cst : tensor<64x32x!tt.ptr<bf16>> loc(#loc24)
      %53 = tt.expand_dims %9 {axis = 1 : i32} : tensor<64xi32> -> tensor<64x1xi32> loc(#loc25)
      %54 = tt.splat %arg7 : i32 -> tensor<64x1xi32> loc(#loc26)
      %55 = arith.muli %53, %54 : tensor<64x1xi32> loc(#loc26)
      %56 = tt.splat %arg2 : !tt.ptr<bf16> -> tensor<64x1x!tt.ptr<bf16>> loc(#loc27)
      %57 = tt.addptr %56, %55 : tensor<64x1x!tt.ptr<bf16>>, tensor<64x1xi32> loc(#loc27)
      %58 = tt.splat %arg9 : i32 -> tensor<32xi32> loc(#loc28)
      %59 = arith.addi %58, %10 : tensor<32xi32> loc(#loc28)
      %60 = tt.expand_dims %59 {axis = 0 : i32} : tensor<32xi32> -> tensor<1x32xi32> loc(#loc29)
      %61 = tt.broadcast %57 : tensor<64x1x!tt.ptr<bf16>> -> tensor<64x32x!tt.ptr<bf16>> loc(#loc30)
      %62 = tt.broadcast %60 : tensor<1x32xi32> -> tensor<64x32xi32> loc(#loc30)
      %63 = tt.addptr %61, %62 : tensor<64x32x!tt.ptr<bf16>>, tensor<64x32xi32> loc(#loc30)
      %64 = tt.expand_dims %9 {axis = 1 : i32} : tensor<64xi32> -> tensor<64x1xi32> loc(#loc31)
      %65 = tt.splat %arg4 : i32 -> tensor<64x1xi32> loc(#loc32)
      %66 = arith.cmpi slt, %64, %65 : tensor<64x1xi32> loc(#loc32)
      %67 = tt.expand_dims %33 {axis = 0 : i32} : tensor<32xi1> -> tensor<1x32xi1> loc(#loc33)
      %68 = tt.broadcast %66 : tensor<64x1xi1> -> tensor<64x32xi1> loc(#loc34)
      %69 = tt.broadcast %67 : tensor<1x32xi1> -> tensor<64x32xi1> loc(#loc34)
      %70 = arith.andi %68, %69 : tensor<64x32xi1> loc(#loc34)
      %71 = tt.load %63, %70, %cst : tensor<64x32x!tt.ptr<bf16>> loc(#loc35)
      %72 = tt.trans %71 {order = array<i32: 1, 0>} : tensor<64x32xbf16> -> tensor<32x64xbf16> loc(#loc36)
      %73 = tt.dot %52, %72, %cst_0 : tensor<64x32xbf16> * tensor<32x64xbf16> -> tensor<64x64xf32> loc(#loc37)
      %74 = arith.addf %arg10, %73 : tensor<64x64xf32> loc(#loc38)
      scf.yield %74 : tensor<64x64xf32> loc(#loc39)
    } loc(#loc11)
    %12 = tt.expand_dims %5 {axis = 1 : i32} : tensor<64xi32> -> tensor<64x1xi32> loc(#loc40)
    %13 = tt.splat %arg8 : i32 -> tensor<64x1xi32> loc(#loc41)
    %14 = arith.muli %12, %13 : tensor<64x1xi32> loc(#loc41)
    %15 = tt.splat %arg0 : !tt.ptr<f32> -> tensor<64x1x!tt.ptr<f32>> loc(#loc42)
    %16 = tt.addptr %15, %14 : tensor<64x1x!tt.ptr<f32>>, tensor<64x1xi32> loc(#loc42)
    %17 = tt.expand_dims %9 {axis = 0 : i32} : tensor<64xi32> -> tensor<1x64xi32> loc(#loc43)
    %18 = tt.broadcast %16 : tensor<64x1x!tt.ptr<f32>> -> tensor<64x64x!tt.ptr<f32>> loc(#loc44)
    %19 = tt.broadcast %17 : tensor<1x64xi32> -> tensor<64x64xi32> loc(#loc44)
    %20 = tt.addptr %18, %19 : tensor<64x64x!tt.ptr<f32>>, tensor<64x64xi32> loc(#loc44)
    %21 = tt.expand_dims %5 {axis = 1 : i32} : tensor<64xi32> -> tensor<64x1xi32> loc(#loc45)
    %22 = tt.splat %arg3 : i32 -> tensor<64x1xi32> loc(#loc46)
    %23 = arith.cmpi slt, %21, %22 : tensor<64x1xi32> loc(#loc46)
    %24 = tt.expand_dims %9 {axis = 0 : i32} : tensor<64xi32> -> tensor<1x64xi32> loc(#loc47)
    %25 = tt.splat %arg4 : i32 -> tensor<1x64xi32> loc(#loc48)
    %26 = arith.cmpi slt, %24, %25 : tensor<1x64xi32> loc(#loc48)
    %27 = tt.broadcast %23 : tensor<64x1xi1> -> tensor<64x64xi1> loc(#loc49)
    %28 = tt.broadcast %26 : tensor<1x64xi1> -> tensor<64x64xi1> loc(#loc49)
    %29 = arith.andi %27, %28 : tensor<64x64xi1> loc(#loc49)
    tt.store %20, %11, %29 : tensor<64x64x!tt.ptr<f32>> loc(#loc50)
    tt.return loc(#loc51)
  } loc(#loc)
} loc(#loc)
#loc1 = loc(unknown)
#loc2 = loc("/home/adespirl/wave/lit_tests/kernel/wave/gemm_bench.py":49:26)
#loc3 = loc("/home/adespirl/wave/lit_tests/kernel/wave/gemm_bench.py":50:26)
#loc4 = loc("/home/adespirl/wave/lit_tests/kernel/wave/gemm_bench.py":52:21)
#loc5 = loc("/home/adespirl/wave/lit_tests/kernel/wave/gemm_bench.py":52:44)
#loc6 = loc("/home/adespirl/wave/lit_tests/kernel/wave/gemm_bench.py":52:31)
#loc7 = loc("/home/adespirl/wave/lit_tests/kernel/wave/gemm_bench.py":53:21)
#loc8 = loc("/home/adespirl/wave/lit_tests/kernel/wave/gemm_bench.py":53:44)
#loc9 = loc("/home/adespirl/wave/lit_tests/kernel/wave/gemm_bench.py":53:31)
#loc10 = loc("/home/adespirl/wave/lit_tests/kernel/wave/gemm_bench.py":54:26)
#loc11 = loc("/home/adespirl/wave/lit_tests/kernel/wave/gemm_bench.py":58:26)
#loc12 = loc("/home/adespirl/wave/lit_tests/kernel/wave/gemm_bench.py":59:23)
#loc13 = loc("/home/adespirl/wave/lit_tests/kernel/wave/gemm_bench.py":59:33)
#loc14 = loc("/home/adespirl/wave/lit_tests/kernel/wave/gemm_bench.py":63:27)
#loc15 = loc("/home/adespirl/wave/lit_tests/kernel/wave/gemm_bench.py":63:38)
#loc16 = loc("/home/adespirl/wave/lit_tests/kernel/wave/gemm_bench.py":63:20)
#loc17 = loc("/home/adespirl/wave/lit_tests/kernel/wave/gemm_bench.py":64:26)
#loc18 = loc("/home/adespirl/wave/lit_tests/kernel/wave/gemm_bench.py":64:34)
#loc19 = loc("/home/adespirl/wave/lit_tests/kernel/wave/gemm_bench.py":64:20)
#loc20 = loc("/home/adespirl/wave/lit_tests/kernel/wave/gemm_bench.py":66:38)
#loc21 = loc("/home/adespirl/wave/lit_tests/kernel/wave/gemm_bench.py":66:49)
#loc22 = loc("/home/adespirl/wave/lit_tests/kernel/wave/gemm_bench.py":66:61)
#loc23 = loc("/home/adespirl/wave/lit_tests/kernel/wave/gemm_bench.py":66:54)
#loc24 = loc("/home/adespirl/wave/lit_tests/kernel/wave/gemm_bench.py":65:25)
#loc25 = loc("/home/adespirl/wave/lit_tests/kernel/wave/gemm_bench.py":71:27)
#loc26 = loc("/home/adespirl/wave/lit_tests/kernel/wave/gemm_bench.py":71:38)
#loc27 = loc("/home/adespirl/wave/lit_tests/kernel/wave/gemm_bench.py":71:20)
#loc28 = loc("/home/adespirl/wave/lit_tests/kernel/wave/gemm_bench.py":72:26)
#loc29 = loc("/home/adespirl/wave/lit_tests/kernel/wave/gemm_bench.py":72:34)
#loc30 = loc("/home/adespirl/wave/lit_tests/kernel/wave/gemm_bench.py":72:20)
#loc31 = loc("/home/adespirl/wave/lit_tests/kernel/wave/gemm_bench.py":74:41)
#loc32 = loc("/home/adespirl/wave/lit_tests/kernel/wave/gemm_bench.py":74:52)
#loc33 = loc("/home/adespirl/wave/lit_tests/kernel/wave/gemm_bench.py":74:64)
#loc34 = loc("/home/adespirl/wave/lit_tests/kernel/wave/gemm_bench.py":74:57)
#loc35 = loc("/home/adespirl/wave/lit_tests/kernel/wave/gemm_bench.py":73:28)
#loc36 = loc("/home/adespirl/wave/lit_tests/kernel/wave/gemm_bench.py":76:26)
#loc37 = loc("/home/adespirl/wave/lit_tests/kernel/wave/gemm_bench.py":78:30)
#loc38 = loc("/home/adespirl/wave/lit_tests/kernel/wave/gemm_bench.py":78:15)
#loc39 = loc("/home/adespirl/wave/lit_tests/kernel/wave/gemm_bench.py":78:8)
#loc40 = loc("/home/adespirl/wave/lit_tests/kernel/wave/gemm_bench.py":80:24)
#loc41 = loc("/home/adespirl/wave/lit_tests/kernel/wave/gemm_bench.py":80:35)
#loc42 = loc("/home/adespirl/wave/lit_tests/kernel/wave/gemm_bench.py":80:17)
#loc43 = loc("/home/adespirl/wave/lit_tests/kernel/wave/gemm_bench.py":80:54)
#loc44 = loc("/home/adespirl/wave/lit_tests/kernel/wave/gemm_bench.py":80:47)
#loc45 = loc("/home/adespirl/wave/lit_tests/kernel/wave/gemm_bench.py":81:39)
#loc46 = loc("/home/adespirl/wave/lit_tests/kernel/wave/gemm_bench.py":81:50)
#loc47 = loc("/home/adespirl/wave/lit_tests/kernel/wave/gemm_bench.py":81:63)
#loc48 = loc("/home/adespirl/wave/lit_tests/kernel/wave/gemm_bench.py":81:74)
#loc49 = loc("/home/adespirl/wave/lit_tests/kernel/wave/gemm_bench.py":81:56)
#loc50 = loc("/home/adespirl/wave/lit_tests/kernel/wave/gemm_bench.py":81:21)
#loc51 = loc("/home/adespirl/wave/lit_tests/kernel/wave/gemm_bench.py":81:4)


// -----// IR Dump Before TritonRewriteTensorDescriptorToPointer (triton-rewrite-tensor-descriptor-to-pointer) ('builtin.module' operation) //----- //
#loc = loc("/home/adespirl/wave/lit_tests/kernel/wave/gemm_bench.py":41:0)
module {
  tt.func public @matmul_abt_kernel(%arg0: !tt.ptr<f32> {tt.divisibility = 16 : i32, tt.pointer_range = 32 : i32} loc("/home/adespirl/wave/lit_tests/kernel/wave/gemm_bench.py":41:0), %arg1: !tt.ptr<bf16> {tt.divisibility = 16 : i32, tt.pointer_range = 32 : i32} loc("/home/adespirl/wave/lit_tests/kernel/wave/gemm_bench.py":41:0), %arg2: !tt.ptr<bf16> {tt.divisibility = 16 : i32, tt.pointer_range = 32 : i32} loc("/home/adespirl/wave/lit_tests/kernel/wave/gemm_bench.py":41:0), %arg3: i32 {tt.divisibility = 16 : i32} loc("/home/adespirl/wave/lit_tests/kernel/wave/gemm_bench.py":41:0), %arg4: i32 {tt.divisibility = 16 : i32} loc("/home/adespirl/wave/lit_tests/kernel/wave/gemm_bench.py":41:0), %arg5: i32 loc("/home/adespirl/wave/lit_tests/kernel/wave/gemm_bench.py":41:0), %arg6: i32 loc("/home/adespirl/wave/lit_tests/kernel/wave/gemm_bench.py":41:0), %arg7: i32 loc("/home/adespirl/wave/lit_tests/kernel/wave/gemm_bench.py":41:0), %arg8: i32 {tt.divisibility = 16 : i32} loc("/home/adespirl/wave/lit_tests/kernel/wave/gemm_bench.py":41:0)) attributes {noinline = false} {
    %cst = arith.constant dense<0.000000e+00> : tensor<64x32xbf16> loc(#loc1)
    %c32_i32 = arith.constant 32 : i32 loc(#loc1)
    %c0_i32 = arith.constant 0 : i32 loc(#loc1)
    %cst_0 = arith.constant dense<0.000000e+00> : tensor<64x64xf32> loc(#loc1)
    %c64_i32 = arith.constant 64 : i32 loc(#loc1)
    %0 = tt.get_program_id x : i32 loc(#loc2)
    %1 = tt.get_program_id y : i32 loc(#loc3)
    %2 = arith.muli %0, %c64_i32 : i32 loc(#loc4)
    %3 = tt.make_range {end = 64 : i32, start = 0 : i32} : tensor<64xi32> loc(#loc5)
    %4 = tt.splat %2 : i32 -> tensor<64xi32> loc(#loc6)
    %5 = arith.addi %4, %3 : tensor<64xi32> loc(#loc6)
    %6 = arith.muli %1, %c64_i32 : i32 loc(#loc7)
    %7 = tt.make_range {end = 64 : i32, start = 0 : i32} : tensor<64xi32> loc(#loc8)
    %8 = tt.splat %6 : i32 -> tensor<64xi32> loc(#loc9)
    %9 = arith.addi %8, %7 : tensor<64xi32> loc(#loc9)
    %10 = tt.make_range {end = 32 : i32, start = 0 : i32} : tensor<32xi32> loc(#loc10)
    %11 = scf.for %arg9 = %c0_i32 to %arg5 step %c32_i32 iter_args(%arg10 = %cst_0) -> (tensor<64x64xf32>)  : i32 {
      %30 = tt.splat %arg9 : i32 -> tensor<32xi32> loc(#loc12)
      %31 = arith.addi %30, %10 : tensor<32xi32> loc(#loc12)
      %32 = tt.splat %arg5 : i32 -> tensor<32xi32> loc(#loc13)
      %33 = arith.cmpi slt, %31, %32 : tensor<32xi32> loc(#loc13)
      %34 = tt.expand_dims %5 {axis = 1 : i32} : tensor<64xi32> -> tensor<64x1xi32> loc(#loc14)
      %35 = tt.splat %arg6 : i32 -> tensor<64x1xi32> loc(#loc15)
      %36 = arith.muli %34, %35 : tensor<64x1xi32> loc(#loc15)
      %37 = tt.splat %arg1 : !tt.ptr<bf16> -> tensor<64x1x!tt.ptr<bf16>> loc(#loc16)
      %38 = tt.addptr %37, %36 : tensor<64x1x!tt.ptr<bf16>>, tensor<64x1xi32> loc(#loc16)
      %39 = tt.splat %arg9 : i32 -> tensor<32xi32> loc(#loc17)
      %40 = arith.addi %39, %10 : tensor<32xi32> loc(#loc17)
      %41 = tt.expand_dims %40 {axis = 0 : i32} : tensor<32xi32> -> tensor<1x32xi32> loc(#loc18)
      %42 = tt.broadcast %38 : tensor<64x1x!tt.ptr<bf16>> -> tensor<64x32x!tt.ptr<bf16>> loc(#loc19)
      %43 = tt.broadcast %41 : tensor<1x32xi32> -> tensor<64x32xi32> loc(#loc19)
      %44 = tt.addptr %42, %43 : tensor<64x32x!tt.ptr<bf16>>, tensor<64x32xi32> loc(#loc19)
      %45 = tt.expand_dims %5 {axis = 1 : i32} : tensor<64xi32> -> tensor<64x1xi32> loc(#loc20)
      %46 = tt.splat %arg3 : i32 -> tensor<64x1xi32> loc(#loc21)
      %47 = arith.cmpi slt, %45, %46 : tensor<64x1xi32> loc(#loc21)
      %48 = tt.expand_dims %33 {axis = 0 : i32} : tensor<32xi1> -> tensor<1x32xi1> loc(#loc22)
      %49 = tt.broadcast %47 : tensor<64x1xi1> -> tensor<64x32xi1> loc(#loc23)
      %50 = tt.broadcast %48 : tensor<1x32xi1> -> tensor<64x32xi1> loc(#loc23)
      %51 = arith.andi %49, %50 : tensor<64x32xi1> loc(#loc23)
      %52 = tt.load %44, %51, %cst : tensor<64x32x!tt.ptr<bf16>> loc(#loc24)
      %53 = tt.expand_dims %9 {axis = 1 : i32} : tensor<64xi32> -> tensor<64x1xi32> loc(#loc25)
      %54 = tt.splat %arg7 : i32 -> tensor<64x1xi32> loc(#loc26)
      %55 = arith.muli %53, %54 : tensor<64x1xi32> loc(#loc26)
      %56 = tt.splat %arg2 : !tt.ptr<bf16> -> tensor<64x1x!tt.ptr<bf16>> loc(#loc27)
      %57 = tt.addptr %56, %55 : tensor<64x1x!tt.ptr<bf16>>, tensor<64x1xi32> loc(#loc27)
      %58 = tt.splat %arg9 : i32 -> tensor<32xi32> loc(#loc28)
      %59 = arith.addi %58, %10 : tensor<32xi32> loc(#loc28)
      %60 = tt.expand_dims %59 {axis = 0 : i32} : tensor<32xi32> -> tensor<1x32xi32> loc(#loc29)
      %61 = tt.broadcast %57 : tensor<64x1x!tt.ptr<bf16>> -> tensor<64x32x!tt.ptr<bf16>> loc(#loc30)
      %62 = tt.broadcast %60 : tensor<1x32xi32> -> tensor<64x32xi32> loc(#loc30)
      %63 = tt.addptr %61, %62 : tensor<64x32x!tt.ptr<bf16>>, tensor<64x32xi32> loc(#loc30)
      %64 = tt.expand_dims %9 {axis = 1 : i32} : tensor<64xi32> -> tensor<64x1xi32> loc(#loc31)
      %65 = tt.splat %arg4 : i32 -> tensor<64x1xi32> loc(#loc32)
      %66 = arith.cmpi slt, %64, %65 : tensor<64x1xi32> loc(#loc32)
      %67 = tt.expand_dims %33 {axis = 0 : i32} : tensor<32xi1> -> tensor<1x32xi1> loc(#loc33)
      %68 = tt.broadcast %66 : tensor<64x1xi1> -> tensor<64x32xi1> loc(#loc34)
      %69 = tt.broadcast %67 : tensor<1x32xi1> -> tensor<64x32xi1> loc(#loc34)
      %70 = arith.andi %68, %69 : tensor<64x32xi1> loc(#loc34)
      %71 = tt.load %63, %70, %cst : tensor<64x32x!tt.ptr<bf16>> loc(#loc35)
      %72 = tt.trans %71 {order = array<i32: 1, 0>} : tensor<64x32xbf16> -> tensor<32x64xbf16> loc(#loc36)
      %73 = tt.dot %52, %72, %cst_0 : tensor<64x32xbf16> * tensor<32x64xbf16> -> tensor<64x64xf32> loc(#loc37)
      %74 = arith.addf %arg10, %73 : tensor<64x64xf32> loc(#loc38)
      scf.yield %74 : tensor<64x64xf32> loc(#loc39)
    } loc(#loc11)
    %12 = tt.expand_dims %5 {axis = 1 : i32} : tensor<64xi32> -> tensor<64x1xi32> loc(#loc40)
    %13 = tt.splat %arg8 : i32 -> tensor<64x1xi32> loc(#loc41)
    %14 = arith.muli %12, %13 : tensor<64x1xi32> loc(#loc41)
    %15 = tt.splat %arg0 : !tt.ptr<f32> -> tensor<64x1x!tt.ptr<f32>> loc(#loc42)
    %16 = tt.addptr %15, %14 : tensor<64x1x!tt.ptr<f32>>, tensor<64x1xi32> loc(#loc42)
    %17 = tt.expand_dims %9 {axis = 0 : i32} : tensor<64xi32> -> tensor<1x64xi32> loc(#loc43)
    %18 = tt.broadcast %16 : tensor<64x1x!tt.ptr<f32>> -> tensor<64x64x!tt.ptr<f32>> loc(#loc44)
    %19 = tt.broadcast %17 : tensor<1x64xi32> -> tensor<64x64xi32> loc(#loc44)
    %20 = tt.addptr %18, %19 : tensor<64x64x!tt.ptr<f32>>, tensor<64x64xi32> loc(#loc44)
    %21 = tt.expand_dims %5 {axis = 1 : i32} : tensor<64xi32> -> tensor<64x1xi32> loc(#loc45)
    %22 = tt.splat %arg3 : i32 -> tensor<64x1xi32> loc(#loc46)
    %23 = arith.cmpi slt, %21, %22 : tensor<64x1xi32> loc(#loc46)
    %24 = tt.expand_dims %9 {axis = 0 : i32} : tensor<64xi32> -> tensor<1x64xi32> loc(#loc47)
    %25 = tt.splat %arg4 : i32 -> tensor<1x64xi32> loc(#loc48)
    %26 = arith.cmpi slt, %24, %25 : tensor<1x64xi32> loc(#loc48)
    %27 = tt.broadcast %23 : tensor<64x1xi1> -> tensor<64x64xi1> loc(#loc49)
    %28 = tt.broadcast %26 : tensor<1x64xi1> -> tensor<64x64xi1> loc(#loc49)
    %29 = arith.andi %27, %28 : tensor<64x64xi1> loc(#loc49)
    tt.store %20, %11, %29 : tensor<64x64x!tt.ptr<f32>> loc(#loc50)
    tt.return loc(#loc51)
  } loc(#loc)
} loc(#loc)
#loc1 = loc(unknown)
#loc2 = loc("/home/adespirl/wave/lit_tests/kernel/wave/gemm_bench.py":49:26)
#loc3 = loc("/home/adespirl/wave/lit_tests/kernel/wave/gemm_bench.py":50:26)
#loc4 = loc("/home/adespirl/wave/lit_tests/kernel/wave/gemm_bench.py":52:21)
#loc5 = loc("/home/adespirl/wave/lit_tests/kernel/wave/gemm_bench.py":52:44)
#loc6 = loc("/home/adespirl/wave/lit_tests/kernel/wave/gemm_bench.py":52:31)
#loc7 = loc("/home/adespirl/wave/lit_tests/kernel/wave/gemm_bench.py":53:21)
#loc8 = loc("/home/adespirl/wave/lit_tests/kernel/wave/gemm_bench.py":53:44)
#loc9 = loc("/home/adespirl/wave/lit_tests/kernel/wave/gemm_bench.py":53:31)
#loc10 = loc("/home/adespirl/wave/lit_tests/kernel/wave/gemm_bench.py":54:26)
#loc11 = loc("/home/adespirl/wave/lit_tests/kernel/wave/gemm_bench.py":58:26)
#loc12 = loc("/home/adespirl/wave/lit_tests/kernel/wave/gemm_bench.py":59:23)
#loc13 = loc("/home/adespirl/wave/lit_tests/kernel/wave/gemm_bench.py":59:33)
#loc14 = loc("/home/adespirl/wave/lit_tests/kernel/wave/gemm_bench.py":63:27)
#loc15 = loc("/home/adespirl/wave/lit_tests/kernel/wave/gemm_bench.py":63:38)
#loc16 = loc("/home/adespirl/wave/lit_tests/kernel/wave/gemm_bench.py":63:20)
#loc17 = loc("/home/adespirl/wave/lit_tests/kernel/wave/gemm_bench.py":64:26)
#loc18 = loc("/home/adespirl/wave/lit_tests/kernel/wave/gemm_bench.py":64:34)
#loc19 = loc("/home/adespirl/wave/lit_tests/kernel/wave/gemm_bench.py":64:20)
#loc20 = loc("/home/adespirl/wave/lit_tests/kernel/wave/gemm_bench.py":66:38)
#loc21 = loc("/home/adespirl/wave/lit_tests/kernel/wave/gemm_bench.py":66:49)
#loc22 = loc("/home/adespirl/wave/lit_tests/kernel/wave/gemm_bench.py":66:61)
#loc23 = loc("/home/adespirl/wave/lit_tests/kernel/wave/gemm_bench.py":66:54)
#loc24 = loc("/home/adespirl/wave/lit_tests/kernel/wave/gemm_bench.py":65:25)
#loc25 = loc("/home/adespirl/wave/lit_tests/kernel/wave/gemm_bench.py":71:27)
#loc26 = loc("/home/adespirl/wave/lit_tests/kernel/wave/gemm_bench.py":71:38)
#loc27 = loc("/home/adespirl/wave/lit_tests/kernel/wave/gemm_bench.py":71:20)
#loc28 = loc("/home/adespirl/wave/lit_tests/kernel/wave/gemm_bench.py":72:26)
#loc29 = loc("/home/adespirl/wave/lit_tests/kernel/wave/gemm_bench.py":72:34)
#loc30 = loc("/home/adespirl/wave/lit_tests/kernel/wave/gemm_bench.py":72:20)
#loc31 = loc("/home/adespirl/wave/lit_tests/kernel/wave/gemm_bench.py":74:41)
#loc32 = loc("/home/adespirl/wave/lit_tests/kernel/wave/gemm_bench.py":74:52)
#loc33 = loc("/home/adespirl/wave/lit_tests/kernel/wave/gemm_bench.py":74:64)
#loc34 = loc("/home/adespirl/wave/lit_tests/kernel/wave/gemm_bench.py":74:57)
#loc35 = loc("/home/adespirl/wave/lit_tests/kernel/wave/gemm_bench.py":73:28)
#loc36 = loc("/home/adespirl/wave/lit_tests/kernel/wave/gemm_bench.py":76:26)
#loc37 = loc("/home/adespirl/wave/lit_tests/kernel/wave/gemm_bench.py":78:30)
#loc38 = loc("/home/adespirl/wave/lit_tests/kernel/wave/gemm_bench.py":78:15)
#loc39 = loc("/home/adespirl/wave/lit_tests/kernel/wave/gemm_bench.py":78:8)
#loc40 = loc("/home/adespirl/wave/lit_tests/kernel/wave/gemm_bench.py":80:24)
#loc41 = loc("/home/adespirl/wave/lit_tests/kernel/wave/gemm_bench.py":80:35)
#loc42 = loc("/home/adespirl/wave/lit_tests/kernel/wave/gemm_bench.py":80:17)
#loc43 = loc("/home/adespirl/wave/lit_tests/kernel/wave/gemm_bench.py":80:54)
#loc44 = loc("/home/adespirl/wave/lit_tests/kernel/wave/gemm_bench.py":80:47)
#loc45 = loc("/home/adespirl/wave/lit_tests/kernel/wave/gemm_bench.py":81:39)
#loc46 = loc("/home/adespirl/wave/lit_tests/kernel/wave/gemm_bench.py":81:50)
#loc47 = loc("/home/adespirl/wave/lit_tests/kernel/wave/gemm_bench.py":81:63)
#loc48 = loc("/home/adespirl/wave/lit_tests/kernel/wave/gemm_bench.py":81:74)
#loc49 = loc("/home/adespirl/wave/lit_tests/kernel/wave/gemm_bench.py":81:56)
#loc50 = loc("/home/adespirl/wave/lit_tests/kernel/wave/gemm_bench.py":81:21)
#loc51 = loc("/home/adespirl/wave/lit_tests/kernel/wave/gemm_bench.py":81:4)


// -----// IR Dump Before Canonicalizer (canonicalize) ('builtin.module' operation) //----- //
#loc = loc("/home/adespirl/wave/lit_tests/kernel/wave/gemm_bench.py":41:0)
module {
  tt.func public @matmul_abt_kernel(%arg0: !tt.ptr<f32> {tt.divisibility = 16 : i32, tt.pointer_range = 32 : i32} loc("/home/adespirl/wave/lit_tests/kernel/wave/gemm_bench.py":41:0), %arg1: !tt.ptr<bf16> {tt.divisibility = 16 : i32, tt.pointer_range = 32 : i32} loc("/home/adespirl/wave/lit_tests/kernel/wave/gemm_bench.py":41:0), %arg2: !tt.ptr<bf16> {tt.divisibility = 16 : i32, tt.pointer_range = 32 : i32} loc("/home/adespirl/wave/lit_tests/kernel/wave/gemm_bench.py":41:0), %arg3: i32 {tt.divisibility = 16 : i32} loc("/home/adespirl/wave/lit_tests/kernel/wave/gemm_bench.py":41:0), %arg4: i32 {tt.divisibility = 16 : i32} loc("/home/adespirl/wave/lit_tests/kernel/wave/gemm_bench.py":41:0), %arg5: i32 loc("/home/adespirl/wave/lit_tests/kernel/wave/gemm_bench.py":41:0), %arg6: i32 loc("/home/adespirl/wave/lit_tests/kernel/wave/gemm_bench.py":41:0), %arg7: i32 loc("/home/adespirl/wave/lit_tests/kernel/wave/gemm_bench.py":41:0), %arg8: i32 {tt.divisibility = 16 : i32} loc("/home/adespirl/wave/lit_tests/kernel/wave/gemm_bench.py":41:0)) attributes {noinline = false} {
    %cst = arith.constant dense<0.000000e+00> : tensor<64x32xbf16> loc(#loc1)
    %c32_i32 = arith.constant 32 : i32 loc(#loc1)
    %c0_i32 = arith.constant 0 : i32 loc(#loc1)
    %cst_0 = arith.constant dense<0.000000e+00> : tensor<64x64xf32> loc(#loc1)
    %c64_i32 = arith.constant 64 : i32 loc(#loc1)
    %0 = tt.get_program_id x : i32 loc(#loc2)
    %1 = tt.get_program_id y : i32 loc(#loc3)
    %2 = arith.muli %0, %c64_i32 : i32 loc(#loc4)
    %3 = tt.make_range {end = 64 : i32, start = 0 : i32} : tensor<64xi32> loc(#loc5)
    %4 = tt.splat %2 : i32 -> tensor<64xi32> loc(#loc6)
    %5 = arith.addi %4, %3 : tensor<64xi32> loc(#loc6)
    %6 = arith.muli %1, %c64_i32 : i32 loc(#loc7)
    %7 = tt.make_range {end = 64 : i32, start = 0 : i32} : tensor<64xi32> loc(#loc8)
    %8 = tt.splat %6 : i32 -> tensor<64xi32> loc(#loc9)
    %9 = arith.addi %8, %7 : tensor<64xi32> loc(#loc9)
    %10 = tt.make_range {end = 32 : i32, start = 0 : i32} : tensor<32xi32> loc(#loc10)
    %11 = scf.for %arg9 = %c0_i32 to %arg5 step %c32_i32 iter_args(%arg10 = %cst_0) -> (tensor<64x64xf32>)  : i32 {
      %30 = tt.splat %arg9 : i32 -> tensor<32xi32> loc(#loc12)
      %31 = arith.addi %30, %10 : tensor<32xi32> loc(#loc12)
      %32 = tt.splat %arg5 : i32 -> tensor<32xi32> loc(#loc13)
      %33 = arith.cmpi slt, %31, %32 : tensor<32xi32> loc(#loc13)
      %34 = tt.expand_dims %5 {axis = 1 : i32} : tensor<64xi32> -> tensor<64x1xi32> loc(#loc14)
      %35 = tt.splat %arg6 : i32 -> tensor<64x1xi32> loc(#loc15)
      %36 = arith.muli %34, %35 : tensor<64x1xi32> loc(#loc15)
      %37 = tt.splat %arg1 : !tt.ptr<bf16> -> tensor<64x1x!tt.ptr<bf16>> loc(#loc16)
      %38 = tt.addptr %37, %36 : tensor<64x1x!tt.ptr<bf16>>, tensor<64x1xi32> loc(#loc16)
      %39 = tt.splat %arg9 : i32 -> tensor<32xi32> loc(#loc17)
      %40 = arith.addi %39, %10 : tensor<32xi32> loc(#loc17)
      %41 = tt.expand_dims %40 {axis = 0 : i32} : tensor<32xi32> -> tensor<1x32xi32> loc(#loc18)
      %42 = tt.broadcast %38 : tensor<64x1x!tt.ptr<bf16>> -> tensor<64x32x!tt.ptr<bf16>> loc(#loc19)
      %43 = tt.broadcast %41 : tensor<1x32xi32> -> tensor<64x32xi32> loc(#loc19)
      %44 = tt.addptr %42, %43 : tensor<64x32x!tt.ptr<bf16>>, tensor<64x32xi32> loc(#loc19)
      %45 = tt.expand_dims %5 {axis = 1 : i32} : tensor<64xi32> -> tensor<64x1xi32> loc(#loc20)
      %46 = tt.splat %arg3 : i32 -> tensor<64x1xi32> loc(#loc21)
      %47 = arith.cmpi slt, %45, %46 : tensor<64x1xi32> loc(#loc21)
      %48 = tt.expand_dims %33 {axis = 0 : i32} : tensor<32xi1> -> tensor<1x32xi1> loc(#loc22)
      %49 = tt.broadcast %47 : tensor<64x1xi1> -> tensor<64x32xi1> loc(#loc23)
      %50 = tt.broadcast %48 : tensor<1x32xi1> -> tensor<64x32xi1> loc(#loc23)
      %51 = arith.andi %49, %50 : tensor<64x32xi1> loc(#loc23)
      %52 = tt.load %44, %51, %cst : tensor<64x32x!tt.ptr<bf16>> loc(#loc24)
      %53 = tt.expand_dims %9 {axis = 1 : i32} : tensor<64xi32> -> tensor<64x1xi32> loc(#loc25)
      %54 = tt.splat %arg7 : i32 -> tensor<64x1xi32> loc(#loc26)
      %55 = arith.muli %53, %54 : tensor<64x1xi32> loc(#loc26)
      %56 = tt.splat %arg2 : !tt.ptr<bf16> -> tensor<64x1x!tt.ptr<bf16>> loc(#loc27)
      %57 = tt.addptr %56, %55 : tensor<64x1x!tt.ptr<bf16>>, tensor<64x1xi32> loc(#loc27)
      %58 = tt.splat %arg9 : i32 -> tensor<32xi32> loc(#loc28)
      %59 = arith.addi %58, %10 : tensor<32xi32> loc(#loc28)
      %60 = tt.expand_dims %59 {axis = 0 : i32} : tensor<32xi32> -> tensor<1x32xi32> loc(#loc29)
      %61 = tt.broadcast %57 : tensor<64x1x!tt.ptr<bf16>> -> tensor<64x32x!tt.ptr<bf16>> loc(#loc30)
      %62 = tt.broadcast %60 : tensor<1x32xi32> -> tensor<64x32xi32> loc(#loc30)
      %63 = tt.addptr %61, %62 : tensor<64x32x!tt.ptr<bf16>>, tensor<64x32xi32> loc(#loc30)
      %64 = tt.expand_dims %9 {axis = 1 : i32} : tensor<64xi32> -> tensor<64x1xi32> loc(#loc31)
      %65 = tt.splat %arg4 : i32 -> tensor<64x1xi32> loc(#loc32)
      %66 = arith.cmpi slt, %64, %65 : tensor<64x1xi32> loc(#loc32)
      %67 = tt.expand_dims %33 {axis = 0 : i32} : tensor<32xi1> -> tensor<1x32xi1> loc(#loc33)
      %68 = tt.broadcast %66 : tensor<64x1xi1> -> tensor<64x32xi1> loc(#loc34)
      %69 = tt.broadcast %67 : tensor<1x32xi1> -> tensor<64x32xi1> loc(#loc34)
      %70 = arith.andi %68, %69 : tensor<64x32xi1> loc(#loc34)
      %71 = tt.load %63, %70, %cst : tensor<64x32x!tt.ptr<bf16>> loc(#loc35)
      %72 = tt.trans %71 {order = array<i32: 1, 0>} : tensor<64x32xbf16> -> tensor<32x64xbf16> loc(#loc36)
      %73 = tt.dot %52, %72, %cst_0 : tensor<64x32xbf16> * tensor<32x64xbf16> -> tensor<64x64xf32> loc(#loc37)
      %74 = arith.addf %arg10, %73 : tensor<64x64xf32> loc(#loc38)
      scf.yield %74 : tensor<64x64xf32> loc(#loc39)
    } loc(#loc11)
    %12 = tt.expand_dims %5 {axis = 1 : i32} : tensor<64xi32> -> tensor<64x1xi32> loc(#loc40)
    %13 = tt.splat %arg8 : i32 -> tensor<64x1xi32> loc(#loc41)
    %14 = arith.muli %12, %13 : tensor<64x1xi32> loc(#loc41)
    %15 = tt.splat %arg0 : !tt.ptr<f32> -> tensor<64x1x!tt.ptr<f32>> loc(#loc42)
    %16 = tt.addptr %15, %14 : tensor<64x1x!tt.ptr<f32>>, tensor<64x1xi32> loc(#loc42)
    %17 = tt.expand_dims %9 {axis = 0 : i32} : tensor<64xi32> -> tensor<1x64xi32> loc(#loc43)
    %18 = tt.broadcast %16 : tensor<64x1x!tt.ptr<f32>> -> tensor<64x64x!tt.ptr<f32>> loc(#loc44)
    %19 = tt.broadcast %17 : tensor<1x64xi32> -> tensor<64x64xi32> loc(#loc44)
    %20 = tt.addptr %18, %19 : tensor<64x64x!tt.ptr<f32>>, tensor<64x64xi32> loc(#loc44)
    %21 = tt.expand_dims %5 {axis = 1 : i32} : tensor<64xi32> -> tensor<64x1xi32> loc(#loc45)
    %22 = tt.splat %arg3 : i32 -> tensor<64x1xi32> loc(#loc46)
    %23 = arith.cmpi slt, %21, %22 : tensor<64x1xi32> loc(#loc46)
    %24 = tt.expand_dims %9 {axis = 0 : i32} : tensor<64xi32> -> tensor<1x64xi32> loc(#loc47)
    %25 = tt.splat %arg4 : i32 -> tensor<1x64xi32> loc(#loc48)
    %26 = arith.cmpi slt, %24, %25 : tensor<1x64xi32> loc(#loc48)
    %27 = tt.broadcast %23 : tensor<64x1xi1> -> tensor<64x64xi1> loc(#loc49)
    %28 = tt.broadcast %26 : tensor<1x64xi1> -> tensor<64x64xi1> loc(#loc49)
    %29 = arith.andi %27, %28 : tensor<64x64xi1> loc(#loc49)
    tt.store %20, %11, %29 : tensor<64x64x!tt.ptr<f32>> loc(#loc50)
    tt.return loc(#loc51)
  } loc(#loc)
} loc(#loc)
#loc1 = loc(unknown)
#loc2 = loc("/home/adespirl/wave/lit_tests/kernel/wave/gemm_bench.py":49:26)
#loc3 = loc("/home/adespirl/wave/lit_tests/kernel/wave/gemm_bench.py":50:26)
#loc4 = loc("/home/adespirl/wave/lit_tests/kernel/wave/gemm_bench.py":52:21)
#loc5 = loc("/home/adespirl/wave/lit_tests/kernel/wave/gemm_bench.py":52:44)
#loc6 = loc("/home/adespirl/wave/lit_tests/kernel/wave/gemm_bench.py":52:31)
#loc7 = loc("/home/adespirl/wave/lit_tests/kernel/wave/gemm_bench.py":53:21)
#loc8 = loc("/home/adespirl/wave/lit_tests/kernel/wave/gemm_bench.py":53:44)
#loc9 = loc("/home/adespirl/wave/lit_tests/kernel/wave/gemm_bench.py":53:31)
#loc10 = loc("/home/adespirl/wave/lit_tests/kernel/wave/gemm_bench.py":54:26)
#loc11 = loc("/home/adespirl/wave/lit_tests/kernel/wave/gemm_bench.py":58:26)
#loc12 = loc("/home/adespirl/wave/lit_tests/kernel/wave/gemm_bench.py":59:23)
#loc13 = loc("/home/adespirl/wave/lit_tests/kernel/wave/gemm_bench.py":59:33)
#loc14 = loc("/home/adespirl/wave/lit_tests/kernel/wave/gemm_bench.py":63:27)
#loc15 = loc("/home/adespirl/wave/lit_tests/kernel/wave/gemm_bench.py":63:38)
#loc16 = loc("/home/adespirl/wave/lit_tests/kernel/wave/gemm_bench.py":63:20)
#loc17 = loc("/home/adespirl/wave/lit_tests/kernel/wave/gemm_bench.py":64:26)
#loc18 = loc("/home/adespirl/wave/lit_tests/kernel/wave/gemm_bench.py":64:34)
#loc19 = loc("/home/adespirl/wave/lit_tests/kernel/wave/gemm_bench.py":64:20)
#loc20 = loc("/home/adespirl/wave/lit_tests/kernel/wave/gemm_bench.py":66:38)
#loc21 = loc("/home/adespirl/wave/lit_tests/kernel/wave/gemm_bench.py":66:49)
#loc22 = loc("/home/adespirl/wave/lit_tests/kernel/wave/gemm_bench.py":66:61)
#loc23 = loc("/home/adespirl/wave/lit_tests/kernel/wave/gemm_bench.py":66:54)
#loc24 = loc("/home/adespirl/wave/lit_tests/kernel/wave/gemm_bench.py":65:25)
#loc25 = loc("/home/adespirl/wave/lit_tests/kernel/wave/gemm_bench.py":71:27)
#loc26 = loc("/home/adespirl/wave/lit_tests/kernel/wave/gemm_bench.py":71:38)
#loc27 = loc("/home/adespirl/wave/lit_tests/kernel/wave/gemm_bench.py":71:20)
#loc28 = loc("/home/adespirl/wave/lit_tests/kernel/wave/gemm_bench.py":72:26)
#loc29 = loc("/home/adespirl/wave/lit_tests/kernel/wave/gemm_bench.py":72:34)
#loc30 = loc("/home/adespirl/wave/lit_tests/kernel/wave/gemm_bench.py":72:20)
#loc31 = loc("/home/adespirl/wave/lit_tests/kernel/wave/gemm_bench.py":74:41)
#loc32 = loc("/home/adespirl/wave/lit_tests/kernel/wave/gemm_bench.py":74:52)
#loc33 = loc("/home/adespirl/wave/lit_tests/kernel/wave/gemm_bench.py":74:64)
#loc34 = loc("/home/adespirl/wave/lit_tests/kernel/wave/gemm_bench.py":74:57)
#loc35 = loc("/home/adespirl/wave/lit_tests/kernel/wave/gemm_bench.py":73:28)
#loc36 = loc("/home/adespirl/wave/lit_tests/kernel/wave/gemm_bench.py":76:26)
#loc37 = loc("/home/adespirl/wave/lit_tests/kernel/wave/gemm_bench.py":78:30)
#loc38 = loc("/home/adespirl/wave/lit_tests/kernel/wave/gemm_bench.py":78:15)
#loc39 = loc("/home/adespirl/wave/lit_tests/kernel/wave/gemm_bench.py":78:8)
#loc40 = loc("/home/adespirl/wave/lit_tests/kernel/wave/gemm_bench.py":80:24)
#loc41 = loc("/home/adespirl/wave/lit_tests/kernel/wave/gemm_bench.py":80:35)
#loc42 = loc("/home/adespirl/wave/lit_tests/kernel/wave/gemm_bench.py":80:17)
#loc43 = loc("/home/adespirl/wave/lit_tests/kernel/wave/gemm_bench.py":80:54)
#loc44 = loc("/home/adespirl/wave/lit_tests/kernel/wave/gemm_bench.py":80:47)
#loc45 = loc("/home/adespirl/wave/lit_tests/kernel/wave/gemm_bench.py":81:39)
#loc46 = loc("/home/adespirl/wave/lit_tests/kernel/wave/gemm_bench.py":81:50)
#loc47 = loc("/home/adespirl/wave/lit_tests/kernel/wave/gemm_bench.py":81:63)
#loc48 = loc("/home/adespirl/wave/lit_tests/kernel/wave/gemm_bench.py":81:74)
#loc49 = loc("/home/adespirl/wave/lit_tests/kernel/wave/gemm_bench.py":81:56)
#loc50 = loc("/home/adespirl/wave/lit_tests/kernel/wave/gemm_bench.py":81:21)
#loc51 = loc("/home/adespirl/wave/lit_tests/kernel/wave/gemm_bench.py":81:4)


// -----// IR Dump Before TritonCombineOps (triton-combine) ('builtin.module' operation) //----- //
#loc = loc("/home/adespirl/wave/lit_tests/kernel/wave/gemm_bench.py":41:0)
module {
  tt.func public @matmul_abt_kernel(%arg0: !tt.ptr<f32> {tt.divisibility = 16 : i32, tt.pointer_range = 32 : i32} loc("/home/adespirl/wave/lit_tests/kernel/wave/gemm_bench.py":41:0), %arg1: !tt.ptr<bf16> {tt.divisibility = 16 : i32, tt.pointer_range = 32 : i32} loc("/home/adespirl/wave/lit_tests/kernel/wave/gemm_bench.py":41:0), %arg2: !tt.ptr<bf16> {tt.divisibility = 16 : i32, tt.pointer_range = 32 : i32} loc("/home/adespirl/wave/lit_tests/kernel/wave/gemm_bench.py":41:0), %arg3: i32 {tt.divisibility = 16 : i32} loc("/home/adespirl/wave/lit_tests/kernel/wave/gemm_bench.py":41:0), %arg4: i32 {tt.divisibility = 16 : i32} loc("/home/adespirl/wave/lit_tests/kernel/wave/gemm_bench.py":41:0), %arg5: i32 loc("/home/adespirl/wave/lit_tests/kernel/wave/gemm_bench.py":41:0), %arg6: i32 loc("/home/adespirl/wave/lit_tests/kernel/wave/gemm_bench.py":41:0), %arg7: i32 loc("/home/adespirl/wave/lit_tests/kernel/wave/gemm_bench.py":41:0), %arg8: i32 {tt.divisibility = 16 : i32} loc("/home/adespirl/wave/lit_tests/kernel/wave/gemm_bench.py":41:0)) attributes {noinline = false} {
    %cst = arith.constant dense<0.000000e+00> : tensor<64x32xbf16> loc(#loc1)
    %c32_i32 = arith.constant 32 : i32 loc(#loc1)
    %c0_i32 = arith.constant 0 : i32 loc(#loc1)
    %cst_0 = arith.constant dense<0.000000e+00> : tensor<64x64xf32> loc(#loc1)
    %c64_i32 = arith.constant 64 : i32 loc(#loc1)
    %0 = tt.get_program_id x : i32 loc(#loc2)
    %1 = tt.get_program_id y : i32 loc(#loc3)
    %2 = arith.muli %0, %c64_i32 : i32 loc(#loc4)
    %3 = tt.make_range {end = 64 : i32, start = 0 : i32} : tensor<64xi32> loc(#loc5)
    %4 = tt.splat %2 : i32 -> tensor<64xi32> loc(#loc6)
    %5 = arith.addi %4, %3 : tensor<64xi32> loc(#loc6)
    %6 = arith.muli %1, %c64_i32 : i32 loc(#loc7)
    %7 = tt.make_range {end = 64 : i32, start = 0 : i32} : tensor<64xi32> loc(#loc8)
    %8 = tt.splat %6 : i32 -> tensor<64xi32> loc(#loc9)
    %9 = arith.addi %8, %7 : tensor<64xi32> loc(#loc9)
    %10 = tt.make_range {end = 32 : i32, start = 0 : i32} : tensor<32xi32> loc(#loc10)
    %11 = scf.for %arg9 = %c0_i32 to %arg5 step %c32_i32 iter_args(%arg10 = %cst_0) -> (tensor<64x64xf32>)  : i32 {
      %30 = tt.splat %arg9 : i32 -> tensor<32xi32> loc(#loc12)
      %31 = arith.addi %30, %10 : tensor<32xi32> loc(#loc12)
      %32 = tt.splat %arg5 : i32 -> tensor<32xi32> loc(#loc13)
      %33 = arith.cmpi slt, %31, %32 : tensor<32xi32> loc(#loc13)
      %34 = tt.expand_dims %5 {axis = 1 : i32} : tensor<64xi32> -> tensor<64x1xi32> loc(#loc14)
      %35 = tt.splat %arg6 : i32 -> tensor<64x1xi32> loc(#loc15)
      %36 = arith.muli %34, %35 : tensor<64x1xi32> loc(#loc15)
      %37 = tt.splat %arg1 : !tt.ptr<bf16> -> tensor<64x1x!tt.ptr<bf16>> loc(#loc16)
      %38 = tt.addptr %37, %36 : tensor<64x1x!tt.ptr<bf16>>, tensor<64x1xi32> loc(#loc16)
      %39 = tt.splat %arg9 : i32 -> tensor<32xi32> loc(#loc17)
      %40 = arith.addi %39, %10 : tensor<32xi32> loc(#loc17)
      %41 = tt.expand_dims %40 {axis = 0 : i32} : tensor<32xi32> -> tensor<1x32xi32> loc(#loc18)
      %42 = tt.broadcast %38 : tensor<64x1x!tt.ptr<bf16>> -> tensor<64x32x!tt.ptr<bf16>> loc(#loc19)
      %43 = tt.broadcast %41 : tensor<1x32xi32> -> tensor<64x32xi32> loc(#loc19)
      %44 = tt.addptr %42, %43 : tensor<64x32x!tt.ptr<bf16>>, tensor<64x32xi32> loc(#loc19)
      %45 = tt.expand_dims %5 {axis = 1 : i32} : tensor<64xi32> -> tensor<64x1xi32> loc(#loc20)
      %46 = tt.splat %arg3 : i32 -> tensor<64x1xi32> loc(#loc21)
      %47 = arith.cmpi slt, %45, %46 : tensor<64x1xi32> loc(#loc21)
      %48 = tt.expand_dims %33 {axis = 0 : i32} : tensor<32xi1> -> tensor<1x32xi1> loc(#loc22)
      %49 = tt.broadcast %47 : tensor<64x1xi1> -> tensor<64x32xi1> loc(#loc23)
      %50 = tt.broadcast %48 : tensor<1x32xi1> -> tensor<64x32xi1> loc(#loc23)
      %51 = arith.andi %49, %50 : tensor<64x32xi1> loc(#loc23)
      %52 = tt.load %44, %51, %cst : tensor<64x32x!tt.ptr<bf16>> loc(#loc24)
      %53 = tt.expand_dims %9 {axis = 1 : i32} : tensor<64xi32> -> tensor<64x1xi32> loc(#loc25)
      %54 = tt.splat %arg7 : i32 -> tensor<64x1xi32> loc(#loc26)
      %55 = arith.muli %53, %54 : tensor<64x1xi32> loc(#loc26)
      %56 = tt.splat %arg2 : !tt.ptr<bf16> -> tensor<64x1x!tt.ptr<bf16>> loc(#loc27)
      %57 = tt.addptr %56, %55 : tensor<64x1x!tt.ptr<bf16>>, tensor<64x1xi32> loc(#loc27)
      %58 = tt.splat %arg9 : i32 -> tensor<32xi32> loc(#loc28)
      %59 = arith.addi %58, %10 : tensor<32xi32> loc(#loc28)
      %60 = tt.expand_dims %59 {axis = 0 : i32} : tensor<32xi32> -> tensor<1x32xi32> loc(#loc29)
      %61 = tt.broadcast %57 : tensor<64x1x!tt.ptr<bf16>> -> tensor<64x32x!tt.ptr<bf16>> loc(#loc30)
      %62 = tt.broadcast %60 : tensor<1x32xi32> -> tensor<64x32xi32> loc(#loc30)
      %63 = tt.addptr %61, %62 : tensor<64x32x!tt.ptr<bf16>>, tensor<64x32xi32> loc(#loc30)
      %64 = tt.expand_dims %9 {axis = 1 : i32} : tensor<64xi32> -> tensor<64x1xi32> loc(#loc31)
      %65 = tt.splat %arg4 : i32 -> tensor<64x1xi32> loc(#loc32)
      %66 = arith.cmpi slt, %64, %65 : tensor<64x1xi32> loc(#loc32)
      %67 = tt.expand_dims %33 {axis = 0 : i32} : tensor<32xi1> -> tensor<1x32xi1> loc(#loc33)
      %68 = tt.broadcast %66 : tensor<64x1xi1> -> tensor<64x32xi1> loc(#loc34)
      %69 = tt.broadcast %67 : tensor<1x32xi1> -> tensor<64x32xi1> loc(#loc34)
      %70 = arith.andi %68, %69 : tensor<64x32xi1> loc(#loc34)
      %71 = tt.load %63, %70, %cst : tensor<64x32x!tt.ptr<bf16>> loc(#loc35)
      %72 = tt.trans %71 {order = array<i32: 1, 0>} : tensor<64x32xbf16> -> tensor<32x64xbf16> loc(#loc36)
      %73 = tt.dot %52, %72, %cst_0 : tensor<64x32xbf16> * tensor<32x64xbf16> -> tensor<64x64xf32> loc(#loc37)
      %74 = arith.addf %arg10, %73 : tensor<64x64xf32> loc(#loc38)
      scf.yield %74 : tensor<64x64xf32> loc(#loc39)
    } loc(#loc11)
    %12 = tt.expand_dims %5 {axis = 1 : i32} : tensor<64xi32> -> tensor<64x1xi32> loc(#loc40)
    %13 = tt.splat %arg8 : i32 -> tensor<64x1xi32> loc(#loc41)
    %14 = arith.muli %12, %13 : tensor<64x1xi32> loc(#loc41)
    %15 = tt.splat %arg0 : !tt.ptr<f32> -> tensor<64x1x!tt.ptr<f32>> loc(#loc42)
    %16 = tt.addptr %15, %14 : tensor<64x1x!tt.ptr<f32>>, tensor<64x1xi32> loc(#loc42)
    %17 = tt.expand_dims %9 {axis = 0 : i32} : tensor<64xi32> -> tensor<1x64xi32> loc(#loc43)
    %18 = tt.broadcast %16 : tensor<64x1x!tt.ptr<f32>> -> tensor<64x64x!tt.ptr<f32>> loc(#loc44)
    %19 = tt.broadcast %17 : tensor<1x64xi32> -> tensor<64x64xi32> loc(#loc44)
    %20 = tt.addptr %18, %19 : tensor<64x64x!tt.ptr<f32>>, tensor<64x64xi32> loc(#loc44)
    %21 = tt.expand_dims %5 {axis = 1 : i32} : tensor<64xi32> -> tensor<64x1xi32> loc(#loc45)
    %22 = tt.splat %arg3 : i32 -> tensor<64x1xi32> loc(#loc46)
    %23 = arith.cmpi slt, %21, %22 : tensor<64x1xi32> loc(#loc46)
    %24 = tt.expand_dims %9 {axis = 0 : i32} : tensor<64xi32> -> tensor<1x64xi32> loc(#loc47)
    %25 = tt.splat %arg4 : i32 -> tensor<1x64xi32> loc(#loc48)
    %26 = arith.cmpi slt, %24, %25 : tensor<1x64xi32> loc(#loc48)
    %27 = tt.broadcast %23 : tensor<64x1xi1> -> tensor<64x64xi1> loc(#loc49)
    %28 = tt.broadcast %26 : tensor<1x64xi1> -> tensor<64x64xi1> loc(#loc49)
    %29 = arith.andi %27, %28 : tensor<64x64xi1> loc(#loc49)
    tt.store %20, %11, %29 : tensor<64x64x!tt.ptr<f32>> loc(#loc50)
    tt.return loc(#loc51)
  } loc(#loc)
} loc(#loc)
#loc1 = loc(unknown)
#loc2 = loc("/home/adespirl/wave/lit_tests/kernel/wave/gemm_bench.py":49:26)
#loc3 = loc("/home/adespirl/wave/lit_tests/kernel/wave/gemm_bench.py":50:26)
#loc4 = loc("/home/adespirl/wave/lit_tests/kernel/wave/gemm_bench.py":52:21)
#loc5 = loc("/home/adespirl/wave/lit_tests/kernel/wave/gemm_bench.py":52:44)
#loc6 = loc("/home/adespirl/wave/lit_tests/kernel/wave/gemm_bench.py":52:31)
#loc7 = loc("/home/adespirl/wave/lit_tests/kernel/wave/gemm_bench.py":53:21)
#loc8 = loc("/home/adespirl/wave/lit_tests/kernel/wave/gemm_bench.py":53:44)
#loc9 = loc("/home/adespirl/wave/lit_tests/kernel/wave/gemm_bench.py":53:31)
#loc10 = loc("/home/adespirl/wave/lit_tests/kernel/wave/gemm_bench.py":54:26)
#loc11 = loc("/home/adespirl/wave/lit_tests/kernel/wave/gemm_bench.py":58:26)
#loc12 = loc("/home/adespirl/wave/lit_tests/kernel/wave/gemm_bench.py":59:23)
#loc13 = loc("/home/adespirl/wave/lit_tests/kernel/wave/gemm_bench.py":59:33)
#loc14 = loc("/home/adespirl/wave/lit_tests/kernel/wave/gemm_bench.py":63:27)
#loc15 = loc("/home/adespirl/wave/lit_tests/kernel/wave/gemm_bench.py":63:38)
#loc16 = loc("/home/adespirl/wave/lit_tests/kernel/wave/gemm_bench.py":63:20)
#loc17 = loc("/home/adespirl/wave/lit_tests/kernel/wave/gemm_bench.py":64:26)
#loc18 = loc("/home/adespirl/wave/lit_tests/kernel/wave/gemm_bench.py":64:34)
#loc19 = loc("/home/adespirl/wave/lit_tests/kernel/wave/gemm_bench.py":64:20)
#loc20 = loc("/home/adespirl/wave/lit_tests/kernel/wave/gemm_bench.py":66:38)
#loc21 = loc("/home/adespirl/wave/lit_tests/kernel/wave/gemm_bench.py":66:49)
#loc22 = loc("/home/adespirl/wave/lit_tests/kernel/wave/gemm_bench.py":66:61)
#loc23 = loc("/home/adespirl/wave/lit_tests/kernel/wave/gemm_bench.py":66:54)
#loc24 = loc("/home/adespirl/wave/lit_tests/kernel/wave/gemm_bench.py":65:25)
#loc25 = loc("/home/adespirl/wave/lit_tests/kernel/wave/gemm_bench.py":71:27)
#loc26 = loc("/home/adespirl/wave/lit_tests/kernel/wave/gemm_bench.py":71:38)
#loc27 = loc("/home/adespirl/wave/lit_tests/kernel/wave/gemm_bench.py":71:20)
#loc28 = loc("/home/adespirl/wave/lit_tests/kernel/wave/gemm_bench.py":72:26)
#loc29 = loc("/home/adespirl/wave/lit_tests/kernel/wave/gemm_bench.py":72:34)
#loc30 = loc("/home/adespirl/wave/lit_tests/kernel/wave/gemm_bench.py":72:20)
#loc31 = loc("/home/adespirl/wave/lit_tests/kernel/wave/gemm_bench.py":74:41)
#loc32 = loc("/home/adespirl/wave/lit_tests/kernel/wave/gemm_bench.py":74:52)
#loc33 = loc("/home/adespirl/wave/lit_tests/kernel/wave/gemm_bench.py":74:64)
#loc34 = loc("/home/adespirl/wave/lit_tests/kernel/wave/gemm_bench.py":74:57)
#loc35 = loc("/home/adespirl/wave/lit_tests/kernel/wave/gemm_bench.py":73:28)
#loc36 = loc("/home/adespirl/wave/lit_tests/kernel/wave/gemm_bench.py":76:26)
#loc37 = loc("/home/adespirl/wave/lit_tests/kernel/wave/gemm_bench.py":78:30)
#loc38 = loc("/home/adespirl/wave/lit_tests/kernel/wave/gemm_bench.py":78:15)
#loc39 = loc("/home/adespirl/wave/lit_tests/kernel/wave/gemm_bench.py":78:8)
#loc40 = loc("/home/adespirl/wave/lit_tests/kernel/wave/gemm_bench.py":80:24)
#loc41 = loc("/home/adespirl/wave/lit_tests/kernel/wave/gemm_bench.py":80:35)
#loc42 = loc("/home/adespirl/wave/lit_tests/kernel/wave/gemm_bench.py":80:17)
#loc43 = loc("/home/adespirl/wave/lit_tests/kernel/wave/gemm_bench.py":80:54)
#loc44 = loc("/home/adespirl/wave/lit_tests/kernel/wave/gemm_bench.py":80:47)
#loc45 = loc("/home/adespirl/wave/lit_tests/kernel/wave/gemm_bench.py":81:39)
#loc46 = loc("/home/adespirl/wave/lit_tests/kernel/wave/gemm_bench.py":81:50)
#loc47 = loc("/home/adespirl/wave/lit_tests/kernel/wave/gemm_bench.py":81:63)
#loc48 = loc("/home/adespirl/wave/lit_tests/kernel/wave/gemm_bench.py":81:74)
#loc49 = loc("/home/adespirl/wave/lit_tests/kernel/wave/gemm_bench.py":81:56)
#loc50 = loc("/home/adespirl/wave/lit_tests/kernel/wave/gemm_bench.py":81:21)
#loc51 = loc("/home/adespirl/wave/lit_tests/kernel/wave/gemm_bench.py":81:4)


// -----// IR Dump Before TritonReorderBroadcast (triton-reorder-broadcast) ('builtin.module' operation) //----- //
#loc = loc("/home/adespirl/wave/lit_tests/kernel/wave/gemm_bench.py":41:0)
module {
  tt.func public @matmul_abt_kernel(%arg0: !tt.ptr<f32> {tt.divisibility = 16 : i32, tt.pointer_range = 32 : i32} loc("/home/adespirl/wave/lit_tests/kernel/wave/gemm_bench.py":41:0), %arg1: !tt.ptr<bf16> {tt.divisibility = 16 : i32, tt.pointer_range = 32 : i32} loc("/home/adespirl/wave/lit_tests/kernel/wave/gemm_bench.py":41:0), %arg2: !tt.ptr<bf16> {tt.divisibility = 16 : i32, tt.pointer_range = 32 : i32} loc("/home/adespirl/wave/lit_tests/kernel/wave/gemm_bench.py":41:0), %arg3: i32 {tt.divisibility = 16 : i32} loc("/home/adespirl/wave/lit_tests/kernel/wave/gemm_bench.py":41:0), %arg4: i32 {tt.divisibility = 16 : i32} loc("/home/adespirl/wave/lit_tests/kernel/wave/gemm_bench.py":41:0), %arg5: i32 loc("/home/adespirl/wave/lit_tests/kernel/wave/gemm_bench.py":41:0), %arg6: i32 loc("/home/adespirl/wave/lit_tests/kernel/wave/gemm_bench.py":41:0), %arg7: i32 loc("/home/adespirl/wave/lit_tests/kernel/wave/gemm_bench.py":41:0), %arg8: i32 {tt.divisibility = 16 : i32} loc("/home/adespirl/wave/lit_tests/kernel/wave/gemm_bench.py":41:0)) attributes {noinline = false} {
    %cst = arith.constant dense<0.000000e+00> : tensor<64x32xbf16> loc(#loc1)
    %c32_i32 = arith.constant 32 : i32 loc(#loc1)
    %c0_i32 = arith.constant 0 : i32 loc(#loc1)
    %cst_0 = arith.constant dense<0.000000e+00> : tensor<64x64xf32> loc(#loc1)
    %c64_i32 = arith.constant 64 : i32 loc(#loc1)
    %0 = tt.get_program_id x : i32 loc(#loc2)
    %1 = tt.get_program_id y : i32 loc(#loc3)
    %2 = arith.muli %0, %c64_i32 : i32 loc(#loc4)
    %3 = tt.make_range {end = 64 : i32, start = 0 : i32} : tensor<64xi32> loc(#loc5)
    %4 = tt.splat %2 : i32 -> tensor<64xi32> loc(#loc6)
    %5 = arith.addi %4, %3 : tensor<64xi32> loc(#loc6)
    %6 = arith.muli %1, %c64_i32 : i32 loc(#loc7)
    %7 = tt.make_range {end = 64 : i32, start = 0 : i32} : tensor<64xi32> loc(#loc8)
    %8 = tt.splat %6 : i32 -> tensor<64xi32> loc(#loc9)
    %9 = arith.addi %8, %7 : tensor<64xi32> loc(#loc9)
    %10 = tt.make_range {end = 32 : i32, start = 0 : i32} : tensor<32xi32> loc(#loc10)
    %11 = scf.for %arg9 = %c0_i32 to %arg5 step %c32_i32 iter_args(%arg10 = %cst_0) -> (tensor<64x64xf32>)  : i32 {
      %30 = tt.splat %arg9 : i32 -> tensor<32xi32> loc(#loc12)
      %31 = arith.addi %30, %10 : tensor<32xi32> loc(#loc12)
      %32 = tt.splat %arg5 : i32 -> tensor<32xi32> loc(#loc13)
      %33 = arith.cmpi slt, %31, %32 : tensor<32xi32> loc(#loc13)
      %34 = tt.expand_dims %5 {axis = 1 : i32} : tensor<64xi32> -> tensor<64x1xi32> loc(#loc14)
      %35 = tt.splat %arg6 : i32 -> tensor<64x1xi32> loc(#loc15)
      %36 = arith.muli %34, %35 : tensor<64x1xi32> loc(#loc15)
      %37 = tt.splat %arg1 : !tt.ptr<bf16> -> tensor<64x1x!tt.ptr<bf16>> loc(#loc16)
      %38 = tt.addptr %37, %36 : tensor<64x1x!tt.ptr<bf16>>, tensor<64x1xi32> loc(#loc16)
      %39 = tt.splat %arg9 : i32 -> tensor<32xi32> loc(#loc17)
      %40 = arith.addi %39, %10 : tensor<32xi32> loc(#loc17)
      %41 = tt.expand_dims %40 {axis = 0 : i32} : tensor<32xi32> -> tensor<1x32xi32> loc(#loc18)
      %42 = tt.broadcast %38 : tensor<64x1x!tt.ptr<bf16>> -> tensor<64x32x!tt.ptr<bf16>> loc(#loc19)
      %43 = tt.broadcast %41 : tensor<1x32xi32> -> tensor<64x32xi32> loc(#loc19)
      %44 = tt.addptr %42, %43 : tensor<64x32x!tt.ptr<bf16>>, tensor<64x32xi32> loc(#loc19)
      %45 = tt.expand_dims %5 {axis = 1 : i32} : tensor<64xi32> -> tensor<64x1xi32> loc(#loc20)
      %46 = tt.splat %arg3 : i32 -> tensor<64x1xi32> loc(#loc21)
      %47 = arith.cmpi slt, %45, %46 : tensor<64x1xi32> loc(#loc21)
      %48 = tt.expand_dims %33 {axis = 0 : i32} : tensor<32xi1> -> tensor<1x32xi1> loc(#loc22)
      %49 = tt.broadcast %47 : tensor<64x1xi1> -> tensor<64x32xi1> loc(#loc23)
      %50 = tt.broadcast %48 : tensor<1x32xi1> -> tensor<64x32xi1> loc(#loc23)
      %51 = arith.andi %49, %50 : tensor<64x32xi1> loc(#loc23)
      %52 = tt.load %44, %51, %cst : tensor<64x32x!tt.ptr<bf16>> loc(#loc24)
      %53 = tt.expand_dims %9 {axis = 1 : i32} : tensor<64xi32> -> tensor<64x1xi32> loc(#loc25)
      %54 = tt.splat %arg7 : i32 -> tensor<64x1xi32> loc(#loc26)
      %55 = arith.muli %53, %54 : tensor<64x1xi32> loc(#loc26)
      %56 = tt.splat %arg2 : !tt.ptr<bf16> -> tensor<64x1x!tt.ptr<bf16>> loc(#loc27)
      %57 = tt.addptr %56, %55 : tensor<64x1x!tt.ptr<bf16>>, tensor<64x1xi32> loc(#loc27)
      %58 = tt.splat %arg9 : i32 -> tensor<32xi32> loc(#loc28)
      %59 = arith.addi %58, %10 : tensor<32xi32> loc(#loc28)
      %60 = tt.expand_dims %59 {axis = 0 : i32} : tensor<32xi32> -> tensor<1x32xi32> loc(#loc29)
      %61 = tt.broadcast %57 : tensor<64x1x!tt.ptr<bf16>> -> tensor<64x32x!tt.ptr<bf16>> loc(#loc30)
      %62 = tt.broadcast %60 : tensor<1x32xi32> -> tensor<64x32xi32> loc(#loc30)
      %63 = tt.addptr %61, %62 : tensor<64x32x!tt.ptr<bf16>>, tensor<64x32xi32> loc(#loc30)
      %64 = tt.expand_dims %9 {axis = 1 : i32} : tensor<64xi32> -> tensor<64x1xi32> loc(#loc31)
      %65 = tt.splat %arg4 : i32 -> tensor<64x1xi32> loc(#loc32)
      %66 = arith.cmpi slt, %64, %65 : tensor<64x1xi32> loc(#loc32)
      %67 = tt.expand_dims %33 {axis = 0 : i32} : tensor<32xi1> -> tensor<1x32xi1> loc(#loc33)
      %68 = tt.broadcast %66 : tensor<64x1xi1> -> tensor<64x32xi1> loc(#loc34)
      %69 = tt.broadcast %67 : tensor<1x32xi1> -> tensor<64x32xi1> loc(#loc34)
      %70 = arith.andi %68, %69 : tensor<64x32xi1> loc(#loc34)
      %71 = tt.load %63, %70, %cst : tensor<64x32x!tt.ptr<bf16>> loc(#loc35)
      %72 = tt.trans %71 {order = array<i32: 1, 0>} : tensor<64x32xbf16> -> tensor<32x64xbf16> loc(#loc36)
      %73 = tt.dot %52, %72, %arg10 : tensor<64x32xbf16> * tensor<32x64xbf16> -> tensor<64x64xf32> loc(#loc37)
      scf.yield %73 : tensor<64x64xf32> loc(#loc38)
    } loc(#loc11)
    %12 = tt.expand_dims %5 {axis = 1 : i32} : tensor<64xi32> -> tensor<64x1xi32> loc(#loc39)
    %13 = tt.splat %arg8 : i32 -> tensor<64x1xi32> loc(#loc40)
    %14 = arith.muli %12, %13 : tensor<64x1xi32> loc(#loc40)
    %15 = tt.splat %arg0 : !tt.ptr<f32> -> tensor<64x1x!tt.ptr<f32>> loc(#loc41)
    %16 = tt.addptr %15, %14 : tensor<64x1x!tt.ptr<f32>>, tensor<64x1xi32> loc(#loc41)
    %17 = tt.expand_dims %9 {axis = 0 : i32} : tensor<64xi32> -> tensor<1x64xi32> loc(#loc42)
    %18 = tt.broadcast %16 : tensor<64x1x!tt.ptr<f32>> -> tensor<64x64x!tt.ptr<f32>> loc(#loc43)
    %19 = tt.broadcast %17 : tensor<1x64xi32> -> tensor<64x64xi32> loc(#loc43)
    %20 = tt.addptr %18, %19 : tensor<64x64x!tt.ptr<f32>>, tensor<64x64xi32> loc(#loc43)
    %21 = tt.expand_dims %5 {axis = 1 : i32} : tensor<64xi32> -> tensor<64x1xi32> loc(#loc44)
    %22 = tt.splat %arg3 : i32 -> tensor<64x1xi32> loc(#loc45)
    %23 = arith.cmpi slt, %21, %22 : tensor<64x1xi32> loc(#loc45)
    %24 = tt.expand_dims %9 {axis = 0 : i32} : tensor<64xi32> -> tensor<1x64xi32> loc(#loc46)
    %25 = tt.splat %arg4 : i32 -> tensor<1x64xi32> loc(#loc47)
    %26 = arith.cmpi slt, %24, %25 : tensor<1x64xi32> loc(#loc47)
    %27 = tt.broadcast %23 : tensor<64x1xi1> -> tensor<64x64xi1> loc(#loc48)
    %28 = tt.broadcast %26 : tensor<1x64xi1> -> tensor<64x64xi1> loc(#loc48)
    %29 = arith.andi %27, %28 : tensor<64x64xi1> loc(#loc48)
    tt.store %20, %11, %29 : tensor<64x64x!tt.ptr<f32>> loc(#loc49)
    tt.return loc(#loc50)
  } loc(#loc)
} loc(#loc)
#loc1 = loc(unknown)
#loc2 = loc("/home/adespirl/wave/lit_tests/kernel/wave/gemm_bench.py":49:26)
#loc3 = loc("/home/adespirl/wave/lit_tests/kernel/wave/gemm_bench.py":50:26)
#loc4 = loc("/home/adespirl/wave/lit_tests/kernel/wave/gemm_bench.py":52:21)
#loc5 = loc("/home/adespirl/wave/lit_tests/kernel/wave/gemm_bench.py":52:44)
#loc6 = loc("/home/adespirl/wave/lit_tests/kernel/wave/gemm_bench.py":52:31)
#loc7 = loc("/home/adespirl/wave/lit_tests/kernel/wave/gemm_bench.py":53:21)
#loc8 = loc("/home/adespirl/wave/lit_tests/kernel/wave/gemm_bench.py":53:44)
#loc9 = loc("/home/adespirl/wave/lit_tests/kernel/wave/gemm_bench.py":53:31)
#loc10 = loc("/home/adespirl/wave/lit_tests/kernel/wave/gemm_bench.py":54:26)
#loc11 = loc("/home/adespirl/wave/lit_tests/kernel/wave/gemm_bench.py":58:26)
#loc12 = loc("/home/adespirl/wave/lit_tests/kernel/wave/gemm_bench.py":59:23)
#loc13 = loc("/home/adespirl/wave/lit_tests/kernel/wave/gemm_bench.py":59:33)
#loc14 = loc("/home/adespirl/wave/lit_tests/kernel/wave/gemm_bench.py":63:27)
#loc15 = loc("/home/adespirl/wave/lit_tests/kernel/wave/gemm_bench.py":63:38)
#loc16 = loc("/home/adespirl/wave/lit_tests/kernel/wave/gemm_bench.py":63:20)
#loc17 = loc("/home/adespirl/wave/lit_tests/kernel/wave/gemm_bench.py":64:26)
#loc18 = loc("/home/adespirl/wave/lit_tests/kernel/wave/gemm_bench.py":64:34)
#loc19 = loc("/home/adespirl/wave/lit_tests/kernel/wave/gemm_bench.py":64:20)
#loc20 = loc("/home/adespirl/wave/lit_tests/kernel/wave/gemm_bench.py":66:38)
#loc21 = loc("/home/adespirl/wave/lit_tests/kernel/wave/gemm_bench.py":66:49)
#loc22 = loc("/home/adespirl/wave/lit_tests/kernel/wave/gemm_bench.py":66:61)
#loc23 = loc("/home/adespirl/wave/lit_tests/kernel/wave/gemm_bench.py":66:54)
#loc24 = loc("/home/adespirl/wave/lit_tests/kernel/wave/gemm_bench.py":65:25)
#loc25 = loc("/home/adespirl/wave/lit_tests/kernel/wave/gemm_bench.py":71:27)
#loc26 = loc("/home/adespirl/wave/lit_tests/kernel/wave/gemm_bench.py":71:38)
#loc27 = loc("/home/adespirl/wave/lit_tests/kernel/wave/gemm_bench.py":71:20)
#loc28 = loc("/home/adespirl/wave/lit_tests/kernel/wave/gemm_bench.py":72:26)
#loc29 = loc("/home/adespirl/wave/lit_tests/kernel/wave/gemm_bench.py":72:34)
#loc30 = loc("/home/adespirl/wave/lit_tests/kernel/wave/gemm_bench.py":72:20)
#loc31 = loc("/home/adespirl/wave/lit_tests/kernel/wave/gemm_bench.py":74:41)
#loc32 = loc("/home/adespirl/wave/lit_tests/kernel/wave/gemm_bench.py":74:52)
#loc33 = loc("/home/adespirl/wave/lit_tests/kernel/wave/gemm_bench.py":74:64)
#loc34 = loc("/home/adespirl/wave/lit_tests/kernel/wave/gemm_bench.py":74:57)
#loc35 = loc("/home/adespirl/wave/lit_tests/kernel/wave/gemm_bench.py":73:28)
#loc36 = loc("/home/adespirl/wave/lit_tests/kernel/wave/gemm_bench.py":76:26)
#loc37 = loc("/home/adespirl/wave/lit_tests/kernel/wave/gemm_bench.py":78:30)
#loc38 = loc("/home/adespirl/wave/lit_tests/kernel/wave/gemm_bench.py":78:8)
#loc39 = loc("/home/adespirl/wave/lit_tests/kernel/wave/gemm_bench.py":80:24)
#loc40 = loc("/home/adespirl/wave/lit_tests/kernel/wave/gemm_bench.py":80:35)
#loc41 = loc("/home/adespirl/wave/lit_tests/kernel/wave/gemm_bench.py":80:17)
#loc42 = loc("/home/adespirl/wave/lit_tests/kernel/wave/gemm_bench.py":80:54)
#loc43 = loc("/home/adespirl/wave/lit_tests/kernel/wave/gemm_bench.py":80:47)
#loc44 = loc("/home/adespirl/wave/lit_tests/kernel/wave/gemm_bench.py":81:39)
#loc45 = loc("/home/adespirl/wave/lit_tests/kernel/wave/gemm_bench.py":81:50)
#loc46 = loc("/home/adespirl/wave/lit_tests/kernel/wave/gemm_bench.py":81:63)
#loc47 = loc("/home/adespirl/wave/lit_tests/kernel/wave/gemm_bench.py":81:74)
#loc48 = loc("/home/adespirl/wave/lit_tests/kernel/wave/gemm_bench.py":81:56)
#loc49 = loc("/home/adespirl/wave/lit_tests/kernel/wave/gemm_bench.py":81:21)
#loc50 = loc("/home/adespirl/wave/lit_tests/kernel/wave/gemm_bench.py":81:4)


// -----// IR Dump Before CSE (cse) ('builtin.module' operation) //----- //
#loc = loc("/home/adespirl/wave/lit_tests/kernel/wave/gemm_bench.py":41:0)
module {
  tt.func public @matmul_abt_kernel(%arg0: !tt.ptr<f32> {tt.divisibility = 16 : i32, tt.pointer_range = 32 : i32} loc("/home/adespirl/wave/lit_tests/kernel/wave/gemm_bench.py":41:0), %arg1: !tt.ptr<bf16> {tt.divisibility = 16 : i32, tt.pointer_range = 32 : i32} loc("/home/adespirl/wave/lit_tests/kernel/wave/gemm_bench.py":41:0), %arg2: !tt.ptr<bf16> {tt.divisibility = 16 : i32, tt.pointer_range = 32 : i32} loc("/home/adespirl/wave/lit_tests/kernel/wave/gemm_bench.py":41:0), %arg3: i32 {tt.divisibility = 16 : i32} loc("/home/adespirl/wave/lit_tests/kernel/wave/gemm_bench.py":41:0), %arg4: i32 {tt.divisibility = 16 : i32} loc("/home/adespirl/wave/lit_tests/kernel/wave/gemm_bench.py":41:0), %arg5: i32 loc("/home/adespirl/wave/lit_tests/kernel/wave/gemm_bench.py":41:0), %arg6: i32 loc("/home/adespirl/wave/lit_tests/kernel/wave/gemm_bench.py":41:0), %arg7: i32 loc("/home/adespirl/wave/lit_tests/kernel/wave/gemm_bench.py":41:0), %arg8: i32 {tt.divisibility = 16 : i32} loc("/home/adespirl/wave/lit_tests/kernel/wave/gemm_bench.py":41:0)) attributes {noinline = false} {
    %cst = arith.constant dense<0.000000e+00> : tensor<64x32xbf16> loc(#loc1)
    %c32_i32 = arith.constant 32 : i32 loc(#loc1)
    %c0_i32 = arith.constant 0 : i32 loc(#loc1)
    %cst_0 = arith.constant dense<0.000000e+00> : tensor<64x64xf32> loc(#loc1)
    %c64_i32 = arith.constant 64 : i32 loc(#loc1)
    %0 = tt.get_program_id x : i32 loc(#loc2)
    %1 = tt.get_program_id y : i32 loc(#loc3)
    %2 = arith.muli %0, %c64_i32 : i32 loc(#loc4)
    %3 = tt.make_range {end = 64 : i32, start = 0 : i32} : tensor<64xi32> loc(#loc5)
    %4 = tt.splat %2 : i32 -> tensor<64xi32> loc(#loc6)
    %5 = arith.addi %4, %3 : tensor<64xi32> loc(#loc6)
    %6 = arith.muli %1, %c64_i32 : i32 loc(#loc7)
    %7 = tt.make_range {end = 64 : i32, start = 0 : i32} : tensor<64xi32> loc(#loc8)
    %8 = tt.splat %6 : i32 -> tensor<64xi32> loc(#loc9)
    %9 = arith.addi %8, %7 : tensor<64xi32> loc(#loc9)
    %10 = tt.make_range {end = 32 : i32, start = 0 : i32} : tensor<32xi32> loc(#loc10)
    %11 = scf.for %arg9 = %c0_i32 to %arg5 step %c32_i32 iter_args(%arg10 = %cst_0) -> (tensor<64x64xf32>)  : i32 {
      %30 = tt.splat %arg9 : i32 -> tensor<32xi32> loc(#loc12)
      %31 = arith.addi %30, %10 : tensor<32xi32> loc(#loc12)
      %32 = tt.splat %arg5 : i32 -> tensor<32xi32> loc(#loc13)
      %33 = arith.cmpi slt, %31, %32 : tensor<32xi32> loc(#loc13)
      %34 = tt.expand_dims %5 {axis = 1 : i32} : tensor<64xi32> -> tensor<64x1xi32> loc(#loc14)
      %35 = tt.splat %arg6 : i32 -> tensor<64x1xi32> loc(#loc15)
      %36 = arith.muli %34, %35 : tensor<64x1xi32> loc(#loc15)
      %37 = tt.splat %arg1 : !tt.ptr<bf16> -> tensor<64x1x!tt.ptr<bf16>> loc(#loc16)
      %38 = tt.addptr %37, %36 : tensor<64x1x!tt.ptr<bf16>>, tensor<64x1xi32> loc(#loc16)
      %39 = tt.splat %arg9 : i32 -> tensor<32xi32> loc(#loc17)
      %40 = arith.addi %39, %10 : tensor<32xi32> loc(#loc17)
      %41 = tt.expand_dims %40 {axis = 0 : i32} : tensor<32xi32> -> tensor<1x32xi32> loc(#loc18)
      %42 = tt.broadcast %38 : tensor<64x1x!tt.ptr<bf16>> -> tensor<64x32x!tt.ptr<bf16>> loc(#loc19)
      %43 = tt.broadcast %41 : tensor<1x32xi32> -> tensor<64x32xi32> loc(#loc19)
      %44 = tt.addptr %42, %43 : tensor<64x32x!tt.ptr<bf16>>, tensor<64x32xi32> loc(#loc19)
      %45 = tt.expand_dims %5 {axis = 1 : i32} : tensor<64xi32> -> tensor<64x1xi32> loc(#loc20)
      %46 = tt.splat %arg3 : i32 -> tensor<64x1xi32> loc(#loc21)
      %47 = arith.cmpi slt, %45, %46 : tensor<64x1xi32> loc(#loc21)
      %48 = tt.expand_dims %33 {axis = 0 : i32} : tensor<32xi1> -> tensor<1x32xi1> loc(#loc22)
      %49 = tt.broadcast %47 : tensor<64x1xi1> -> tensor<64x32xi1> loc(#loc23)
      %50 = tt.broadcast %48 : tensor<1x32xi1> -> tensor<64x32xi1> loc(#loc23)
      %51 = arith.andi %49, %50 : tensor<64x32xi1> loc(#loc23)
      %52 = tt.load %44, %51, %cst : tensor<64x32x!tt.ptr<bf16>> loc(#loc24)
      %53 = tt.expand_dims %9 {axis = 1 : i32} : tensor<64xi32> -> tensor<64x1xi32> loc(#loc25)
      %54 = tt.splat %arg7 : i32 -> tensor<64x1xi32> loc(#loc26)
      %55 = arith.muli %53, %54 : tensor<64x1xi32> loc(#loc26)
      %56 = tt.splat %arg2 : !tt.ptr<bf16> -> tensor<64x1x!tt.ptr<bf16>> loc(#loc27)
      %57 = tt.addptr %56, %55 : tensor<64x1x!tt.ptr<bf16>>, tensor<64x1xi32> loc(#loc27)
      %58 = tt.splat %arg9 : i32 -> tensor<32xi32> loc(#loc28)
      %59 = arith.addi %58, %10 : tensor<32xi32> loc(#loc28)
      %60 = tt.expand_dims %59 {axis = 0 : i32} : tensor<32xi32> -> tensor<1x32xi32> loc(#loc29)
      %61 = tt.broadcast %57 : tensor<64x1x!tt.ptr<bf16>> -> tensor<64x32x!tt.ptr<bf16>> loc(#loc30)
      %62 = tt.broadcast %60 : tensor<1x32xi32> -> tensor<64x32xi32> loc(#loc30)
      %63 = tt.addptr %61, %62 : tensor<64x32x!tt.ptr<bf16>>, tensor<64x32xi32> loc(#loc30)
      %64 = tt.expand_dims %9 {axis = 1 : i32} : tensor<64xi32> -> tensor<64x1xi32> loc(#loc31)
      %65 = tt.splat %arg4 : i32 -> tensor<64x1xi32> loc(#loc32)
      %66 = arith.cmpi slt, %64, %65 : tensor<64x1xi32> loc(#loc32)
      %67 = tt.expand_dims %33 {axis = 0 : i32} : tensor<32xi1> -> tensor<1x32xi1> loc(#loc33)
      %68 = tt.broadcast %66 : tensor<64x1xi1> -> tensor<64x32xi1> loc(#loc34)
      %69 = tt.broadcast %67 : tensor<1x32xi1> -> tensor<64x32xi1> loc(#loc34)
      %70 = arith.andi %68, %69 : tensor<64x32xi1> loc(#loc34)
      %71 = tt.load %63, %70, %cst : tensor<64x32x!tt.ptr<bf16>> loc(#loc35)
      %72 = tt.trans %71 {order = array<i32: 1, 0>} : tensor<64x32xbf16> -> tensor<32x64xbf16> loc(#loc36)
      %73 = tt.dot %52, %72, %arg10 : tensor<64x32xbf16> * tensor<32x64xbf16> -> tensor<64x64xf32> loc(#loc37)
      scf.yield %73 : tensor<64x64xf32> loc(#loc38)
    } loc(#loc11)
    %12 = tt.expand_dims %5 {axis = 1 : i32} : tensor<64xi32> -> tensor<64x1xi32> loc(#loc39)
    %13 = tt.splat %arg8 : i32 -> tensor<64x1xi32> loc(#loc40)
    %14 = arith.muli %12, %13 : tensor<64x1xi32> loc(#loc40)
    %15 = tt.splat %arg0 : !tt.ptr<f32> -> tensor<64x1x!tt.ptr<f32>> loc(#loc41)
    %16 = tt.addptr %15, %14 : tensor<64x1x!tt.ptr<f32>>, tensor<64x1xi32> loc(#loc41)
    %17 = tt.expand_dims %9 {axis = 0 : i32} : tensor<64xi32> -> tensor<1x64xi32> loc(#loc42)
    %18 = tt.broadcast %16 : tensor<64x1x!tt.ptr<f32>> -> tensor<64x64x!tt.ptr<f32>> loc(#loc43)
    %19 = tt.broadcast %17 : tensor<1x64xi32> -> tensor<64x64xi32> loc(#loc43)
    %20 = tt.addptr %18, %19 : tensor<64x64x!tt.ptr<f32>>, tensor<64x64xi32> loc(#loc43)
    %21 = tt.expand_dims %5 {axis = 1 : i32} : tensor<64xi32> -> tensor<64x1xi32> loc(#loc44)
    %22 = tt.splat %arg3 : i32 -> tensor<64x1xi32> loc(#loc45)
    %23 = arith.cmpi slt, %21, %22 : tensor<64x1xi32> loc(#loc45)
    %24 = tt.expand_dims %9 {axis = 0 : i32} : tensor<64xi32> -> tensor<1x64xi32> loc(#loc46)
    %25 = tt.splat %arg4 : i32 -> tensor<1x64xi32> loc(#loc47)
    %26 = arith.cmpi slt, %24, %25 : tensor<1x64xi32> loc(#loc47)
    %27 = tt.broadcast %23 : tensor<64x1xi1> -> tensor<64x64xi1> loc(#loc48)
    %28 = tt.broadcast %26 : tensor<1x64xi1> -> tensor<64x64xi1> loc(#loc48)
    %29 = arith.andi %27, %28 : tensor<64x64xi1> loc(#loc48)
    tt.store %20, %11, %29 : tensor<64x64x!tt.ptr<f32>> loc(#loc49)
    tt.return loc(#loc50)
  } loc(#loc)
} loc(#loc)
#loc1 = loc(unknown)
#loc2 = loc("/home/adespirl/wave/lit_tests/kernel/wave/gemm_bench.py":49:26)
#loc3 = loc("/home/adespirl/wave/lit_tests/kernel/wave/gemm_bench.py":50:26)
#loc4 = loc("/home/adespirl/wave/lit_tests/kernel/wave/gemm_bench.py":52:21)
#loc5 = loc("/home/adespirl/wave/lit_tests/kernel/wave/gemm_bench.py":52:44)
#loc6 = loc("/home/adespirl/wave/lit_tests/kernel/wave/gemm_bench.py":52:31)
#loc7 = loc("/home/adespirl/wave/lit_tests/kernel/wave/gemm_bench.py":53:21)
#loc8 = loc("/home/adespirl/wave/lit_tests/kernel/wave/gemm_bench.py":53:44)
#loc9 = loc("/home/adespirl/wave/lit_tests/kernel/wave/gemm_bench.py":53:31)
#loc10 = loc("/home/adespirl/wave/lit_tests/kernel/wave/gemm_bench.py":54:26)
#loc11 = loc("/home/adespirl/wave/lit_tests/kernel/wave/gemm_bench.py":58:26)
#loc12 = loc("/home/adespirl/wave/lit_tests/kernel/wave/gemm_bench.py":59:23)
#loc13 = loc("/home/adespirl/wave/lit_tests/kernel/wave/gemm_bench.py":59:33)
#loc14 = loc("/home/adespirl/wave/lit_tests/kernel/wave/gemm_bench.py":63:27)
#loc15 = loc("/home/adespirl/wave/lit_tests/kernel/wave/gemm_bench.py":63:38)
#loc16 = loc("/home/adespirl/wave/lit_tests/kernel/wave/gemm_bench.py":63:20)
#loc17 = loc("/home/adespirl/wave/lit_tests/kernel/wave/gemm_bench.py":64:26)
#loc18 = loc("/home/adespirl/wave/lit_tests/kernel/wave/gemm_bench.py":64:34)
#loc19 = loc("/home/adespirl/wave/lit_tests/kernel/wave/gemm_bench.py":64:20)
#loc20 = loc("/home/adespirl/wave/lit_tests/kernel/wave/gemm_bench.py":66:38)
#loc21 = loc("/home/adespirl/wave/lit_tests/kernel/wave/gemm_bench.py":66:49)
#loc22 = loc("/home/adespirl/wave/lit_tests/kernel/wave/gemm_bench.py":66:61)
#loc23 = loc("/home/adespirl/wave/lit_tests/kernel/wave/gemm_bench.py":66:54)
#loc24 = loc("/home/adespirl/wave/lit_tests/kernel/wave/gemm_bench.py":65:25)
#loc25 = loc("/home/adespirl/wave/lit_tests/kernel/wave/gemm_bench.py":71:27)
#loc26 = loc("/home/adespirl/wave/lit_tests/kernel/wave/gemm_bench.py":71:38)
#loc27 = loc("/home/adespirl/wave/lit_tests/kernel/wave/gemm_bench.py":71:20)
#loc28 = loc("/home/adespirl/wave/lit_tests/kernel/wave/gemm_bench.py":72:26)
#loc29 = loc("/home/adespirl/wave/lit_tests/kernel/wave/gemm_bench.py":72:34)
#loc30 = loc("/home/adespirl/wave/lit_tests/kernel/wave/gemm_bench.py":72:20)
#loc31 = loc("/home/adespirl/wave/lit_tests/kernel/wave/gemm_bench.py":74:41)
#loc32 = loc("/home/adespirl/wave/lit_tests/kernel/wave/gemm_bench.py":74:52)
#loc33 = loc("/home/adespirl/wave/lit_tests/kernel/wave/gemm_bench.py":74:64)
#loc34 = loc("/home/adespirl/wave/lit_tests/kernel/wave/gemm_bench.py":74:57)
#loc35 = loc("/home/adespirl/wave/lit_tests/kernel/wave/gemm_bench.py":73:28)
#loc36 = loc("/home/adespirl/wave/lit_tests/kernel/wave/gemm_bench.py":76:26)
#loc37 = loc("/home/adespirl/wave/lit_tests/kernel/wave/gemm_bench.py":78:30)
#loc38 = loc("/home/adespirl/wave/lit_tests/kernel/wave/gemm_bench.py":78:8)
#loc39 = loc("/home/adespirl/wave/lit_tests/kernel/wave/gemm_bench.py":80:24)
#loc40 = loc("/home/adespirl/wave/lit_tests/kernel/wave/gemm_bench.py":80:35)
#loc41 = loc("/home/adespirl/wave/lit_tests/kernel/wave/gemm_bench.py":80:17)
#loc42 = loc("/home/adespirl/wave/lit_tests/kernel/wave/gemm_bench.py":80:54)
#loc43 = loc("/home/adespirl/wave/lit_tests/kernel/wave/gemm_bench.py":80:47)
#loc44 = loc("/home/adespirl/wave/lit_tests/kernel/wave/gemm_bench.py":81:39)
#loc45 = loc("/home/adespirl/wave/lit_tests/kernel/wave/gemm_bench.py":81:50)
#loc46 = loc("/home/adespirl/wave/lit_tests/kernel/wave/gemm_bench.py":81:63)
#loc47 = loc("/home/adespirl/wave/lit_tests/kernel/wave/gemm_bench.py":81:74)
#loc48 = loc("/home/adespirl/wave/lit_tests/kernel/wave/gemm_bench.py":81:56)
#loc49 = loc("/home/adespirl/wave/lit_tests/kernel/wave/gemm_bench.py":81:21)
#loc50 = loc("/home/adespirl/wave/lit_tests/kernel/wave/gemm_bench.py":81:4)


// -----// IR Dump Before TritonLoopInvariantCodeMotion (triton-licm) ('builtin.module' operation) //----- //
#loc = loc("/home/adespirl/wave/lit_tests/kernel/wave/gemm_bench.py":41:0)
module {
  tt.func public @matmul_abt_kernel(%arg0: !tt.ptr<f32> {tt.divisibility = 16 : i32, tt.pointer_range = 32 : i32} loc("/home/adespirl/wave/lit_tests/kernel/wave/gemm_bench.py":41:0), %arg1: !tt.ptr<bf16> {tt.divisibility = 16 : i32, tt.pointer_range = 32 : i32} loc("/home/adespirl/wave/lit_tests/kernel/wave/gemm_bench.py":41:0), %arg2: !tt.ptr<bf16> {tt.divisibili…
    %1134 = llvm.insertelement %993, %1133[%24 : i32] : vector<8xbf16> loc(#loc24)
    %1135 = llvm.insertelement %994, %1134[%11 : i32] : vector<8xbf16> loc(#loc24)
    %1136 = llvm.insertelement %995, %1135[%10 : i32] : vector<8xbf16> loc(#loc24)
    %1137 = llvm.insertelement %996, %1136[%9 : i32] : vector<8xbf16> loc(#loc24)
    %1138 = llvm.extractelement %1137[%26 : i32] : vector<8xbf16> loc(#loc24)
    %1139 = llvm.insertelement %1138, %7[%26 : i32] : vector<8xbf16> loc(#loc24)
    %1140 = llvm.extractelement %1137[%33 : i32] : vector<8xbf16> loc(#loc24)
    %1141 = llvm.insertelement %1140, %1139[%33 : i32] : vector<8xbf16> loc(#loc24)
    %1142 = llvm.extractelement %1137[%32 : i32] : vector<8xbf16> loc(#loc24)
    %1143 = llvm.insertelement %1142, %1141[%32 : i32] : vector<8xbf16> loc(#loc24)
    %1144 = llvm.extractelement %1137[%16 : i32] : vector<8xbf16> loc(#loc24)
    %1145 = llvm.insertelement %1144, %1143[%16 : i32] : vector<8xbf16> loc(#loc24)
    %1146 = llvm.extractelement %1137[%24 : i32] : vector<8xbf16> loc(#loc24)
    %1147 = llvm.insertelement %1146, %1145[%24 : i32] : vector<8xbf16> loc(#loc24)
    %1148 = llvm.extractelement %1137[%11 : i32] : vector<8xbf16> loc(#loc24)
    %1149 = llvm.insertelement %1148, %1147[%11 : i32] : vector<8xbf16> loc(#loc24)
    %1150 = llvm.extractelement %1137[%10 : i32] : vector<8xbf16> loc(#loc24)
    %1151 = llvm.insertelement %1150, %1149[%10 : i32] : vector<8xbf16> loc(#loc24)
    %1152 = llvm.extractelement %1137[%9 : i32] : vector<8xbf16> loc(#loc24)
    %1153 = llvm.insertelement %1152, %1151[%9 : i32] : vector<8xbf16> loc(#loc24)
    %1154 = llvm.extractvalue %400[0] : !llvm.struct<(f32, f32, f32, f32, f32, f32, f32, f32, f32, f32, f32, f32, f32, f32, f32, f32)>  loc(#loc24)
    %1155 = llvm.extractvalue %400[1] : !llvm.struct<(f32, f32, f32, f32, f32, f32, f32, f32, f32, f32, f32, f32, f32, f32, f32, f32)>  loc(#loc24)
    %1156 = llvm.extractvalue %400[2] : !llvm.struct<(f32, f32, f32, f32, f32, f32, f32, f32, f32, f32, f32, f32, f32, f32, f32, f32)>  loc(#loc24)
    %1157 = llvm.extractvalue %400[3] : !llvm.struct<(f32, f32, f32, f32, f32, f32, f32, f32, f32, f32, f32, f32, f32, f32, f32, f32)>  loc(#loc24)
    %1158 = llvm.extractvalue %400[4] : !llvm.struct<(f32, f32, f32, f32, f32, f32, f32, f32, f32, f32, f32, f32, f32, f32, f32, f32)>  loc(#loc24)
    %1159 = llvm.extractvalue %400[5] : !llvm.struct<(f32, f32, f32, f32, f32, f32, f32, f32, f32, f32, f32, f32, f32, f32, f32, f32)>  loc(#loc24)
    %1160 = llvm.extractvalue %400[6] : !llvm.struct<(f32, f32, f32, f32, f32, f32, f32, f32, f32, f32, f32, f32, f32, f32, f32, f32)>  loc(#loc24)
    %1161 = llvm.extractvalue %400[7] : !llvm.struct<(f32, f32, f32, f32, f32, f32, f32, f32, f32, f32, f32, f32, f32, f32, f32, f32)>  loc(#loc24)
    %1162 = llvm.extractvalue %400[8] : !llvm.struct<(f32, f32, f32, f32, f32, f32, f32, f32, f32, f32, f32, f32, f32, f32, f32, f32)>  loc(#loc24)
    %1163 = llvm.extractvalue %400[9] : !llvm.struct<(f32, f32, f32, f32, f32, f32, f32, f32, f32, f32, f32, f32, f32, f32, f32, f32)>  loc(#loc24)
    %1164 = llvm.extractvalue %400[10] : !llvm.struct<(f32, f32, f32, f32, f32, f32, f32, f32, f32, f32, f32, f32, f32, f32, f32, f32)>  loc(#loc24)
    %1165 = llvm.extractvalue %400[11] : !llvm.struct<(f32, f32, f32, f32, f32, f32, f32, f32, f32, f32, f32, f32, f32, f32, f32, f32)>  loc(#loc24)
    %1166 = llvm.extractvalue %400[12] : !llvm.struct<(f32, f32, f32, f32, f32, f32, f32, f32, f32, f32, f32, f32, f32, f32, f32, f32)>  loc(#loc24)
    %1167 = llvm.extractvalue %400[13] : !llvm.struct<(f32, f32, f32, f32, f32, f32, f32, f32, f32, f32, f32, f32, f32, f32, f32, f32)>  loc(#loc24)
    %1168 = llvm.extractvalue %400[14] : !llvm.struct<(f32, f32, f32, f32, f32, f32, f32, f32, f32, f32, f32, f32, f32, f32, f32, f32)>  loc(#loc24)
    %1169 = llvm.extractvalue %400[15] : !llvm.struct<(f32, f32, f32, f32, f32, f32, f32, f32, f32, f32, f32, f32, f32, f32, f32, f32)>  loc(#loc24)
    %1170 = llvm.insertelement %1154, %6[%26 : i32] : vector<16xf32> loc(#loc24)
    %1171 = llvm.insertelement %1155, %1170[%33 : i32] : vector<16xf32> loc(#loc24)
    %1172 = llvm.insertelement %1156, %1171[%32 : i32] : vector<16xf32> loc(#loc24)
    %1173 = llvm.insertelement %1157, %1172[%16 : i32] : vector<16xf32> loc(#loc24)
    %1174 = llvm.insertelement %1158, %1173[%24 : i32] : vector<16xf32> loc(#loc24)
    %1175 = llvm.insertelement %1159, %1174[%11 : i32] : vector<16xf32> loc(#loc24)
    %1176 = llvm.insertelement %1160, %1175[%10 : i32] : vector<16xf32> loc(#loc24)
    %1177 = llvm.insertelement %1161, %1176[%9 : i32] : vector<16xf32> loc(#loc24)
    %1178 = llvm.insertelement %1162, %1177[%23 : i32] : vector<16xf32> loc(#loc24)
    %1179 = llvm.insertelement %1163, %1178[%15 : i32] : vector<16xf32> loc(#loc24)
    %1180 = llvm.insertelement %1164, %1179[%14 : i32] : vector<16xf32> loc(#loc24)
    %1181 = llvm.insertelement %1165, %1180[%13 : i32] : vector<16xf32> loc(#loc24)
    %1182 = llvm.insertelement %1166, %1181[%5 : i32] : vector<16xf32> loc(#loc24)
    %1183 = llvm.insertelement %1167, %1182[%4 : i32] : vector<16xf32> loc(#loc24)
    %1184 = llvm.insertelement %1168, %1183[%3 : i32] : vector<16xf32> loc(#loc24)
    %1185 = llvm.insertelement %1169, %1184[%2 : i32] : vector<16xf32> loc(#loc24)
    %1186 = rocdl.mfma.f32.32x32x16.bf16 %1129, %1081, %1185, %26, %26, %26 : (vector<8xbf16>, vector<8xbf16>, vector<16xf32>, i32, i32, i32) -> vector<16xf32> loc(#loc24)
    %1187 = rocdl.mfma.f32.32x32x16.bf16 %1153, %1105, %1186, %26, %26, %26 : (vector<8xbf16>, vector<8xbf16>, vector<16xf32>, i32, i32, i32) -> vector<16xf32> loc(#loc24)
    %1188 = llvm.extractelement %1187[%26 : i32] : vector<16xf32> loc(#loc24)
    %1189 = llvm.extractelement %1187[%33 : i32] : vector<16xf32> loc(#loc24)
    %1190 = llvm.extractelement %1187[%32 : i32] : vector<16xf32> loc(#loc24)
    %1191 = llvm.extractelement %1187[%16 : i32] : vector<16xf32> loc(#loc24)
    %1192 = llvm.extractelement %1187[%24 : i32] : vector<16xf32> loc(#loc24)
    %1193 = llvm.extractelement %1187[%11 : i32] : vector<16xf32> loc(#loc24)
    %1194 = llvm.extractelement %1187[%10 : i32] : vector<16xf32> loc(#loc24)
    %1195 = llvm.extractelement %1187[%9 : i32] : vector<16xf32> loc(#loc24)
    %1196 = llvm.extractelement %1187[%23 : i32] : vector<16xf32> loc(#loc24)
    %1197 = llvm.extractelement %1187[%15 : i32] : vector<16xf32> loc(#loc24)
    %1198 = llvm.extractelement %1187[%14 : i32] : vector<16xf32> loc(#loc24)
    %1199 = llvm.extractelement %1187[%13 : i32] : vector<16xf32> loc(#loc24)
    %1200 = llvm.extractelement %1187[%5 : i32] : vector<16xf32> loc(#loc24)
    %1201 = llvm.extractelement %1187[%4 : i32] : vector<16xf32> loc(#loc24)
    %1202 = llvm.extractelement %1187[%3 : i32] : vector<16xf32> loc(#loc24)
    %1203 = llvm.extractelement %1187[%2 : i32] : vector<16xf32> loc(#loc24)
    %1204 = llvm.insertvalue %1188, %34[0] : !llvm.struct<(f32, f32, f32, f32, f32, f32, f32, f32, f32, f32, f32, f32, f32, f32, f32, f32)>  loc(#loc24)
    %1205 = llvm.insertvalue %1189, %1204[1] : !llvm.struct<(f32, f32, f32, f32, f32, f32, f32, f32, f32, f32, f32, f32, f32, f32, f32, f32)>  loc(#loc24)
    %1206 = llvm.insertvalue %1190, %1205[2] : !llvm.struct<(f32, f32, f32, f32, f32, f32, f32, f32, f32, f32, f32, f32, f32, f32, f32, f32)>  loc(#loc24)
    %1207 = llvm.insertvalue %1191, %1206[3] : !llvm.struct<(f32, f32, f32, f32, f32, f32, f32, f32, f32, f32, f32, f32, f32, f32, f32, f32)>  loc(#loc24)
    %1208 = llvm.insertvalue %1192, %1207[4] : !llvm.struct<(f32, f32, f32, f32, f32, f32, f32, f32, f32, f32, f32, f32, f32, f32, f32, f32)>  loc(#loc24)
    %1209 = llvm.insertvalue %1193, %1208[5] : !llvm.struct<(f32, f32, f32, f32, f32, f32, f32, f32, f32, f32, f32, f32, f32, f32, f32, f32)>  loc(#loc24)
    %1210 = llvm.insertvalue %1194, %1209[6] : !llvm.struct<(f32, f32, f32, f32, f32, f32, f32, f32, f32, f32, f32, f32, f32, f32, f32, f32)>  loc(#loc24)
    %1211 = llvm.insertvalue %1195, %1210[7] : !llvm.struct<(f32, f32, f32, f32, f32, f32, f32, f32, f32, f32, f32, f32, f32, f32, f32, f32)>  loc(#loc24)
    %1212 = llvm.insertvalue %1196, %1211[8] : !llvm.struct<(f32, f32, f32, f32, f32, f32, f32, f32, f32, f32, f32, f32, f32, f32, f32, f32)>  loc(#loc24)
    %1213 = llvm.insertvalue %1197, %1212[9] : !llvm.struct<(f32, f32, f32, f32, f32, f32, f32, f32, f32, f32, f32, f32, f32, f32, f32, f32)>  loc(#loc24)
    %1214 = llvm.insertvalue %1198, %1213[10] : !llvm.struct<(f32, f32, f32, f32, f32, f32, f32, f32, f32, f32, f32, f32, f32, f32, f32, f32)>  loc(#loc24)
    %1215 = llvm.insertvalue %1199, %1214[11] : !llvm.struct<(f32, f32, f32, f32, f32, f32, f32, f32, f32, f32, f32, f32, f32, f32, f32, f32)>  loc(#loc24)
    %1216 = llvm.insertvalue %1200, %1215[12] : !llvm.struct<(f32, f32, f32, f32, f32, f32, f32, f32, f32, f32, f32, f32, f32, f32, f32, f32)>  loc(#loc24)
    %1217 = llvm.insertvalue %1201, %1216[13] : !llvm.struct<(f32, f32, f32, f32, f32, f32, f32, f32, f32, f32, f32, f32, f32, f32, f32, f32)>  loc(#loc24)
    %1218 = llvm.insertvalue %1202, %1217[14] : !llvm.struct<(f32, f32, f32, f32, f32, f32, f32, f32, f32, f32, f32, f32, f32, f32, f32, f32)>  loc(#loc24)
    %1219 = llvm.insertvalue %1203, %1218[15] : !llvm.struct<(f32, f32, f32, f32, f32, f32, f32, f32, f32, f32, f32, f32, f32, f32, f32, f32)>  loc(#loc24)
    llvm.br ^bb6(%1219 : !llvm.struct<(f32, f32, f32, f32, f32, f32, f32, f32, f32, f32, f32, f32, f32, f32, f32, f32)>) loc(#loc24)
  ^bb5:  // pred: ^bb3
    llvm.br ^bb6(%400 : !llvm.struct<(f32, f32, f32, f32, f32, f32, f32, f32, f32, f32, f32, f32, f32, f32, f32, f32)>) loc(#loc24)
  ^bb6(%1220: !llvm.struct<(f32, f32, f32, f32, f32, f32, f32, f32, f32, f32, f32, f32, f32, f32, f32, f32)> loc("/home/adespirl/wave/lit_tests/kernel/wave/gemm_bench.py":78:30)):  // 2 preds: ^bb4, ^bb5
    llvm.br ^bb7 loc(#loc24)
  ^bb7:  // pred: ^bb6
    %1221 = llvm.extractvalue %1220[0] : !llvm.struct<(f32, f32, f32, f32, f32, f32, f32, f32, f32, f32, f32, f32, f32, f32, f32, f32)>  loc(#loc9)
    %1222 = llvm.extractvalue %1220[1] : !llvm.struct<(f32, f32, f32, f32, f32, f32, f32, f32, f32, f32, f32, f32, f32, f32, f32, f32)>  loc(#loc9)
    %1223 = llvm.extractvalue %1220[2] : !llvm.struct<(f32, f32, f32, f32, f32, f32, f32, f32, f32, f32, f32, f32, f32, f32, f32, f32)>  loc(#loc9)
    %1224 = llvm.extractvalue %1220[3] : !llvm.struct<(f32, f32, f32, f32, f32, f32, f32, f32, f32, f32, f32, f32, f32, f32, f32, f32)>  loc(#loc9)
    %1225 = llvm.extractvalue %1220[4] : !llvm.struct<(f32, f32, f32, f32, f32, f32, f32, f32, f32, f32, f32, f32, f32, f32, f32, f32)>  loc(#loc9)
    %1226 = llvm.extractvalue %1220[5] : !llvm.struct<(f32, f32, f32, f32, f32, f32, f32, f32, f32, f32, f32, f32, f32, f32, f32, f32)>  loc(#loc9)
    %1227 = llvm.extractvalue %1220[6] : !llvm.struct<(f32, f32, f32, f32, f32, f32, f32, f32, f32, f32, f32, f32, f32, f32, f32, f32)>  loc(#loc9)
    %1228 = llvm.extractvalue %1220[7] : !llvm.struct<(f32, f32, f32, f32, f32, f32, f32, f32, f32, f32, f32, f32, f32, f32, f32, f32)>  loc(#loc9)
    %1229 = llvm.extractvalue %1220[8] : !llvm.struct<(f32, f32, f32, f32, f32, f32, f32, f32, f32, f32, f32, f32, f32, f32, f32, f32)>  loc(#loc9)
    %1230 = llvm.extractvalue %1220[9] : !llvm.struct<(f32, f32, f32, f32, f32, f32, f32, f32, f32, f32, f32, f32, f32, f32, f32, f32)>  loc(#loc9)
    %1231 = llvm.extractvalue %1220[10] : !llvm.struct<(f32, f32, f32, f32, f32, f32, f32, f32, f32, f32, f32, f32, f32, f32, f32, f32)>  loc(#loc9)
    %1232 = llvm.extractvalue %1220[11] : !llvm.struct<(f32, f32, f32, f32, f32, f32, f32, f32, f32, f32, f32, f32, f32, f32, f32, f32)>  loc(#loc9)
    %1233 = llvm.extractvalue %1220[12] : !llvm.struct<(f32, f32, f32, f32, f32, f32, f32, f32, f32, f32, f32, f32, f32, f32, f32, f32)>  loc(#loc9)
    %1234 = llvm.extractvalue %1220[13] : !llvm.struct<(f32, f32, f32, f32, f32, f32, f32, f32, f32, f32, f32, f32, f32, f32, f32, f32)>  loc(#loc9)
    %1235 = llvm.extractvalue %1220[14] : !llvm.struct<(f32, f32, f32, f32, f32, f32, f32, f32, f32, f32, f32, f32, f32, f32, f32, f32)>  loc(#loc9)
    %1236 = llvm.extractvalue %1220[15] : !llvm.struct<(f32, f32, f32, f32, f32, f32, f32, f32, f32, f32, f32, f32, f32, f32, f32, f32)>  loc(#loc9)
    %1237 = llvm.extractvalue %400[0] : !llvm.struct<(f32, f32, f32, f32, f32, f32, f32, f32, f32, f32, f32, f32, f32, f32, f32, f32)>  loc(#loc9)
    %1238 = llvm.extractvalue %400[1] : !llvm.struct<(f32, f32, f32, f32, f32, f32, f32, f32, f32, f32, f32, f32, f32, f32, f32, f32)>  loc(#loc9)
    %1239 = llvm.extractvalue %400[2] : !llvm.struct<(f32, f32, f32, f32, f32, f32, f32, f32, f32, f32, f32, f32, f32, f32, f32, f32)>  loc(#loc9)
    %1240 = llvm.extractvalue %400[3] : !llvm.struct<(f32, f32, f32, f32, f32, f32, f32, f32, f32, f32, f32, f32, f32, f32, f32, f32)>  loc(#loc9)
    %1241 = llvm.extractvalue %400[4] : !llvm.struct<(f32, f32, f32, f32, f32, f32, f32, f32, f32, f32, f32, f32, f32, f32, f32, f32)>  loc(#loc9)
    %1242 = llvm.extractvalue %400[5] : !llvm.struct<(f32, f32, f32, f32, f32, f32, f32, f32, f32, f32, f32, f32, f32, f32, f32, f32)>  loc(#loc9)
    %1243 = llvm.extractvalue %400[6] : !llvm.struct<(f32, f32, f32, f32, f32, f32, f32, f32, f32, f32, f32, f32, f32, f32, f32, f32)>  loc(#loc9)
    %1244 = llvm.extractvalue %400[7] : !llvm.struct<(f32, f32, f32, f32, f32, f32, f32, f32, f32, f32, f32, f32, f32, f32, f32, f32)>  loc(#loc9)
    %1245 = llvm.extractvalue %400[8] : !llvm.struct<(f32, f32, f32, f32, f32, f32, f32, f32, f32, f32, f32, f32, f32, f32, f32, f32)>  loc(#loc9)
    %1246 = llvm.extractvalue %400[9] : !llvm.struct<(f32, f32, f32, f32, f32, f32, f32, f32, f32, f32, f32, f32, f32, f32, f32, f32)>  loc(#loc9)
    %1247 = llvm.extractvalue %400[10] : !llvm.struct<(f32, f32, f32, f32, f32, f32, f32, f32, f32, f32, f32, f32, f32, f32, f32, f32)>  loc(#loc9)
    %1248 = llvm.extractvalue %400[11] : !llvm.struct<(f32, f32, f32, f32, f32, f32, f32, f32, f32, f32, f32, f32, f32, f32, f32, f32)>  loc(#loc9)
    %1249 = llvm.extractvalue %400[12] : !llvm.struct<(f32, f32, f32, f32, f32, f32, f32, f32, f32, f32, f32, f32, f32, f32, f32, f32)>  loc(#loc9)
    %1250 = llvm.extractvalue %400[13] : !llvm.struct<(f32, f32, f32, f32, f32, f32, f32, f32, f32, f32, f32, f32, f32, f32, f32, f32)>  loc(#loc9)
    %1251 = llvm.extractvalue %400[14] : !llvm.struct<(f32, f32, f32, f32, f32, f32, f32, f32, f32, f32, f32, f32, f32, f32, f32, f32)>  loc(#loc9)
    %1252 = llvm.extractvalue %400[15] : !llvm.struct<(f32, f32, f32, f32, f32, f32, f32, f32, f32, f32, f32, f32, f32, f32, f32, f32)>  loc(#loc9)
    %1253 = llvm.select %856, %1221, %1237 : i1, f32 loc(#loc9)
    %1254 = llvm.select %856, %1222, %1238 : i1, f32 loc(#loc9)
    %1255 = llvm.select %856, %1223, %1239 : i1, f32 loc(#loc9)
    %1256 = llvm.select %856, %1224, %1240 : i1, f32 loc(#loc9)
    %1257 = llvm.select %856, %1225, %1241 : i1, f32 loc(#loc9)
    %1258 = llvm.select %856, %1226, %1242 : i1, f32 loc(#loc9)
    %1259 = llvm.select %856, %1227, %1243 : i1, f32 loc(#loc9)
    %1260 = llvm.select %856, %1228, %1244 : i1, f32 loc(#loc9)
    %1261 = llvm.select %856, %1229, %1245 : i1, f32 loc(#loc9)
    %1262 = llvm.select %856, %1230, %1246 : i1, f32 loc(#loc9)
    %1263 = llvm.select %856, %1231, %1247 : i1, f32 loc(#loc9)
    %1264 = llvm.select %856, %1232, %1248 : i1, f32 loc(#loc9)
    %1265 = llvm.select %856, %1233, %1249 : i1, f32 loc(#loc9)
    %1266 = llvm.select %856, %1234, %1250 : i1, f32 loc(#loc9)
    %1267 = llvm.select %856, %1235, %1251 : i1, f32 loc(#loc9)
    %1268 = llvm.select %856, %1236, %1252 : i1, f32 loc(#loc9)
    %1269 = llvm.insertvalue %1253, %34[0] : !llvm.struct<(f32, f32, f32, f32, f32, f32, f32, f32, f32, f32, f32, f32, f32, f32, f32, f32)>  loc(#loc9)
    %1270 = llvm.insertvalue %1254, %1269[1] : !llvm.struct<(f32, f32, f32, f32, f32, f32, f32, f32, f32, f32, f32, f32, f32, f32, f32, f32)>  loc(#loc9)
    %1271 = llvm.insertvalue %1255, %1270[2] : !llvm.struct<(f32, f32, f32, f32, f32, f32, f32, f32, f32, f32, f32, f32, f32, f32, f32, f32)>  loc(#loc9)
    %1272 = llvm.insertvalue %1256, %1271[3] : !llvm.struct<(f32, f32, f32, f32, f32, f32, f32, f32, f32, f32, f32, f32, f32, f32, f32, f32)>  loc(#loc9)
    %1273 = llvm.insertvalue %1257, %1272[4] : !llvm.struct<(f32, f32, f32, f32, f32, f32, f32, f32, f32, f32, f32, f32, f32, f32, f32, f32)>  loc(#loc9)
    %1274 = llvm.insertvalue %1258, %1273[5] : !llvm.struct<(f32, f32, f32, f32, f32, f32, f32, f32, f32, f32, f32, f32, f32, f32, f32, f32)>  loc(#loc9)
    %1275 = llvm.insertvalue %1259, %1274[6] : !llvm.struct<(f32, f32, f32, f32, f32, f32, f32, f32, f32, f32, f32, f32, f32, f32, f32, f32)>  loc(#loc9)
    %1276 = llvm.insertvalue %1260, %1275[7] : !llvm.struct<(f32, f32, f32, f32, f32, f32, f32, f32, f32, f32, f32, f32, f32, f32, f32, f32)>  loc(#loc9)
    %1277 = llvm.insertvalue %1261, %1276[8] : !llvm.struct<(f32, f32, f32, f32, f32, f32, f32, f32, f32, f32, f32, f32, f32, f32, f32, f32)>  loc(#loc9)
    %1278 = llvm.insertvalue %1262, %1277[9] : !llvm.struct<(f32, f32, f32, f32, f32, f32, f32, f32, f32, f32, f32, f32, f32, f32, f32, f32)>  loc(#loc9)
    %1279 = llvm.insertvalue %1263, %1278[10] : !llvm.struct<(f32, f32, f32, f32, f32, f32, f32, f32, f32, f32, f32, f32, f32, f32, f32, f32)>  loc(#loc9)
    %1280 = llvm.insertvalue %1264, %1279[11] : !llvm.struct<(f32, f32, f32, f32, f32, f32, f32, f32, f32, f32, f32, f32, f32, f32, f32, f32)>  loc(#loc9)
    %1281 = llvm.insertvalue %1265, %1280[12] : !llvm.struct<(f32, f32, f32, f32, f32, f32, f32, f32, f32, f32, f32, f32, f32, f32, f32, f32)>  loc(#loc9)
    %1282 = llvm.insertvalue %1266, %1281[13] : !llvm.struct<(f32, f32, f32, f32, f32, f32, f32, f32, f32, f32, f32, f32, f32, f32, f32, f32)>  loc(#loc9)
    %1283 = llvm.insertvalue %1267, %1282[14] : !llvm.struct<(f32, f32, f32, f32, f32, f32, f32, f32, f32, f32, f32, f32, f32, f32, f32, f32)>  loc(#loc9)
    %1284 = llvm.insertvalue %1268, %1283[15] : !llvm.struct<(f32, f32, f32, f32, f32, f32, f32, f32, f32, f32, f32, f32, f32, f32, f32, f32)>  loc(#loc9)
    rocdl.barrier loc(#loc23)
    %1285 = llvm.extractvalue %402[0] : !llvm.struct<(bf16, bf16, bf16, bf16, bf16, bf16, bf16, bf16)>  loc(#loc23)
    %1286 = llvm.extractvalue %402[1] : !llvm.struct<(bf16, bf16, bf16, bf16, bf16, bf16, bf16, bf16)>  loc(#loc23)
    %1287 = llvm.extractvalue %402[2] : !llvm.struct<(bf16, bf16, bf16, bf16, bf16, bf16, bf16, bf16)>  loc(#loc23)
    %1288 = llvm.extractvalue %402[3] : !llvm.struct<(bf16, bf16, bf16, bf16, bf16, bf16, bf16, bf16)>  loc(#loc23)
    %1289 = llvm.extractvalue %402[4] : !llvm.struct<(bf16, bf16, bf16, bf16, bf16, bf16, bf16, bf16)>  loc(#loc23)
    %1290 = llvm.extractvalue %402[5] : !llvm.struct<(bf16, bf16, bf16, bf16, bf16, bf16, bf16, bf16)>  loc(#loc23)
    %1291 = llvm.extractvalue %402[6] : !llvm.struct<(bf16, bf16, bf16, bf16, bf16, bf16, bf16, bf16)>  loc(#loc23)
    %1292 = llvm.extractvalue %402[7] : !llvm.struct<(bf16, bf16, bf16, bf16, bf16, bf16, bf16, bf16)>  loc(#loc23)
    %1293 = llvm.insertelement %1285, %17[%26 : i32] : vector<1xbf16> loc(#loc23)
    llvm.store %1293, %872 {alignment = 2 : i64} : vector<1xbf16>, !llvm.ptr<3> loc(#loc23)
    %1294 = llvm.insertelement %1286, %17[%26 : i32] : vector<1xbf16> loc(#loc23)
    llvm.store %1294, %887 {alignment = 2 : i64} : vector<1xbf16>, !llvm.ptr<3> loc(#loc23)
    %1295 = llvm.insertelement %1287, %17[%26 : i32] : vector<1xbf16> loc(#loc23)
    llvm.store %1295, %894 {alignment = 2 : i64} : vector<1xbf16>, !llvm.ptr<3> loc(#loc23)
    %1296 = llvm.insertelement %1288, %17[%26 : i32] : vector<1xbf16> loc(#loc23)
    llvm.store %1296, %901 {alignment = 2 : i64} : vector<1xbf16>, !llvm.ptr<3> loc(#loc23)
    %1297 = llvm.insertelement %1289, %17[%26 : i32] : vector<1xbf16> loc(#loc23)
    llvm.store %1297, %908 {alignment = 2 : i64} : vector<1xbf16>, !llvm.ptr<3> loc(#loc23)
    %1298 = llvm.insertelement %1290, %17[%26 : i32] : vector<1xbf16> loc(#loc23)
    llvm.store %1298, %915 {alignment = 2 : i64} : vector<1xbf16>, !llvm.ptr<3> loc(#loc23)
    %1299 = llvm.insertelement %1291, %17[%26 : i32] : vector<1xbf16> loc(#loc23)
    llvm.store %1299, %922 {alignment = 2 : i64} : vector<1xbf16>, !llvm.ptr<3> loc(#loc23)
    %1300 = llvm.insertelement %1292, %17[%26 : i32] : vector<1xbf16> loc(#loc23)
    llvm.store %1300, %929 {alignment = 2 : i64} : vector<1xbf16>, !llvm.ptr<3> loc(#loc23)
    rocdl.barrier loc(#loc23)
    %1301 = llvm.load %976 : !llvm.ptr<3> -> vector<8xbf16> loc(#loc23)
    %1302 = llvm.extractelement %1301[%26 : i32] : vector<8xbf16> loc(#loc23)
    %1303 = llvm.extractelement %1301[%33 : i32] : vector<8xbf16> loc(#loc23)
    %1304 = llvm.extractelement %1301[%32 : i32] : vector<8xbf16> loc(#loc23)
    %1305 = llvm.extractelement %1301[%16 : i32] : vector<8xbf16> loc(#loc23)
    %1306 = llvm.extractelement %1301[%24 : i32] : vector<8xbf16> loc(#loc23)
    %1307 = llvm.extractelement %1301[%11 : i32] : vector<8xbf16> loc(#loc23)
    %1308 = llvm.extractelement %1301[%10 : i32] : vector<8xbf16> loc(#loc23)
    %1309 = llvm.extractelement %1301[%9 : i32] : vector<8xbf16> loc(#loc23)
    %1310 = llvm.load %987 : !llvm.ptr<3> -> vector<8xbf16> loc(#loc23)
    %1311 = llvm.extractelement %1310[%26 : i32] : vector<8xbf16> loc(#loc23)
    %1312 = llvm.extractelement %1310[%33 : i32] : vector<8xbf16> loc(#loc23)
    %1313 = llvm.extractelement %1310[%32 : i32] : vector<8xbf16> loc(#loc23)
    %1314 = llvm.extractelement %1310[%16 : i32] : vector<8xbf16> loc(#loc23)
    %1315 = llvm.extractelement %1310[%24 : i32] : vector<8xbf16> loc(#loc23)
    %1316 = llvm.extractelement %1310[%11 : i32] : vector<8xbf16> loc(#loc23)
    %1317 = llvm.extractelement %1310[%10 : i32] : vector<8xbf16> loc(#loc23)
    %1318 = llvm.extractelement %1310[%9 : i32] : vector<8xbf16> loc(#loc23)
    rocdl.barrier loc(#loc13)
    %1319 = llvm.extractvalue %404[0] : !llvm.struct<(bf16, bf16, bf16, bf16, bf16, bf16, bf16, bf16)>  loc(#loc13)
    %1320 = llvm.extractvalue %404[1] : !llvm.struct<(bf16, bf16, bf16, bf16, bf16, bf16, bf16, bf16)>  loc(#loc13)
    %1321 = llvm.extractvalue %404[2] : !llvm.struct<(bf16, bf16, bf16, bf16, bf16, bf16, bf16, bf16)>  loc(#loc13)
    %1322 = llvm.extractvalue %404[3] : !llvm.struct<(bf16, bf16, bf16, bf16, bf16, bf16, bf16, bf16)>  loc(#loc13)
    %1323 = llvm.extractvalue %404[4] : !llvm.struct<(bf16, bf16, bf16, bf16, bf16, bf16, bf16, bf16)>  loc(#loc13)
    %1324 = llvm.extractvalue %404[5] : !llvm.struct<(bf16, bf16, bf16, bf16, bf16, bf16, bf16, bf16)>  loc(#loc13)
    %1325 = llvm.extractvalue %404[6] : !llvm.struct<(bf16, bf16, bf16, bf16, bf16, bf16, bf16, bf16)>  loc(#loc13)
    %1326 = llvm.extractvalue %404[7] : !llvm.struct<(bf16, bf16, bf16, bf16, bf16, bf16, bf16, bf16)>  loc(#loc13)
    %1327 = llvm.insertelement %1319, %17[%26 : i32] : vector<1xbf16> loc(#loc13)
    llvm.store %1327, %872 {alignment = 2 : i64} : vector<1xbf16>, !llvm.ptr<3> loc(#loc13)
    %1328 = llvm.insertelement %1320, %17[%26 : i32] : vector<1xbf16> loc(#loc13)
    llvm.store %1328, %887 {alignment = 2 : i64} : vector<1xbf16>, !llvm.ptr<3> loc(#loc13)
    %1329 = llvm.insertelement %1321, %17[%26 : i32] : vector<1xbf16> loc(#loc13)
    llvm.store %1329, %894 {alignment = 2 : i64} : vector<1xbf16>, !llvm.ptr<3> loc(#loc13)
    %1330 = llvm.insertelement %1322, %17[%26 : i32] : vector<1xbf16> loc(#loc13)
    llvm.store %1330, %901 {alignment = 2 : i64} : vector<1xbf16>, !llvm.ptr<3> loc(#loc13)
    %1331 = llvm.insertelement %1323, %17[%26 : i32] : vector<1xbf16> loc(#loc13)
    llvm.store %1331, %908 {alignment = 2 : i64} : vector<1xbf16>, !llvm.ptr<3> loc(#loc13)
    %1332 = llvm.insertelement %1324, %17[%26 : i32] : vector<1xbf16> loc(#loc13)
    llvm.store %1332, %915 {alignment = 2 : i64} : vector<1xbf16>, !llvm.ptr<3> loc(#loc13)
    %1333 = llvm.insertelement %1325, %17[%26 : i32] : vector<1xbf16> loc(#loc13)
    llvm.store %1333, %922 {alignment = 2 : i64} : vector<1xbf16>, !llvm.ptr<3> loc(#loc13)
    %1334 = llvm.insertelement %1326, %17[%26 : i32] : vector<1xbf16> loc(#loc13)
    llvm.store %1334, %929 {alignment = 2 : i64} : vector<1xbf16>, !llvm.ptr<3> loc(#loc13)
    rocdl.barrier loc(#loc13)
    %1335 = llvm.load %1037 : !llvm.ptr<3> -> vector<8xbf16> loc(#loc13)
    %1336 = llvm.extractelement %1335[%26 : i32] : vector<8xbf16> loc(#loc13)
    %1337 = llvm.extractelement %1335[%33 : i32] : vector<8xbf16> loc(#loc13)
    %1338 = llvm.extractelement %1335[%32 : i32] : vector<8xbf16> loc(#loc13)
    %1339 = llvm.extractelement %1335[%16 : i32] : vector<8xbf16> loc(#loc13)
    %1340 = llvm.extractelement %1335[%24 : i32] : vector<8xbf16> loc(#loc13)
    %1341 = llvm.extractelement %1335[%11 : i32] : vector<8xbf16> loc(#loc13)
    %1342 = llvm.extractelement %1335[%10 : i32] : vector<8xbf16> loc(#loc13)
    %1343 = llvm.extractelement %1335[%9 : i32] : vector<8xbf16> loc(#loc13)
    %1344 = llvm.load %1048 : !llvm.ptr<3> -> vector<8xbf16> loc(#loc13)
    %1345 = llvm.extractelement %1344[%26 : i32] : vector<8xbf16> loc(#loc13)
    %1346 = llvm.extractelement %1344[%33 : i32] : vector<8xbf16> loc(#loc13)
    %1347 = llvm.extractelement %1344[%32 : i32] : vector<8xbf16> loc(#loc13)
    %1348 = llvm.extractelement %1344[%16 : i32] : vector<8xbf16> loc(#loc13)
    %1349 = llvm.extractelement %1344[%24 : i32] : vector<8xbf16> loc(#loc13)
    %1350 = llvm.extractelement %1344[%11 : i32] : vector<8xbf16> loc(#loc13)
    %1351 = llvm.extractelement %1344[%10 : i32] : vector<8xbf16> loc(#loc13)
    %1352 = llvm.extractelement %1344[%9 : i32] : vector<8xbf16> loc(#loc13)
    llvm.cond_br %857, ^bb8, ^bb9 loc(#loc24)
  ^bb8:  // pred: ^bb7
    %1353 = llvm.insertelement %1336, %7[%26 : i32] : vector<8xbf16> loc(#loc24)
    %1354 = llvm.insertelement %1337, %1353[%33 : i32] : vector<8xbf16> loc(#loc24)
    %1355 = llvm.insertelement %1338, %1354[%32 : i32] : vector<8xbf16> loc(#loc24)
    %1356 = llvm.insertelement %1339, %1355[%16 : i32] : vector<8xbf16> loc(#loc24)
    %1357 = llvm.insertelement %1340, %1356[%24 : i32] : vector<8xbf16> loc(#loc24)
    %1358 = llvm.insertelement %1341, %1357[%11 : i32] : vector<8xbf16> loc(#loc24)
    %1359 = llvm.insertelement %1342, %1358[%10 : i32] : vector<8xbf16> loc(#loc24)
    %1360 = llvm.insertelement %1343, %1359[%9 : i32] : vector<8xbf16> loc(#loc24)
    %1361 = llvm.extractelement %1360[%26 : i32] : vector<8xbf16> loc(#loc24)
    %1362 = llvm.insertelement %1361, %7[%26 : i32] : vector<8xbf16> loc(#loc24)
    %1363 = llvm.extractelement %1360[%33 : i32] : vector<8xbf16> loc(#loc24)
    %1364 = llvm.insertelement %1363, %1362[%33 : i32] : vector<8xbf16> loc(#loc24)
    %1365 = llvm.extractelement %1360[%32 : i32] : vector<8xbf16> loc(#loc24)
    %1366 = llvm.insertelement %1365, %1364[%32 : i32] : vector<8xbf16> loc(#loc24)
    %1367 = llvm.extractelement %1360[%16 : i32] : vector<8xbf16> loc(#loc24)
    %1368 = llvm.insertelement %1367, %1366[%16 : i32] : vector<8xbf16> loc(#loc24)
    %1369 = llvm.extractelement %1360[%24 : i32] : vector<8xbf16> loc(#loc24)
    %1370 = llvm.insertelement %1369, %1368[%24 : i32] : vector<8xbf16> loc(#loc24)
    %1371 = llvm.extractelement %1360[%11 : i32] : vector<8xbf16> loc(#loc24)
    %1372 = llvm.insertelement %1371, %1370[%11 : i32] : vector<8xbf16> loc(#loc24)
    %1373 = llvm.extractelement %1360[%10 : i32] : vector<8xbf16> loc(#loc24)
    %1374 = llvm.insertelement %1373, %1372[%10 : i32] : vector<8xbf16> loc(#loc24)
    %1375 = llvm.extractelement %1360[%9 : i32] : vector<8xbf16> loc(#loc24)
    %1376 = llvm.insertelement %1375, %1374[%9 : i32] : vector<8xbf16> loc(#loc24)
    %1377 = llvm.insertelement %1345, %7[%26 : i32] : vector<8xbf16> loc(#loc24)
    %1378 = llvm.insertelement %1346, %1377[%33 : i32] : vector<8xbf16> loc(#loc24)
    %1379 = llvm.insertelement %1347, %1378[%32 : i32] : vector<8xbf16> loc(#loc24)
    %1380 = llvm.insertelement %1348, %1379[%16 : i32] : vector<8xbf16> loc(#loc24)
    %1381 = llvm.insertelement %1349, %1380[%24 : i32] : vector<8xbf16> loc(#loc24)
    %1382 = llvm.insertelement %1350, %1381[%11 : i32] : vector<8xbf16> loc(#loc24)
    %1383 = llvm.insertelement %1351, %1382[%10 : i32] : vector<8xbf16> loc(#loc24)
    %1384 = llvm.insertelement %1352, %1383[%9 : i32] : vector<8xbf16> loc(#loc24)
    %1385 = llvm.extractelement %1384[%26 : i32] : vector<8xbf16> loc(#loc24)
    %1386 = llvm.insertelement %1385, %7[%26 : i32] : vector<8xbf16> loc(#loc24)
    %1387 = llvm.extractelement %1384[%33 : i32] : vector<8xbf16> loc(#loc24)
    %1388 = llvm.insertelement %1387, %1386[%33 : i32] : vector<8xbf16> loc(#loc24)
    %1389 = llvm.extractelement %1384[%32 : i32] : vector<8xbf16> loc(#loc24)
    %1390 = llvm.insertelement %1389, %1388[%32 : i32] : vector<8xbf16> loc(#loc24)
    %1391 = llvm.extractelement %1384[%16 : i32] : vector<8xbf16> loc(#loc24)
    %1392 = llvm.insertelement %1391, %1390[%16 : i32] : vector<8xbf16> loc(#loc24)
    %1393 = llvm.extractelement %1384[%24 : i32] : vector<8xbf16> loc(#loc24)
    %1394 = llvm.insertelement %1393, %1392[%24 : i32] : vector<8xbf16> loc(#loc24)
    %1395 = llvm.extractelement %1384[%11 : i32] : vector<8xbf16> loc(#loc24)
    %1396 = llvm.insertelement %1395, %1394[%11 : i32] : vector<8xbf16> loc(#loc24)
    %1397 = llvm.extractelement %1384[%10 : i32] : vector<8xbf16> loc(#loc24)
    %1398 = llvm.insertelement %1397, %1396[%10 : i32] : vector<8xbf16> loc(#loc24)
    %1399 = llvm.extractelement %1384[%9 : i32] : vector<8xbf16> loc(#loc24)
    %1400 = llvm.insertelement %1399, %1398[%9 : i32] : vector<8xbf16> loc(#loc24)
    %1401 = llvm.insertelement %1302, %7[%26 : i32] : vector<8xbf16> loc(#loc24)
    %1402 = llvm.insertelement %1303, %1401[%33 : i32] : vector<8xbf16> loc(#loc24)
    %1403 = llvm.insertelement %1304, %1402[%32 : i32] : vector<8xbf16> loc(#loc24)
    %1404 = llvm.insertelement %1305, %1403[%16 : i32] : vector<8xbf16> loc(#loc24)
    %1405 = llvm.insertelement %1306, %1404[%24 : i32] : vector<8xbf16> loc(#loc24)
    %1406 = llvm.insertelement %1307, %1405[%11 : i32] : vector<8xbf16> loc(#loc24)
    %1407 = llvm.insertelement %1308, %1406[%10 : i32] : vector<8xbf16> loc(#loc24)
    %1408 = llvm.insertelement %1309, %1407[%9 : i32] : vector<8xbf16> loc(#loc24)
    %1409 = llvm.extractelement %1408[%26 : i32] : vector<8xbf16> loc(#loc24)
    %1410 = llvm.insertelement %1409, %7[%26 : i32] : vector<8xbf16> loc(#loc24)
    %1411 = llvm.extractelement %1408[%33 : i32] : vector<8xbf16> loc(#loc24)
    %1412 = llvm.insertelement %1411, %1410[%33 : i32] : vector<8xbf16> loc(#loc24)
    %1413 = llvm.extractelement %1408[%32 : i32] : vector<8xbf16> loc(#loc24)
    %1414 = llvm.insertelement %1413, %1412[%32 : i32] : vector<8xbf16> loc(#loc24)
    %1415 = llvm.extractelement %1408[%16 : i32] : vector<8xbf16> loc(#loc24)
    %1416 = llvm.insertelement %1415, %1414[%16 : i32] : vector<8xbf16> loc(#loc24)
    %1417 = llvm.extractelement %1408[%24 : i32] : vector<8xbf16> loc(#loc24)
    %1418 = llvm.insertelement %1417, %1416[%24 : i32] : vector<8xbf16> loc(#loc24)
    %1419 = llvm.extractelement %1408[%11 : i32] : vector<8xbf16> loc(#loc24)
    %1420 = llvm.insertelement %1419, %1418[%11 : i32] : vector<8xbf16> loc(#loc24)
    %1421 = llvm.extractelement %1408[%10 : i32] : vector<8xbf16> loc(#loc24)
    %1422 = llvm.insertelement %1421, %1420[%10 : i32] : vector<8xbf16> loc(#loc24)
    %1423 = llvm.extractelement %1408[%9 : i32] : vector<8xbf16> loc(#loc24)
    %1424 = llvm.insertelement %1423, %1422[%9 : i32] : vector<8xbf16> loc(#loc24)
    %1425 = llvm.insertelement %1311, %7[%26 : i32] : vector<8xbf16> loc(#loc24)
    %1426 = llvm.insertelement %1312, %1425[%33 : i32] : vector<8xbf16> loc(#loc24)
    %1427 = llvm.insertelement %1313, %1426[%32 : i32] : vector<8xbf16> loc(#loc24)
    %1428 = llvm.insertelement %1314, %1427[%16 : i32] : vector<8xbf16> loc(#loc24)
    %1429 = llvm.insertelement %1315, %1428[%24 : i32] : vector<8xbf16> loc(#loc24)
    %1430 = llvm.insertelement %1316, %1429[%11 : i32] : vector<8xbf16> loc(#loc24)
    %1431 = llvm.insertelement %1317, %1430[%10 : i32] : vector<8xbf16> loc(#loc24)
    %1432 = llvm.insertelement %1318, %1431[%9 : i32] : vector<8xbf16> loc(#loc24)
    %1433 = llvm.extractelement %1432[%26 : i32] : vector<8xbf16> loc(#loc24)
    %1434 = llvm.insertelement %1433, %7[%26 : i32] : vector<8xbf16> loc(#loc24)
    %1435 = llvm.extractelement %1432[%33 : i32] : vector<8xbf16> loc(#loc24)
    %1436 = llvm.insertelement %1435, %1434[%33 : i32] : vector<8xbf16> loc(#loc24)
    %1437 = llvm.extractelement %1432[%32 : i32] : vector<8xbf16> loc(#loc24)
    %1438 = llvm.insertelement %1437, %1436[%32 : i32] : vector<8xbf16> loc(#loc24)
    %1439 = llvm.extractelement %1432[%16 : i32] : vector<8xbf16> loc(#loc24)
    %1440 = llvm.insertelement %1439, %1438[%16 : i32] : vector<8xbf16> loc(#loc24)
    %1441 = llvm.extractelement %1432[%24 : i32] : vector<8xbf16> loc(#loc24)
    %1442 = llvm.insertelement %1441, %1440[%24 : i32] : vector<8xbf16> loc(#loc24)
    %1443 = llvm.extractelement %1432[%11 : i32] : vector<8xbf16> loc(#loc24)
    %1444 = llvm.insertelement %1443, %1442[%11 : i32] : vector<8xbf16> loc(#loc24)
    %1445 = llvm.extractelement %1432[%10 : i32] : vector<8xbf16> loc(#loc24)
    %1446 = llvm.insertelement %1445, %1444[%10 : i32] : vector<8xbf16> loc(#loc24)
    %1447 = llvm.extractelement %1432[%9 : i32] : vector<8xbf16> loc(#loc24)
    %1448 = llvm.insertelement %1447, %1446[%9 : i32] : vector<8xbf16> loc(#loc24)
    %1449 = llvm.insertelement %1253, %6[%26 : i32] : vector<16xf32> loc(#loc24)
    %1450 = llvm.insertelement %1254, %1449[%33 : i32] : vector<16xf32> loc(#loc24)
    %1451 = llvm.insertelement %1255, %1450[%32 : i32] : vector<16xf32> loc(#loc24)
    %1452 = llvm.insertelement %1256, %1451[%16 : i32] : vector<16xf32> loc(#loc24)
    %1453 = llvm.insertelement %1257, %1452[%24 : i32] : vector<16xf32> loc(#loc24)
    %1454 = llvm.insertelement %1258, %1453[%11 : i32] : vector<16xf32> loc(#loc24)
    %1455 = llvm.insertelement %1259, %1454[%10 : i32] : vector<16xf32> loc(#loc24)
    %1456 = llvm.insertelement %1260, %1455[%9 : i32] : vector<16xf32> loc(#loc24)
    %1457 = llvm.insertelement %1261, %1456[%23 : i32] : vector<16xf32> loc(#loc24)
    %1458 = llvm.insertelement %1262, %1457[%15 : i32] : vector<16xf32> loc(#loc24)
    %1459 = llvm.insertelement %1263, %1458[%14 : i32] : vector<16xf32> loc(#loc24)
    %1460 = llvm.insertelement %1264, %1459[%13 : i32] : vector<16xf32> loc(#loc24)
    %1461 = llvm.insertelement %1265, %1460[%5 : i32] : vector<16xf32> loc(#loc24)
    %1462 = llvm.insertelement %1266, %1461[%4 : i32] : vector<16xf32> loc(#loc24)
    %1463 = llvm.insertelement %1267, %1462[%3 : i32] : vector<16xf32> loc(#loc24)
    %1464 = llvm.insertelement %1268, %1463[%2 : i32] : vector<16xf32> loc(#loc24)
    %1465 = rocdl.mfma.f32.32x32x16.bf16 %1424, %1376, %1464, %26, %26, %26 : (vector<8xbf16>, vector<8xbf16>, vector<16xf32>, i32, i32, i32) -> vector<16xf32> loc(#loc24)
    %1466 = rocdl.mfma.f32.32x32x16.bf16 %1448, %1400, %1465, %26, %26, %26 : (vector<8xbf16>, vector<8xbf16>, vector<16xf32>, i32, i32, i32) -> vector<16xf32> loc(#loc24)
    %1467 = llvm.extractelement %1466[%26 : i32] : vector<16xf32> loc(#loc24)
    %1468 = llvm.extractelement %1466[%33 : i32] : vector<16xf32> loc(#loc24)
    %1469 = llvm.extractelement %1466[%32 : i32] : vector<16xf32> loc(#loc24)
    %1470 = llvm.extractelement %1466[%16 : i32] : vector<16xf32> loc(#loc24)
    %1471 = llvm.extractelement %1466[%24 : i32] : vector<16xf32> loc(#loc24)
    %1472 = llvm.extractelement %1466[%11 : i32] : vector<16xf32> loc(#loc24)
    %1473 = llvm.extractelement %1466[%10 : i32] : vector<16xf32> loc(#loc24)
    %1474 = llvm.extractelement %1466[%9 : i32] : vector<16xf32> loc(#loc24)
    %1475 = llvm.extractelement %1466[%23 : i32] : vector<16xf32> loc(#loc24)
    %1476 = llvm.extractelement %1466[%15 : i32] : vector<16xf32> loc(#loc24)
    %1477 = llvm.extractelement %1466[%14 : i32] : vector<16xf32> loc(#loc24)
    %1478 = llvm.extractelement %1466[%13 : i32] : vector<16xf32> loc(#loc24)
    %1479 = llvm.extractelement %1466[%5 : i32] : vector<16xf32> loc(#loc24)
    %1480 = llvm.extractelement %1466[%4 : i32] : vector<16xf32> loc(#loc24)
    %1481 = llvm.extractelement %1466[%3 : i32] : vector<16xf32> loc(#loc24)
    %1482 = llvm.extractelement %1466[%2 : i32] : vector<16xf32> loc(#loc24)
    %1483 = llvm.insertvalue %1467, %34[0] : !llvm.struct<(f32, f32, f32, f32, f32, f32, f32, f32, f32, f32, f32, f32, f32, f32, f32, f32)>  loc(#loc24)
    %1484 = llvm.insertvalue %1468, %1483[1] : !llvm.struct<(f32, f32, f32, f32, f32, f32, f32, f32, f32, f32, f32, f32, f32, f32, f32, f32)>  loc(#loc24)
    %1485 = llvm.insertvalue %1469, %1484[2] : !llvm.struct<(f32, f32, f32, f32, f32, f32, f32, f32, f32, f32, f32, f32, f32, f32, f32, f32)>  loc(#loc24)
    %1486 = llvm.insertvalue %1470, %1485[3] : !llvm.struct<(f32, f32, f32, f32, f32, f32, f32, f32, f32, f32, f32, f32, f32, f32, f32, f32)>  loc(#loc24)
    %1487 = llvm.insertvalue %1471, %1486[4] : !llvm.struct<(f32, f32, f32, f32, f32, f32, f32, f32, f32, f32, f32, f32, f32, f32, f32, f32)>  loc(#loc24)
    %1488 = llvm.insertvalue %1472, %1487[5] : !llvm.struct<(f32, f32, f32, f32, f32, f32, f32, f32, f32, f32, f32, f32, f32, f32, f32, f32)>  loc(#loc24)
    %1489 = llvm.insertvalue %1473, %1488[6] : !llvm.struct<(f32, f32, f32, f32, f32, f32, f32, f32, f32, f32, f32, f32, f32, f32, f32, f32)>  loc(#loc24)
    %1490 = llvm.insertvalue %1474, %1489[7] : !llvm.struct<(f32, f32, f32, f32, f32, f32, f32, f32, f32, f32, f32, f32, f32, f32, f32, f32)>  loc(#loc24)
    %1491 = llvm.insertvalue %1475, %1490[8] : !llvm.struct<(f32, f32, f32, f32, f32, f32, f32, f32, f32, f32, f32, f32, f32, f32, f32, f32)>  loc(#loc24)
    %1492 = llvm.insertvalue %1476, %1491[9] : !llvm.struct<(f32, f32, f32, f32, f32, f32, f32, f32, f32, f32, f32, f32, f32, f32, f32, f32)>  loc(#loc24)
    %1493 = llvm.insertvalue %1477, %1492[10] : !llvm.struct<(f32, f32, f32, f32, f32, f32, f32, f32, f32, f32, f32, f32, f32, f32, f32, f32)>  loc(#loc24)
    %1494 = llvm.insertvalue %1478, %1493[11] : !llvm.struct<(f32, f32, f32, f32, f32, f32, f32, f32, f32, f32, f32, f32, f32, f32, f32, f32)>  loc(#loc24)
    %1495 = llvm.insertvalue %1479, %1494[12] : !llvm.struct<(f32, f32, f32, f32, f32, f32, f32, f32, f32, f32, f32, f32, f32, f32, f32, f32)>  loc(#loc24)
    %1496 = llvm.insertvalue %1480, %1495[13] : !llvm.struct<(f32, f32, f32, f32, f32, f32, f32, f32, f32, f32, f32, f32, f32, f32, f32, f32)>  loc(#loc24)
    %1497 = llvm.insertvalue %1481, %1496[14] : !llvm.struct<(f32, f32, f32, f32, f32, f32, f32, f32, f32, f32, f32, f32, f32, f32, f32, f32)>  loc(#loc24)
    %1498 = llvm.insertvalue %1482, %1497[15] : !llvm.struct<(f32, f32, f32, f32, f32, f32, f32, f32, f32, f32, f32, f32, f32, f32, f32, f32)>  loc(#loc24)
    llvm.br ^bb10(%1498 : !llvm.struct<(f32, f32, f32, f32, f32, f32, f32, f32, f32, f32, f32, f32, f32, f32, f32, f32)>) loc(#loc24)
  ^bb9:  // pred: ^bb7
    llvm.br ^bb10(%1284 : !llvm.struct<(f32, f32, f32, f32, f32, f32, f32, f32, f32, f32, f32, f32, f32, f32, f32, f32)>) loc(#loc24)
  ^bb10(%1499: !llvm.struct<(f32, f32, f32, f32, f32, f32, f32, f32, f32, f32, f32, f32, f32, f32, f32, f32)> loc("/home/adespirl/wave/lit_tests/kernel/wave/gemm_bench.py":78:30)):  // 2 preds: ^bb8, ^bb9
    llvm.br ^bb11 loc(#loc24)
  ^bb11:  // pred: ^bb10
    %1500 = llvm.extractvalue %1499[0] : !llvm.struct<(f32, f32, f32, f32, f32, f32, f32, f32, f32, f32, f32, f32, f32, f32, f32, f32)>  loc(#loc9)
    %1501 = llvm.extractvalue %1499[1] : !llvm.struct<(f32, f32, f32, f32, f32, f32, f32, f32, f32, f32, f32, f32, f32, f32, f32, f32)>  loc(#loc9)
    %1502 = llvm.extractvalue %1499[2] : !llvm.struct<(f32, f32, f32, f32, f32, f32, f32, f32, f32, f32, f32, f32, f32, f32, f32, f32)>  loc(#loc9)
    %1503 = llvm.extractvalue %1499[3] : !llvm.struct<(f32, f32, f32, f32, f32, f32, f32, f32, f32, f32, f32, f32, f32, f32, f32, f32)>  loc(#loc9)
    %1504 = llvm.extractvalue %1499[4] : !llvm.struct<(f32, f32, f32, f32, f32, f32, f32, f32, f32, f32, f32, f32, f32, f32, f32, f32)>  loc(#loc9)
    %1505 = llvm.extractvalue %1499[5] : !llvm.struct<(f32, f32, f32, f32, f32, f32, f32, f32, f32, f32, f32, f32, f32, f32, f32, f32)>  loc(#loc9)
    %1506 = llvm.extractvalue %1499[6] : !llvm.struct<(f32, f32, f32, f32, f32, f32, f32, f32, f32, f32, f32, f32, f32, f32, f32, f32)>  loc(#loc9)
    %1507 = llvm.extractvalue %1499[7] : !llvm.struct<(f32, f32, f32, f32, f32, f32, f32, f32, f32, f32, f32, f32, f32, f32, f32, f32)>  loc(#loc9)
    %1508 = llvm.extractvalue %1499[8] : !llvm.struct<(f32, f32, f32, f32, f32, f32, f32, f32, f32, f32, f32, f32, f32, f32, f32, f32)>  loc(#loc9)
    %1509 = llvm.extractvalue %1499[9] : !llvm.struct<(f32, f32, f32, f32, f32, f32, f32, f32, f32, f32, f32, f32, f32, f32, f32, f32)>  loc(#loc9)
    %1510 = llvm.extractvalue %1499[10] : !llvm.struct<(f32, f32, f32, f32, f32, f32, f32, f32, f32, f32, f32, f32, f32, f32, f32, f32)>  loc(#loc9)
    %1511 = llvm.extractvalue %1499[11] : !llvm.struct<(f32, f32, f32, f32, f32, f32, f32, f32, f32, f32, f32, f32, f32, f32, f32, f32)>  loc(#loc9)
    %1512 = llvm.extractvalue %1499[12] : !llvm.struct<(f32, f32, f32, f32, f32, f32, f32, f32, f32, f32, f32, f32, f32, f32, f32, f32)>  loc(#loc9)
    %1513 = llvm.extractvalue %1499[13] : !llvm.struct<(f32, f32, f32, f32, f32, f32, f32, f32, f32, f32, f32, f32, f32, f32, f32, f32)>  loc(#loc9)
    %1514 = llvm.extractvalue %1499[14] : !llvm.struct<(f32, f32, f32, f32, f32, f32, f32, f32, f32, f32, f32, f32, f32, f32, f32, f32)>  loc(#loc9)
    %1515 = llvm.extractvalue %1499[15] : !llvm.struct<(f32, f32, f32, f32, f32, f32, f32, f32, f32, f32, f32, f32, f32, f32, f32, f32)>  loc(#loc9)
    %1516 = llvm.select %857, %1500, %1253 : i1, f32 loc(#loc9)
    %1517 = llvm.select %857, %1501, %1254 : i1, f32 loc(#loc9)
    %1518 = llvm.select %857, %1502, %1255 : i1, f32 loc(#loc9)
    %1519 = llvm.select %857, %1503, %1256 : i1, f32 loc(#loc9)
    %1520 = llvm.select %857, %1504, %1257 : i1, f32 loc(#loc9)
    %1521 = llvm.select %857, %1505, %1258 : i1, f32 loc(#loc9)
    %1522 = llvm.select %857, %1506, %1259 : i1, f32 loc(#loc9)
    %1523 = llvm.select %857, %1507, %1260 : i1, f32 loc(#loc9)
    %1524 = llvm.select %857, %1508, %1261 : i1, f32 loc(#loc9)
    %1525 = llvm.select %857, %1509, %1262 : i1, f32 loc(#loc9)
    %1526 = llvm.select %857, %1510, %1263 : i1, f32 loc(#loc9)
    %1527 = llvm.select %857, %1511, %1264 : i1, f32 loc(#loc9)
    %1528 = llvm.select %857, %1512, %1265 : i1, f32 loc(#loc9)
    %1529 = llvm.select %857, %1513, %1266 : i1, f32 loc(#loc9)
    %1530 = llvm.select %857, %1514, %1267 : i1, f32 loc(#loc9)
    %1531 = llvm.select %857, %1515, %1268 : i1, f32 loc(#loc9)
    %1532 = llvm.mul %53, %arg8 : i32 loc(#loc25)
    %1533 = llvm.mul %380, %arg8 : i32 loc(#loc25)
    %1534 = llvm.getelementptr %arg0[%1532] : (!llvm.ptr<1>, i32) -> !llvm.ptr<1>, f32 loc(#loc25)
    %1535 = llvm.getelementptr %1534[%193] : (!llvm.ptr<1>, i32) -> !llvm.ptr<1>, f32 loc(#loc26)
    %1536 = llvm.add %389, %1533 : i32 loc(#loc26)
    %1537 = llvm.add %390, %1533 : i32 loc(#loc26)
    %1538 = llvm.add %391, %1533 : i32 loc(#loc26)
    %1539 = llvm.add %392, %1533 : i32 loc(#loc26)
    %1540 = llvm.icmp "slt" %393, %arg3 : i32 loc(#loc27)
    %1541 = llvm.icmp "slt" %394, %arg4 : i32 loc(#loc28)
    %1542 = llvm.icmp "slt" %395, %arg4 : i32 loc(#loc28)
    %1543 = llvm.icmp "slt" %396, %arg4 : i32 loc(#loc28)
    %1544 = llvm.icmp "slt" %397, %arg4 : i32 loc(#loc28)
    %1545 = llvm.and %1540, %1541 : i1 loc(#loc29)
    %1546 = llvm.and %1540, %1542 : i1 loc(#loc29)
    %1547 = llvm.and %1540, %1543 : i1 loc(#loc29)
    %1548 = llvm.and %1540, %1544 : i1 loc(#loc29)
    %1549 = llvm.getelementptr %1535[%1536] : (!llvm.ptr<1>, i32) -> !llvm.ptr<1>, f32 loc(#loc30)
    %1550 = llvm.getelementptr %1535[%1537] : (!llvm.ptr<1>, i32) -> !llvm.ptr<1>, f32 loc(#loc30)
    %1551 = llvm.getelementptr %1535[%1538] : (!llvm.ptr<1>, i32) -> !llvm.ptr<1>, f32 loc(#loc30)
    %1552 = llvm.getelementptr %1535[%1539] : (!llvm.ptr<1>, i32) -> !llvm.ptr<1>, f32 loc(#loc30)
    %1553 = llvm.and %1, %1545 : i1 loc(#loc30)
    %1554 = llvm.insertelement %1516, %0[%26 : i32] : vector<4xf32> loc(#loc30)
    %1555 = llvm.insertelement %1517, %1554[%33 : i32] : vector<4xf32> loc(#loc30)
    %1556 = llvm.insertelement %1518, %1555[%32 : i32] : vector<4xf32> loc(#loc30)
    %1557 = llvm.insertelement %1519, %1556[%16 : i32] : vector<4xf32> loc(#loc30)
    llvm.call @"__triton_hip_predicated_store_!llvm.void_!llvm.ptr<1>_vector<4xf32>_i1_"(%1549, %1557, %1553) : (!llvm.ptr<1>, vector<4xf32>, i1) -> () loc(#loc30)
    %1558 = llvm.and %1, %1546 : i1 loc(#loc30)
    %1559 = llvm.insertelement %1520, %0[%26 : i32] : vector<4xf32> loc(#loc30)
    %1560 = llvm.insertelement %1521, %1559[%33 : i32] : vector<4xf32> loc(#loc30)
    %1561 = llvm.insertelement %1522, %1560[%32 : i32] : vector<4xf32> loc(#loc30)
    %1562 = llvm.insertelement %1523, %1561[%16 : i32] : vector<4xf32> loc(#loc30)
    llvm.call @"__triton_hip_predicated_store_!llvm.void_!llvm.ptr<1>_vector<4xf32>_i1_"(%1550, %1562, %1558) : (!llvm.ptr<1>, vector<4xf32>, i1) -> () loc(#loc30)
    %1563 = llvm.and %1, %1547 : i1 loc(#loc30)
    %1564 = llvm.insertelement %1524, %0[%26 : i32] : vector<4xf32> loc(#loc30)
    %1565 = llvm.insertelement %1525, %1564[%33 : i32] : vector<4xf32> loc(#loc30)
    %1566 = llvm.insertelement %1526, %1565[%32 : i32] : vector<4xf32> loc(#loc30)
    %1567 = llvm.insertelement %1527, %1566[%16 : i32] : vector<4xf32> loc(#loc30)
    llvm.call @"__triton_hip_predicated_store_!llvm.void_!llvm.ptr<1>_vector<4xf32>_i1_"(%1551, %1567, %1563) : (!llvm.ptr<1>, vector<4xf32>, i1) -> () loc(#loc30)
    %1568 = llvm.and %1, %1548 : i1 loc(#loc30)
    %1569 = llvm.insertelement %1528, %0[%26 : i32] : vector<4xf32> loc(#loc30)
    %1570 = llvm.insertelement %1529, %1569[%33 : i32] : vector<4xf32> loc(#loc30)
    %1571 = llvm.insertelement %1530, %1570[%32 : i32] : vector<4xf32> loc(#loc30)
    %1572 = llvm.insertelement %1531, %1571[%16 : i32] : vector<4xf32> loc(#loc30)
    llvm.call @"__triton_hip_predicated_store_!llvm.void_!llvm.ptr<1>_vector<4xf32>_i1_"(%1552, %1572, %1568) : (!llvm.ptr<1>, vector<4xf32>, i1) -> () loc(#loc30)
    llvm.return loc(#loc31)
  } loc(#loc34)
} loc(#loc)
#di_file = #llvm.di_file<"gemm_bench.py" in "/home/adespirl/wave/lit_tests/kernel/wave">
#di_subroutine_type = #llvm.di_subroutine_type<callingConvention = DW_CC_normal>
#loc2 = loc("/home/adespirl/wave/lit_tests/kernel/wave/gemm_bench.py":49:26)
#loc3 = loc("/home/adespirl/wave/lit_tests/kernel/wave/gemm_bench.py":52:21)
#loc4 = loc("/home/adespirl/wave/lit_tests/kernel/wave/gemm_bench.py":52:44)
#loc5 = loc("/home/adespirl/wave/lit_tests/kernel/wave/gemm_bench.py":52:31)
#loc6 = loc("/home/adespirl/wave/lit_tests/kernel/wave/gemm_bench.py":63:20)
#loc7 = loc("/home/adespirl/wave/lit_tests/kernel/wave/gemm_bench.py":54:26)
#loc8 = loc("/home/adespirl/wave/lit_tests/kernel/wave/gemm_bench.py":64:20)
#loc10 = loc("/home/adespirl/wave/lit_tests/kernel/wave/gemm_bench.py":66:49)
#loc11 = loc("/home/adespirl/wave/lit_tests/kernel/wave/gemm_bench.py":59:33)
#loc12 = loc("/home/adespirl/wave/lit_tests/kernel/wave/gemm_bench.py":66:54)
#loc14 = loc("/home/adespirl/wave/lit_tests/kernel/wave/gemm_bench.py":50:26)
#loc15 = loc("/home/adespirl/wave/lit_tests/kernel/wave/gemm_bench.py":53:21)
#loc16 = loc("/home/adespirl/wave/lit_tests/kernel/wave/gemm_bench.py":53:31)
#loc17 = loc("/home/adespirl/wave/lit_tests/kernel/wave/gemm_bench.py":71:20)
#loc18 = loc("/home/adespirl/wave/lit_tests/kernel/wave/gemm_bench.py":72:20)
#loc19 = loc("/home/adespirl/wave/lit_tests/kernel/wave/gemm_bench.py":74:52)
#loc20 = loc("/home/adespirl/wave/lit_tests/kernel/wave/gemm_bench.py":74:57)
#loc22 = loc("/home/adespirl/wave/lit_tests/kernel/wave/gemm_bench.py":59:23)
#loc23 = loc("/home/adespirl/wave/lit_tests/kernel/wave/gemm_bench.py":76:26)
#loc25 = loc("/home/adespirl/wave/lit_tests/kernel/wave/gemm_bench.py":80:17)
#loc26 = loc("/home/adespirl/wave/lit_tests/kernel/wave/gemm_bench.py":80:47)
#loc27 = loc("/home/adespirl/wave/lit_tests/kernel/wave/gemm_bench.py":81:50)
#loc28 = loc("/home/adespirl/wave/lit_tests/kernel/wave/gemm_bench.py":81:74)
#loc29 = loc("/home/adespirl/wave/lit_tests/kernel/wave/gemm_bench.py":81:56)
#loc30 = loc("/home/adespirl/wave/lit_tests/kernel/wave/gemm_bench.py":81:21)
#loc31 = loc("/home/adespirl/wave/lit_tests/kernel/wave/gemm_bench.py":81:4)
#di_compile_unit = #llvm.di_compile_unit<id = distinct[0]<>, sourceLanguage = DW_LANG_C, file = #di_file, producer = "triton", isOptimized = true, emissionKind = LineTablesOnly>
#di_subprogram = #llvm.di_subprogram<scope = #di_file, name = "__triton_hip_predicated_load_vector<1xbf16>_!llvm.ptr<1>_i1_vector<1xbf16>_", linkageName = "__triton_hip_predicated_load_vector<1xbf16>_!llvm.ptr<1>_i1_vector<1xbf16>_", file = #di_file, line = 41, scopeLine = 41, subprogramFlags = Optimized, type = #di_subroutine_type>
#di_subprogram1 = #llvm.di_subprogram<scope = #di_file, name = "__triton_hip_predicated_store_!llvm.void_!llvm.ptr<1>_vector<4xf32>_i1_", linkageName = "__triton_hip_predicated_store_!llvm.void_!llvm.ptr<1>_vector<4xf32>_i1_", file = #di_file, line = 41, scopeLine = 41, subprogramFlags = Optimized, type = #di_subroutine_type>
#di_subprogram2 = #llvm.di_subprogram<id = distinct[0]<>, compileUnit = #di_compile_unit, scope = #di_file, name = "matmul_abt_kernel", linkageName = "matmul_abt_kernel", file = #di_file, line = 41, scopeLine = 41, subprogramFlags = "Definition|Optimized", type = #di_subroutine_type>
#loc32 = loc(fused<#di_subprogram>[#loc])
#loc33 = loc(fused<#di_subprogram1>[#loc])
#loc34 = loc(fused<#di_subprogram2>[#loc])


